(0.000s) Importing stuff...
(3.995s) Preparing data...
(4.302s) Preparing model...
(8.362s) Beginning training session...
(E1 24.342s T)	[0/2975 (0%)]	Loss: 3.380185	Score:  30.993%
(E1 35.809s T)	[16/2975 (1%)]	Loss: 3.356256	Score:  32.970%
(E1 36.962s T)	[32/2975 (1%)]	Loss: 3.325425	Score:  30.753%
(E1 37.935s T)	[48/2975 (2%)]	Loss: 3.263262	Score:  29.994%
(E1 38.939s T)	[64/2975 (2%)]	Loss: 3.110665	Score:  30.316%
(E1 39.907s T)	[80/2975 (3%)]	Loss: 2.476189	Score:  32.353%
(E1 40.872s T)	[96/2975 (3%)]	Loss: 2.804663	Score:  30.485%
(E1 41.841s T)	[112/2975 (4%)]	Loss: 2.802336	Score:  32.988%
(E1 42.802s T)	[128/2975 (4%)]	Loss: 2.646891	Score:  17.179%
(E1 43.765s T)	[144/2975 (5%)]	Loss: 2.474313	Score:  19.968%
(E1 44.719s T)	[160/2975 (5%)]	Loss: 2.584953	Score:  17.693%
(E1 45.692s T)	[176/2975 (6%)]	Loss: 2.407527	Score:  31.720%
(E1 46.651s T)	[192/2975 (6%)]	Loss: 2.340049	Score:  33.921%
(E1 47.611s T)	[208/2975 (7%)]	Loss: 2.474704	Score:  28.471%
(E1 48.572s T)	[224/2975 (8%)]	Loss: 2.415377	Score:  31.865%
(E1 49.553s T)	[240/2975 (8%)]	Loss: 2.473860	Score:  30.856%
(E1 50.522s T)	[256/2975 (9%)]	Loss: 2.526561	Score:  29.255%
(E1 51.482s T)	[272/2975 (9%)]	Loss: 2.365272	Score:  33.550%
(E1 52.466s T)	[288/2975 (10%)]	Loss: 2.501780	Score:  31.092%
(E1 53.464s T)	[304/2975 (10%)]	Loss: 2.412613	Score:  33.776%
(E1 54.421s T)	[320/2975 (11%)]	Loss: 2.370266	Score:  32.810%
(E1 55.389s T)	[336/2975 (11%)]	Loss: 2.473933	Score:  28.526%
(E1 56.355s T)	[352/2975 (12%)]	Loss: 2.502498	Score:  28.984%
(E1 57.340s T)	[368/2975 (12%)]	Loss: 2.428636	Score:  32.546%
(E1 58.303s T)	[384/2975 (13%)]	Loss: 2.330970	Score:  31.916%
(E1 59.259s T)	[400/2975 (13%)]	Loss: 2.343011	Score:  34.247%
(E1 60.234s T)	[416/2975 (14%)]	Loss: 2.284651	Score:  35.843%
(E1 61.206s T)	[432/2975 (15%)]	Loss: 2.267493	Score:  34.056%
(E1 62.182s T)	[448/2975 (15%)]	Loss: 2.228613	Score:  37.386%
(E1 63.160s T)	[464/2975 (16%)]	Loss: 2.345815	Score:  33.137%
(E1 64.111s T)	[480/2975 (16%)]	Loss: 2.425308	Score:  30.025%
(E1 65.081s T)	[496/2975 (17%)]	Loss: 2.434167	Score:  29.462%
(E1 66.050s T)	[512/2975 (17%)]	Loss: 2.359985	Score:  31.856%
(E1 67.015s T)	[528/2975 (18%)]	Loss: 2.328637	Score:  33.546%
(E1 67.971s T)	[544/2975 (18%)]	Loss: 2.279243	Score:  31.147%
(E1 68.931s T)	[560/2975 (19%)]	Loss: 2.347189	Score:  30.413%
(E1 69.892s T)	[576/2975 (19%)]	Loss: 2.356526	Score:  32.753%
(E1 70.857s T)	[592/2975 (20%)]	Loss: 2.369726	Score:  32.883%
(E1 71.823s T)	[608/2975 (20%)]	Loss: 2.321385	Score:  33.826%
(E1 72.787s T)	[624/2975 (21%)]	Loss: 2.287302	Score:  33.549%
(E1 73.755s T)	[640/2975 (22%)]	Loss: 2.371960	Score:  32.898%
(E1 74.723s T)	[656/2975 (22%)]	Loss: 2.307678	Score:  35.661%
(E1 75.691s T)	[672/2975 (23%)]	Loss: 2.404813	Score:  29.768%
(E1 76.661s T)	[688/2975 (23%)]	Loss: 2.269666	Score:  38.092%
(E1 77.627s T)	[704/2975 (24%)]	Loss: 2.255890	Score:  37.218%
(E1 78.591s T)	[720/2975 (24%)]	Loss: 2.336294	Score:  35.332%
(E1 79.565s T)	[736/2975 (25%)]	Loss: 2.170044	Score:  35.948%
(E1 80.517s T)	[752/2975 (25%)]	Loss: 2.216116	Score:  38.902%
(E1 81.484s T)	[768/2975 (26%)]	Loss: 2.194192	Score:  37.119%
(E1 82.448s T)	[784/2975 (26%)]	Loss: 2.142401	Score:  37.536%
(E1 83.421s T)	[800/2975 (27%)]	Loss: 2.334893	Score:  34.884%
(E1 84.397s T)	[816/2975 (27%)]	Loss: 2.125816	Score:  41.202%
(E1 85.352s T)	[832/2975 (28%)]	Loss: 2.081457	Score:  39.456%
(E1 86.302s T)	[848/2975 (28%)]	Loss: 2.222294	Score:  37.331%
(E1 87.267s T)	[864/2975 (29%)]	Loss: 2.276775	Score:  36.279%
(E1 88.231s T)	[880/2975 (30%)]	Loss: 2.225220	Score:  38.929%
(E1 89.195s T)	[896/2975 (30%)]	Loss: 2.180098	Score:  38.922%
(E1 90.156s T)	[912/2975 (31%)]	Loss: 2.226607	Score:  40.427%
(E1 91.122s T)	[928/2975 (31%)]	Loss: 2.309339	Score:  35.488%
(E1 92.089s T)	[944/2975 (32%)]	Loss: 2.077227	Score:  43.397%
(E1 93.045s T)	[960/2975 (32%)]	Loss: 2.087983	Score:  42.388%
(E1 94.003s T)	[976/2975 (33%)]	Loss: 2.220657	Score:  37.648%
(E1 94.968s T)	[992/2975 (33%)]	Loss: 2.166607	Score:  34.599%
(E1 95.914s T)	[1008/2975 (34%)]	Loss: 2.280426	Score:  34.301%
(E1 96.873s T)	[1024/2975 (34%)]	Loss: 2.186750	Score:  39.097%
(E1 97.841s T)	[1040/2975 (35%)]	Loss: 2.046417	Score:  40.807%
(E1 98.818s T)	[1056/2975 (35%)]	Loss: 2.223140	Score:  40.596%
(E1 99.762s T)	[1072/2975 (36%)]	Loss: 1.937849	Score:  46.426%
(E1 100.727s T)	[1088/2975 (37%)]	Loss: 2.155333	Score:  41.928%
(E1 101.692s T)	[1104/2975 (37%)]	Loss: 2.060191	Score:  41.241%
(E1 102.654s T)	[1120/2975 (38%)]	Loss: 2.106314	Score:  40.304%
(E1 103.623s T)	[1136/2975 (38%)]	Loss: 2.061877	Score:  42.688%
(E1 104.595s T)	[1152/2975 (39%)]	Loss: 2.189145	Score:  39.582%
(E1 105.559s T)	[1168/2975 (39%)]	Loss: 2.100956	Score:  42.994%
(E1 106.512s T)	[1184/2975 (40%)]	Loss: 2.032389	Score:  42.169%
(E1 107.472s T)	[1200/2975 (40%)]	Loss: 2.083521	Score:  43.487%
(E1 108.449s T)	[1216/2975 (41%)]	Loss: 2.025049	Score:  47.920%
(E1 109.417s T)	[1232/2975 (41%)]	Loss: 2.216234	Score:  40.251%
(E1 110.390s T)	[1248/2975 (42%)]	Loss: 1.974689	Score:  47.235%
(E1 111.355s T)	[1264/2975 (42%)]	Loss: 1.989096	Score:  43.033%
(E1 112.322s T)	[1280/2975 (43%)]	Loss: 1.901196	Score:  46.246%
(E1 113.315s T)	[1296/2975 (44%)]	Loss: 2.107623	Score:  41.311%
(E1 114.261s T)	[1312/2975 (44%)]	Loss: 2.003308	Score:  46.646%
(E1 115.233s T)	[1328/2975 (45%)]	Loss: 2.235070	Score:  42.235%
(E1 116.200s T)	[1344/2975 (45%)]	Loss: 1.979761	Score:  46.217%
(E1 117.175s T)	[1360/2975 (46%)]	Loss: 2.023164	Score:  45.143%
(E1 118.150s T)	[1376/2975 (46%)]	Loss: 2.103759	Score:  44.358%
(E1 119.111s T)	[1392/2975 (47%)]	Loss: 2.169314	Score:  41.742%
(E1 120.093s T)	[1408/2975 (47%)]	Loss: 1.924838	Score:  49.418%
(E1 121.072s T)	[1424/2975 (48%)]	Loss: 2.026044	Score:  45.485%
(E1 122.036s T)	[1440/2975 (48%)]	Loss: 1.988536	Score:  44.027%
(E1 123.000s T)	[1456/2975 (49%)]	Loss: 1.959745	Score:  45.588%
(E1 123.981s T)	[1472/2975 (49%)]	Loss: 2.006862	Score:  45.593%
(E1 124.955s T)	[1488/2975 (50%)]	Loss: 2.055870	Score:  45.696%
(E1 125.915s T)	[1504/2975 (51%)]	Loss: 1.989065	Score:  47.588%
(E1 126.892s T)	[1520/2975 (51%)]	Loss: 2.053128	Score:  45.969%
(E1 127.854s T)	[1536/2975 (52%)]	Loss: 1.880391	Score:  47.732%
(E1 128.819s T)	[1552/2975 (52%)]	Loss: 2.005150	Score:  47.114%
(E1 129.776s T)	[1568/2975 (53%)]	Loss: 2.133929	Score:  46.290%
(E1 130.749s T)	[1584/2975 (53%)]	Loss: 2.230017	Score:  42.916%
(E1 131.701s T)	[1600/2975 (54%)]	Loss: 2.023589	Score:  47.359%
(E1 132.662s T)	[1616/2975 (54%)]	Loss: 2.025662	Score:  46.508%
(E1 133.621s T)	[1632/2975 (55%)]	Loss: 1.995524	Score:  48.080%
(E1 134.595s T)	[1648/2975 (55%)]	Loss: 2.122458	Score:  44.362%
(E1 135.568s T)	[1664/2975 (56%)]	Loss: 2.134451	Score:  45.833%
(E1 136.541s T)	[1680/2975 (56%)]	Loss: 1.953191	Score:  49.550%
(E1 137.503s T)	[1696/2975 (57%)]	Loss: 1.983858	Score:  45.229%
(E1 138.490s T)	[1712/2975 (58%)]	Loss: 2.050452	Score:  46.669%
(E1 139.456s T)	[1728/2975 (58%)]	Loss: 2.124818	Score:  44.201%
(E1 140.422s T)	[1744/2975 (59%)]	Loss: 2.164689	Score:  40.574%
(E1 141.394s T)	[1760/2975 (59%)]	Loss: 2.045487	Score:  44.042%
(E1 142.356s T)	[1776/2975 (60%)]	Loss: 2.019862	Score:  44.607%
(E1 143.323s T)	[1792/2975 (60%)]	Loss: 2.199253	Score:  40.211%
(E1 144.295s T)	[1808/2975 (61%)]	Loss: 1.902853	Score:  48.713%
(E1 145.261s T)	[1824/2975 (61%)]	Loss: 2.108889	Score:  46.482%
(E1 146.222s T)	[1840/2975 (62%)]	Loss: 2.040488	Score:  46.153%
(E1 147.190s T)	[1856/2975 (62%)]	Loss: 1.981371	Score:  46.928%
(E1 148.155s T)	[1872/2975 (63%)]	Loss: 2.133574	Score:  41.966%
(E1 149.121s T)	[1888/2975 (63%)]	Loss: 2.110429	Score:  45.253%
(E1 150.088s T)	[1904/2975 (64%)]	Loss: 1.960374	Score:  47.807%
(E1 151.051s T)	[1920/2975 (65%)]	Loss: 1.966441	Score:  47.844%
(E1 152.002s T)	[1936/2975 (65%)]	Loss: 1.939089	Score:  49.415%
(E1 152.930s T)	[1952/2975 (66%)]	Loss: 1.927668	Score:  50.708%
(E1 153.630s T)	[1968/2975 (66%)]	Loss: 2.002223	Score:  46.173%
(E1 154.330s T)	[1984/2975 (67%)]	Loss: 1.934322	Score:  49.525%
(E1 155.028s T)	[2000/2975 (67%)]	Loss: 1.941073	Score:  48.071%
(E1 155.728s T)	[2016/2975 (68%)]	Loss: 1.843673	Score:  51.718%
(E1 156.430s T)	[2032/2975 (68%)]	Loss: 1.918304	Score:  50.980%
(E1 157.124s T)	[2048/2975 (69%)]	Loss: 2.124948	Score:  45.356%
(E1 157.833s T)	[2064/2975 (69%)]	Loss: 1.864182	Score:  48.036%
(E1 158.529s T)	[2080/2975 (70%)]	Loss: 2.079929	Score:  41.326%
(E1 159.227s T)	[2096/2975 (70%)]	Loss: 2.000844	Score:  46.415%
(E1 159.922s T)	[2112/2975 (71%)]	Loss: 2.005008	Score:  46.821%
(E1 160.626s T)	[2128/2975 (72%)]	Loss: 1.827677	Score:  53.299%
(E1 161.330s T)	[2144/2975 (72%)]	Loss: 1.818578	Score:  52.380%
(E1 162.031s T)	[2160/2975 (73%)]	Loss: 1.915065	Score:  47.785%
(E1 162.732s T)	[2176/2975 (73%)]	Loss: 1.921061	Score:  51.494%
(E1 163.441s T)	[2192/2975 (74%)]	Loss: 2.058771	Score:  45.517%
(E1 164.144s T)	[2208/2975 (74%)]	Loss: 2.008403	Score:  50.175%
(E1 164.850s T)	[2224/2975 (75%)]	Loss: 1.848056	Score:  51.068%
(E1 165.547s T)	[2240/2975 (75%)]	Loss: 1.721818	Score:  53.631%
(E1 166.246s T)	[2256/2975 (76%)]	Loss: 1.993834	Score:  45.767%
(E1 166.954s T)	[2272/2975 (76%)]	Loss: 1.797032	Score:  52.483%
(E1 167.657s T)	[2288/2975 (77%)]	Loss: 1.942631	Score:  49.821%
(E1 168.361s T)	[2304/2975 (77%)]	Loss: 1.960301	Score:  47.865%
(E1 169.061s T)	[2320/2975 (78%)]	Loss: 1.888457	Score:  50.263%
(E1 169.762s T)	[2336/2975 (78%)]	Loss: 1.847757	Score:  52.107%
(E1 170.467s T)	[2352/2975 (79%)]	Loss: 1.707966	Score:  55.078%
(E1 171.166s T)	[2368/2975 (80%)]	Loss: 1.875697	Score:  51.395%
(E1 171.865s T)	[2384/2975 (80%)]	Loss: 1.876718	Score:  51.720%
(E1 172.567s T)	[2400/2975 (81%)]	Loss: 1.795557	Score:  53.069%
(E1 173.269s T)	[2416/2975 (81%)]	Loss: 1.784853	Score:  53.379%
(E1 173.969s T)	[2432/2975 (82%)]	Loss: 1.781171	Score:  54.125%
(E1 174.670s T)	[2448/2975 (82%)]	Loss: 1.890758	Score:  49.447%
(E1 175.370s T)	[2464/2975 (83%)]	Loss: 1.827255	Score:  49.332%
(E1 176.070s T)	[2480/2975 (83%)]	Loss: 2.131263	Score:  46.979%
(E1 176.770s T)	[2496/2975 (84%)]	Loss: 1.838263	Score:  47.882%
(E1 177.472s T)	[2512/2975 (84%)]	Loss: 1.850027	Score:  49.955%
(E1 178.179s T)	[2528/2975 (85%)]	Loss: 2.069601	Score:  46.853%
(E1 178.879s T)	[2544/2975 (85%)]	Loss: 1.997511	Score:  49.818%
(E1 179.579s T)	[2560/2975 (86%)]	Loss: 1.938176	Score:  49.969%
(E1 180.272s T)	[2576/2975 (87%)]	Loss: 1.914562	Score:  50.337%
(E1 180.964s T)	[2592/2975 (87%)]	Loss: 1.817541	Score:  53.518%
(E1 181.661s T)	[2608/2975 (88%)]	Loss: 1.849127	Score:  54.704%
(E1 182.361s T)	[2624/2975 (88%)]	Loss: 1.763867	Score:  55.158%
(E1 183.060s T)	[2640/2975 (89%)]	Loss: 2.141278	Score:  48.488%
(E1 183.758s T)	[2656/2975 (89%)]	Loss: 1.995782	Score:  47.511%
(E1 184.459s T)	[2672/2975 (90%)]	Loss: 2.107074	Score:  45.469%
(E1 185.156s T)	[2688/2975 (90%)]	Loss: 2.036027	Score:  47.008%
(E1 185.853s T)	[2704/2975 (91%)]	Loss: 2.031953	Score:  46.788%
(E1 186.553s T)	[2720/2975 (91%)]	Loss: 1.841382	Score:  51.275%
(E1 187.252s T)	[2736/2975 (92%)]	Loss: 1.749224	Score:  55.279%
(E1 187.949s T)	[2752/2975 (92%)]	Loss: 1.886274	Score:  51.657%
(E1 188.652s T)	[2768/2975 (93%)]	Loss: 1.826239	Score:  53.245%
(E1 189.349s T)	[2784/2975 (94%)]	Loss: 1.897453	Score:  53.061%
(E1 190.049s T)	[2800/2975 (94%)]	Loss: 1.701952	Score:  57.690%
(E1 190.751s T)	[2816/2975 (95%)]	Loss: 1.976979	Score:  50.792%
(E1 191.451s T)	[2832/2975 (95%)]	Loss: 1.833078	Score:  53.662%
(E1 192.147s T)	[2848/2975 (96%)]	Loss: 1.817256	Score:  54.217%
(E1 192.851s T)	[2864/2975 (96%)]	Loss: 1.827549	Score:  51.458%
(E1 193.553s T)	[2880/2975 (97%)]	Loss: 1.769384	Score:  55.204%
(E1 194.253s T)	[2896/2975 (97%)]	Loss: 1.830914	Score:  54.248%
(E1 194.962s T)	[2912/2975 (98%)]	Loss: 1.741527	Score:  56.277%
(E1 195.664s T)	[2928/2975 (98%)]	Loss: 1.708364	Score:  56.777%
(E1 196.362s T)	[2944/2975 (99%)]	Loss: 1.820349	Score:  52.480%
(E1 197.050s T)	[2775/2975 (99%)]	Loss: 1.875271	Score:  54.448%
(E1 213.028s V)	[0/1000 (0%)]	Loss: 1.656092	Score:  57.954%
(E1 213.570s V)	[16/1000 (2%)]	Loss: 1.783127	Score:  54.790%
(E1 214.113s V)	[32/1000 (3%)]	Loss: 1.812514	Score:  54.758%
(E1 214.654s V)	[48/1000 (5%)]	Loss: 1.594812	Score:  58.734%
(E1 215.181s V)	[64/1000 (6%)]	Loss: 1.891795	Score:  52.648%
(E1 215.716s V)	[80/1000 (8%)]	Loss: 1.727508	Score:  55.802%
(E1 216.254s V)	[96/1000 (9%)]	Loss: 1.748156	Score:  57.633%
(E1 216.794s V)	[112/1000 (11%)]	Loss: 1.643157	Score:  58.570%
(E1 217.337s V)	[128/1000 (12%)]	Loss: 1.718093	Score:  56.007%
(E1 217.884s V)	[144/1000 (14%)]	Loss: 1.681793	Score:  58.561%
(E1 218.420s V)	[160/1000 (16%)]	Loss: 1.884735	Score:  53.801%
(E1 218.958s V)	[176/1000 (17%)]	Loss: 1.722696	Score:  55.396%
(E1 219.500s V)	[192/1000 (19%)]	Loss: 1.677623	Score:  58.525%
(E1 220.044s V)	[208/1000 (20%)]	Loss: 1.835910	Score:  56.546%
(E1 220.583s V)	[224/1000 (22%)]	Loss: 1.464424	Score:  62.766%
(E1 221.125s V)	[240/1000 (23%)]	Loss: 1.662978	Score:  56.569%
(E1 221.663s V)	[256/1000 (25%)]	Loss: 1.605110	Score:  57.674%
(E1 222.200s V)	[272/1000 (27%)]	Loss: 1.596090	Score:  58.891%
(E1 222.735s V)	[288/1000 (28%)]	Loss: 1.676244	Score:  56.969%
(E1 223.271s V)	[304/1000 (30%)]	Loss: 1.687657	Score:  57.065%
(E1 223.808s V)	[320/1000 (31%)]	Loss: 1.592994	Score:  60.884%
(E1 224.349s V)	[336/1000 (33%)]	Loss: 1.587770	Score:  59.836%
(E1 224.890s V)	[352/1000 (34%)]	Loss: 1.750240	Score:  57.629%
(E1 225.431s V)	[368/1000 (36%)]	Loss: 1.801987	Score:  55.760%
(E1 225.974s V)	[384/1000 (38%)]	Loss: 1.767699	Score:  56.858%
(E1 226.513s V)	[400/1000 (39%)]	Loss: 1.864929	Score:  51.866%
(E1 227.054s V)	[416/1000 (41%)]	Loss: 1.686499	Score:  56.010%
(E1 227.596s V)	[432/1000 (42%)]	Loss: 1.765153	Score:  55.891%
(E1 228.133s V)	[448/1000 (44%)]	Loss: 1.624855	Score:  60.723%
(E1 228.673s V)	[464/1000 (45%)]	Loss: 1.839980	Score:  52.058%
(E1 229.219s V)	[480/1000 (47%)]	Loss: 1.624361	Score:  58.632%
(E1 229.394s V)	[124/1000 (48%)]	Loss: 1.631564	Score:  57.572%
(E1 244.892s V)	[512/1000 (50%)]	Loss: 1.686502	Score:  57.210%
(E1 245.427s V)	[528/1000 (52%)]	Loss: 1.839737	Score:  55.231%
(E1 245.962s V)	[544/1000 (53%)]	Loss: 1.745545	Score:  55.527%
(E1 246.496s V)	[560/1000 (55%)]	Loss: 1.656945	Score:  56.992%
(E1 247.029s V)	[576/1000 (56%)]	Loss: 1.870495	Score:  55.947%
(E1 247.561s V)	[592/1000 (58%)]	Loss: 1.667474	Score:  57.615%
(E1 248.096s V)	[608/1000 (59%)]	Loss: 1.629328	Score:  58.260%
(E1 248.627s V)	[624/1000 (61%)]	Loss: 1.576942	Score:  59.585%
(E1 249.161s V)	[640/1000 (62%)]	Loss: 1.720690	Score:  56.039%
(E1 249.699s V)	[656/1000 (64%)]	Loss: 1.663611	Score:  56.023%
(E1 250.235s V)	[672/1000 (66%)]	Loss: 1.936587	Score:  50.811%
(E1 250.769s V)	[688/1000 (67%)]	Loss: 1.754589	Score:  56.424%
(E1 251.302s V)	[704/1000 (69%)]	Loss: 1.802859	Score:  54.282%
(E1 251.832s V)	[720/1000 (70%)]	Loss: 1.711536	Score:  58.176%
(E1 252.362s V)	[736/1000 (72%)]	Loss: 1.660391	Score:  57.605%
(E1 252.894s V)	[752/1000 (73%)]	Loss: 1.581135	Score:  59.074%
(E1 253.427s V)	[768/1000 (75%)]	Loss: 1.564997	Score:  62.179%
(E1 253.960s V)	[784/1000 (77%)]	Loss: 1.825850	Score:  53.717%
(E1 254.498s V)	[800/1000 (78%)]	Loss: 1.791494	Score:  56.488%
(E1 255.030s V)	[816/1000 (80%)]	Loss: 1.771702	Score:  55.679%
(E1 255.564s V)	[832/1000 (81%)]	Loss: 1.596491	Score:  60.673%
(E1 256.100s V)	[848/1000 (83%)]	Loss: 1.721350	Score:  56.368%
(E1 256.636s V)	[864/1000 (84%)]	Loss: 1.563635	Score:  60.254%
(E1 257.168s V)	[880/1000 (86%)]	Loss: 1.707161	Score:  56.526%
(E1 257.700s V)	[896/1000 (88%)]	Loss: 1.720599	Score:  56.394%
(E1 258.239s V)	[912/1000 (89%)]	Loss: 1.599590	Score:  59.594%
(E1 258.775s V)	[928/1000 (91%)]	Loss: 1.672019	Score:  58.413%
(E1 259.311s V)	[944/1000 (92%)]	Loss: 1.651506	Score:  55.652%
(E1 259.847s V)	[960/1000 (94%)]	Loss: 1.769122	Score:  55.447%
(E1 260.381s V)	[976/1000 (95%)]	Loss: 1.671822	Score:  58.861%
(E1 260.918s V)	[992/1000 (97%)]	Loss: 1.705292	Score:  57.344%
(E1 261.093s V)	[252/1000 (98%)]	Loss: 2.375522	Score:  43.534%

Test set: Average loss: 1.7160, Score: (56.80%)

Saving the model serialization to /home/mb385130/task2/model-epoch-0
(E2 275.885s T)	[0/2975 (0%)]	Loss: 1.676049	Score:  56.853%
(E2 289.302s T)	[16/2975 (1%)]	Loss: 1.768349	Score:  51.570%
(E2 290.492s T)	[32/2975 (1%)]	Loss: 1.701891	Score:  54.594%
(E2 291.469s T)	[48/2975 (2%)]	Loss: 1.552646	Score:  60.715%
(E2 292.446s T)	[64/2975 (2%)]	Loss: 1.736160	Score:  59.497%
(E2 293.410s T)	[80/2975 (3%)]	Loss: 1.655803	Score:  57.119%
(E2 294.370s T)	[96/2975 (3%)]	Loss: 1.892689	Score:  52.375%
(E2 295.334s T)	[112/2975 (4%)]	Loss: 1.708740	Score:  56.012%
(E2 296.300s T)	[128/2975 (4%)]	Loss: 1.632643	Score:  60.848%
(E2 297.275s T)	[144/2975 (5%)]	Loss: 1.478839	Score:  61.168%
(E2 298.248s T)	[160/2975 (5%)]	Loss: 1.652813	Score:  56.804%
(E2 299.228s T)	[176/2975 (6%)]	Loss: 1.660562	Score:  57.114%
(E2 300.205s T)	[192/2975 (6%)]	Loss: 1.844933	Score:  53.434%
(E2 301.168s T)	[208/2975 (7%)]	Loss: 1.708200	Score:  57.970%
(E2 302.130s T)	[224/2975 (8%)]	Loss: 1.671172	Score:  58.691%
(E2 303.087s T)	[240/2975 (8%)]	Loss: 1.838205	Score:  54.352%
(E2 304.055s T)	[256/2975 (9%)]	Loss: 1.502972	Score:  60.381%
(E2 305.016s T)	[272/2975 (9%)]	Loss: 1.596899	Score:  59.806%
(E2 305.989s T)	[288/2975 (10%)]	Loss: 1.518081	Score:  61.110%
(E2 306.954s T)	[304/2975 (10%)]	Loss: 1.573782	Score:  59.678%
(E2 307.926s T)	[320/2975 (11%)]	Loss: 1.480269	Score:  60.220%
(E2 308.909s T)	[336/2975 (11%)]	Loss: 1.625897	Score:  59.175%
(E2 309.875s T)	[352/2975 (12%)]	Loss: 1.665646	Score:  56.196%
(E2 310.839s T)	[368/2975 (12%)]	Loss: 1.578364	Score:  57.940%
(E2 311.803s T)	[384/2975 (13%)]	Loss: 1.726476	Score:  56.714%
(E2 312.783s T)	[400/2975 (13%)]	Loss: 1.633476	Score:  59.952%
(E2 313.755s T)	[416/2975 (14%)]	Loss: 1.653757	Score:  55.729%
(E2 314.720s T)	[432/2975 (15%)]	Loss: 1.628762	Score:  57.826%
(E2 315.695s T)	[448/2975 (15%)]	Loss: 1.667425	Score:  58.571%
(E2 316.652s T)	[464/2975 (16%)]	Loss: 1.938244	Score:  50.708%
(E2 317.625s T)	[480/2975 (16%)]	Loss: 1.720845	Score:  55.342%
(E2 318.598s T)	[496/2975 (17%)]	Loss: 1.577008	Score:  56.838%
(E2 319.560s T)	[512/2975 (17%)]	Loss: 1.611740	Score:  57.537%
(E2 320.521s T)	[528/2975 (18%)]	Loss: 1.603841	Score:  57.627%
(E2 321.489s T)	[544/2975 (18%)]	Loss: 1.560862	Score:  59.160%
(E2 322.451s T)	[560/2975 (19%)]	Loss: 1.542852	Score:  60.005%
(E2 323.411s T)	[576/2975 (19%)]	Loss: 1.755501	Score:  55.198%
(E2 324.375s T)	[592/2975 (20%)]	Loss: 1.605208	Score:  59.232%
(E2 325.340s T)	[608/2975 (20%)]	Loss: 1.551030	Score:  59.904%
(E2 326.310s T)	[624/2975 (21%)]	Loss: 1.581960	Score:  58.635%
(E2 327.285s T)	[640/2975 (22%)]	Loss: 1.613280	Score:  60.260%
(E2 328.248s T)	[656/2975 (22%)]	Loss: 1.675369	Score:  57.247%
(E2 329.211s T)	[672/2975 (23%)]	Loss: 1.462325	Score:  64.190%
(E2 330.177s T)	[688/2975 (23%)]	Loss: 1.668597	Score:  58.763%
(E2 331.153s T)	[704/2975 (24%)]	Loss: 1.595678	Score:  58.899%
(E2 332.111s T)	[720/2975 (24%)]	Loss: 1.653362	Score:  56.779%
(E2 333.081s T)	[736/2975 (25%)]	Loss: 1.433940	Score:  63.642%
(E2 334.060s T)	[752/2975 (25%)]	Loss: 1.726338	Score:  53.977%
(E2 335.023s T)	[768/2975 (26%)]	Loss: 1.549253	Score:  59.884%
(E2 335.986s T)	[784/2975 (26%)]	Loss: 1.420031	Score:  62.792%
(E2 336.940s T)	[800/2975 (27%)]	Loss: 1.541386	Score:  60.156%
(E2 337.902s T)	[816/2975 (27%)]	Loss: 1.721086	Score:  54.827%
(E2 338.867s T)	[832/2975 (28%)]	Loss: 1.462721	Score:  62.627%
(E2 339.833s T)	[848/2975 (28%)]	Loss: 1.452359	Score:  62.243%
(E2 340.815s T)	[864/2975 (29%)]	Loss: 1.645079	Score:  58.692%
(E2 341.775s T)	[880/2975 (30%)]	Loss: 1.791450	Score:  54.221%
(E2 342.741s T)	[896/2975 (30%)]	Loss: 1.554922	Score:  59.384%
(E2 343.720s T)	[912/2975 (31%)]	Loss: 1.597042	Score:  60.179%
(E2 344.685s T)	[928/2975 (31%)]	Loss: 1.453841	Score:  62.378%
(E2 345.654s T)	[944/2975 (32%)]	Loss: 1.575215	Score:  59.091%
(E2 346.611s T)	[960/2975 (32%)]	Loss: 1.479784	Score:  63.181%
(E2 347.591s T)	[976/2975 (33%)]	Loss: 1.571267	Score:  59.478%
(E2 348.563s T)	[992/2975 (33%)]	Loss: 1.584983	Score:  60.012%
(E2 349.531s T)	[1008/2975 (34%)]	Loss: 1.561343	Score:  60.998%
(E2 350.491s T)	[1024/2975 (34%)]	Loss: 1.446669	Score:  62.677%
(E2 351.443s T)	[1040/2975 (35%)]	Loss: 1.505040	Score:  61.313%
(E2 352.402s T)	[1056/2975 (35%)]	Loss: 1.464297	Score:  62.665%
(E2 353.362s T)	[1072/2975 (36%)]	Loss: 1.656404	Score:  56.926%
(E2 354.311s T)	[1088/2975 (37%)]	Loss: 1.465121	Score:  61.225%
(E2 355.282s T)	[1104/2975 (37%)]	Loss: 1.536916	Score:  61.382%
(E2 356.240s T)	[1120/2975 (38%)]	Loss: 1.464999	Score:  61.424%
(E2 357.207s T)	[1136/2975 (38%)]	Loss: 1.552613	Score:  61.504%
(E2 358.168s T)	[1152/2975 (39%)]	Loss: 1.468821	Score:  62.530%
(E2 359.119s T)	[1168/2975 (39%)]	Loss: 1.534446	Score:  61.644%
(E2 360.086s T)	[1184/2975 (40%)]	Loss: 1.713013	Score:  56.545%
(E2 361.049s T)	[1200/2975 (40%)]	Loss: 1.439758	Score:  62.992%
(E2 362.010s T)	[1216/2975 (41%)]	Loss: 1.754757	Score:  58.121%
(E2 362.971s T)	[1232/2975 (41%)]	Loss: 1.508724	Score:  61.811%
(E2 363.960s T)	[1248/2975 (42%)]	Loss: 1.586659	Score:  57.793%
(E2 364.895s T)	[1264/2975 (42%)]	Loss: 1.477140	Score:  60.745%
(E2 365.871s T)	[1280/2975 (43%)]	Loss: 1.587565	Score:  60.308%
(E2 366.838s T)	[1296/2975 (44%)]	Loss: 1.683801	Score:  58.205%
(E2 367.796s T)	[1312/2975 (44%)]	Loss: 1.555243	Score:  58.268%
(E2 368.772s T)	[1328/2975 (45%)]	Loss: 1.583601	Score:  60.625%
(E2 369.743s T)	[1344/2975 (45%)]	Loss: 1.626368	Score:  57.852%
(E2 370.711s T)	[1360/2975 (46%)]	Loss: 1.585213	Score:  61.367%
(E2 371.659s T)	[1376/2975 (46%)]	Loss: 1.534305	Score:  60.314%
(E2 372.635s T)	[1392/2975 (47%)]	Loss: 1.722810	Score:  55.940%
(E2 373.600s T)	[1408/2975 (47%)]	Loss: 1.568350	Score:  61.305%
(E2 374.582s T)	[1424/2975 (48%)]	Loss: 1.504420	Score:  60.867%
(E2 375.555s T)	[1440/2975 (48%)]	Loss: 1.685382	Score:  59.541%
(E2 376.529s T)	[1456/2975 (49%)]	Loss: 1.693599	Score:  57.063%
(E2 377.491s T)	[1472/2975 (49%)]	Loss: 1.585089	Score:  59.566%
(E2 378.462s T)	[1488/2975 (50%)]	Loss: 1.563996	Score:  61.894%
(E2 379.419s T)	[1504/2975 (51%)]	Loss: 1.594775	Score:  57.793%
(E2 380.396s T)	[1520/2975 (51%)]	Loss: 1.455871	Score:  64.064%
(E2 381.367s T)	[1536/2975 (52%)]	Loss: 1.631870	Score:  59.185%
(E2 382.340s T)	[1552/2975 (52%)]	Loss: 1.527334	Score:  62.354%
(E2 383.313s T)	[1568/2975 (53%)]	Loss: 1.473879	Score:  63.548%
(E2 384.275s T)	[1584/2975 (53%)]	Loss: 1.458997	Score:  64.480%
(E2 385.262s T)	[1600/2975 (54%)]	Loss: 1.447523	Score:  64.242%
(E2 386.233s T)	[1616/2975 (54%)]	Loss: 1.397380	Score:  63.580%
(E2 387.211s T)	[1632/2975 (55%)]	Loss: 1.565737	Score:  60.087%
(E2 388.172s T)	[1648/2975 (55%)]	Loss: 1.484022	Score:  62.722%
(E2 389.166s T)	[1664/2975 (56%)]	Loss: 1.613712	Score:  59.187%
(E2 390.144s T)	[1680/2975 (56%)]	Loss: 1.376300	Score:  64.965%
(E2 391.116s T)	[1696/2975 (57%)]	Loss: 1.566720	Score:  62.014%
(E2 392.083s T)	[1712/2975 (58%)]	Loss: 1.463094	Score:  61.998%
(E2 393.052s T)	[1728/2975 (58%)]	Loss: 1.476933	Score:  62.677%
(E2 394.022s T)	[1744/2975 (59%)]	Loss: 1.512100	Score:  61.066%
(E2 394.995s T)	[1760/2975 (59%)]	Loss: 1.535469	Score:  62.739%
(E2 395.962s T)	[1776/2975 (60%)]	Loss: 1.539360	Score:  61.801%
(E2 396.939s T)	[1792/2975 (60%)]	Loss: 1.637111	Score:  60.244%
(E2 397.913s T)	[1808/2975 (61%)]	Loss: 1.585117	Score:  59.277%
(E2 398.882s T)	[1824/2975 (61%)]	Loss: 1.513457	Score:  61.933%
(E2 399.854s T)	[1840/2975 (62%)]	Loss: 1.357387	Score:  65.801%
(E2 400.822s T)	[1856/2975 (62%)]	Loss: 1.583867	Score:  60.324%
(E2 401.797s T)	[1872/2975 (63%)]	Loss: 1.440870	Score:  62.731%
(E2 402.775s T)	[1888/2975 (63%)]	Loss: 1.463642	Score:  62.777%
(E2 403.753s T)	[1904/2975 (64%)]	Loss: 1.477061	Score:  65.045%
(E2 404.732s T)	[1920/2975 (65%)]	Loss: 1.417822	Score:  63.857%
(E2 405.701s T)	[1936/2975 (65%)]	Loss: 1.454699	Score:  62.834%
(E2 406.624s T)	[1952/2975 (66%)]	Loss: 1.394695	Score:  64.615%
(E2 407.325s T)	[1968/2975 (66%)]	Loss: 1.451032	Score:  63.553%
(E2 408.022s T)	[1984/2975 (67%)]	Loss: 1.383796	Score:  65.415%
(E2 408.721s T)	[2000/2975 (67%)]	Loss: 1.407527	Score:  65.010%
(E2 409.423s T)	[2016/2975 (68%)]	Loss: 1.524330	Score:  61.354%
(E2 410.122s T)	[2032/2975 (68%)]	Loss: 1.362225	Score:  65.464%
(E2 410.836s T)	[2048/2975 (69%)]	Loss: 1.546534	Score:  58.968%
(E2 411.530s T)	[2064/2975 (69%)]	Loss: 1.501849	Score:  61.583%
(E2 412.226s T)	[2080/2975 (70%)]	Loss: 1.382102	Score:  65.733%
(E2 412.927s T)	[2096/2975 (70%)]	Loss: 1.570454	Score:  60.376%
(E2 413.627s T)	[2112/2975 (71%)]	Loss: 1.420346	Score:  63.563%
(E2 414.322s T)	[2128/2975 (72%)]	Loss: 1.558779	Score:  61.934%
(E2 415.014s T)	[2144/2975 (72%)]	Loss: 1.465946	Score:  63.028%
(E2 415.711s T)	[2160/2975 (73%)]	Loss: 1.359011	Score:  64.689%
(E2 416.410s T)	[2176/2975 (73%)]	Loss: 1.430876	Score:  62.088%
(E2 417.105s T)	[2192/2975 (74%)]	Loss: 1.525728	Score:  60.487%
(E2 417.807s T)	[2208/2975 (74%)]	Loss: 1.356205	Score:  67.268%
(E2 418.501s T)	[2224/2975 (75%)]	Loss: 1.478368	Score:  64.433%
(E2 419.200s T)	[2240/2975 (75%)]	Loss: 1.432374	Score:  63.268%
(E2 419.893s T)	[2256/2975 (76%)]	Loss: 1.415970	Score:  64.573%
(E2 420.600s T)	[2272/2975 (76%)]	Loss: 1.410220	Score:  65.868%
(E2 421.295s T)	[2288/2975 (77%)]	Loss: 1.438119	Score:  63.001%
(E2 421.986s T)	[2304/2975 (77%)]	Loss: 1.464749	Score:  64.692%
(E2 422.679s T)	[2320/2975 (78%)]	Loss: 1.539700	Score:  61.220%
(E2 423.373s T)	[2336/2975 (78%)]	Loss: 1.402651	Score:  63.375%
(E2 424.072s T)	[2352/2975 (79%)]	Loss: 1.451824	Score:  64.519%
(E2 424.772s T)	[2368/2975 (80%)]	Loss: 1.499060	Score:  63.702%
(E2 425.472s T)	[2384/2975 (80%)]	Loss: 1.470166	Score:  63.704%
(E2 426.173s T)	[2400/2975 (81%)]	Loss: 1.394356	Score:  64.215%
(E2 426.873s T)	[2416/2975 (81%)]	Loss: 1.546132	Score:  60.315%
(E2 427.573s T)	[2432/2975 (82%)]	Loss: 1.477682	Score:  61.559%
(E2 428.273s T)	[2448/2975 (82%)]	Loss: 1.497572	Score:  63.456%
(E2 428.979s T)	[2464/2975 (83%)]	Loss: 1.614666	Score:  60.434%
(E2 429.684s T)	[2480/2975 (83%)]	Loss: 1.481909	Score:  63.043%
(E2 430.381s T)	[2496/2975 (84%)]	Loss: 1.454906	Score:  63.291%
(E2 431.084s T)	[2512/2975 (84%)]	Loss: 1.587647	Score:  61.797%
(E2 431.784s T)	[2528/2975 (85%)]	Loss: 1.494249	Score:  63.371%
(E2 432.487s T)	[2544/2975 (85%)]	Loss: 1.368452	Score:  64.166%
(E2 433.190s T)	[2560/2975 (86%)]	Loss: 1.469050	Score:  64.254%
(E2 433.889s T)	[2576/2975 (87%)]	Loss: 1.537061	Score:  60.899%
(E2 434.582s T)	[2592/2975 (87%)]	Loss: 1.353352	Score:  66.084%
(E2 435.282s T)	[2608/2975 (88%)]	Loss: 1.490029	Score:  61.897%
(E2 435.985s T)	[2624/2975 (88%)]	Loss: 1.490487	Score:  64.789%
(E2 436.688s T)	[2640/2975 (89%)]	Loss: 1.632398	Score:  59.516%
(E2 437.385s T)	[2656/2975 (89%)]	Loss: 1.439417	Score:  64.538%
(E2 438.086s T)	[2672/2975 (90%)]	Loss: 1.420373	Score:  65.118%
(E2 438.787s T)	[2688/2975 (90%)]	Loss: 1.343513	Score:  67.234%
(E2 439.487s T)	[2704/2975 (91%)]	Loss: 1.557084	Score:  60.745%
(E2 440.191s T)	[2720/2975 (91%)]	Loss: 1.465256	Score:  63.144%
(E2 440.891s T)	[2736/2975 (92%)]	Loss: 1.286395	Score:  68.533%
(E2 441.590s T)	[2752/2975 (92%)]	Loss: 1.587800	Score:  62.973%
(E2 442.291s T)	[2768/2975 (93%)]	Loss: 1.608168	Score:  61.991%
(E2 442.996s T)	[2784/2975 (94%)]	Loss: 1.563019	Score:  59.902%
(E2 443.698s T)	[2800/2975 (94%)]	Loss: 1.499187	Score:  60.887%
(E2 444.400s T)	[2816/2975 (95%)]	Loss: 1.400299	Score:  66.658%
(E2 445.101s T)	[2832/2975 (95%)]	Loss: 1.695891	Score:  58.834%
(E2 445.801s T)	[2848/2975 (96%)]	Loss: 1.399780	Score:  64.318%
(E2 446.501s T)	[2864/2975 (96%)]	Loss: 1.391050	Score:  66.520%
(E2 447.205s T)	[2880/2975 (97%)]	Loss: 1.476670	Score:  63.426%
(E2 447.908s T)	[2896/2975 (97%)]	Loss: 1.469468	Score:  63.626%
(E2 448.609s T)	[2912/2975 (98%)]	Loss: 1.452487	Score:  64.587%
(E2 449.308s T)	[2928/2975 (98%)]	Loss: 1.310878	Score:  67.777%
(E2 450.007s T)	[2944/2975 (99%)]	Loss: 1.498532	Score:  63.340%
(E2 450.693s T)	[2775/2975 (99%)]	Loss: 1.566702	Score:  59.878%
(E2 466.472s V)	[0/1000 (0%)]	Loss: 1.500221	Score:  62.169%
(E2 467.008s V)	[16/1000 (2%)]	Loss: 1.453982	Score:  62.865%
(E2 467.549s V)	[32/1000 (3%)]	Loss: 1.552279	Score:  61.322%
(E2 468.087s V)	[48/1000 (5%)]	Loss: 1.444591	Score:  64.452%
(E2 468.625s V)	[64/1000 (6%)]	Loss: 1.300639	Score:  68.068%
(E2 469.161s V)	[80/1000 (8%)]	Loss: 1.389569	Score:  66.212%
(E2 469.700s V)	[96/1000 (9%)]	Loss: 1.639316	Score:  59.707%
(E2 470.237s V)	[112/1000 (11%)]	Loss: 1.347957	Score:  66.713%
(E2 470.774s V)	[128/1000 (12%)]	Loss: 1.468560	Score:  63.396%
(E2 471.309s V)	[144/1000 (14%)]	Loss: 1.408912	Score:  65.794%
(E2 471.844s V)	[160/1000 (16%)]	Loss: 1.356117	Score:  65.816%
(E2 472.375s V)	[176/1000 (17%)]	Loss: 1.368507	Score:  67.462%
(E2 472.915s V)	[192/1000 (19%)]	Loss: 1.474654	Score:  65.862%
(E2 473.454s V)	[208/1000 (20%)]	Loss: 1.365453	Score:  66.169%
(E2 473.990s V)	[224/1000 (22%)]	Loss: 1.503741	Score:  61.692%
(E2 474.530s V)	[240/1000 (23%)]	Loss: 1.425215	Score:  63.223%
(E2 475.067s V)	[256/1000 (25%)]	Loss: 1.553509	Score:  60.854%
(E2 475.604s V)	[272/1000 (27%)]	Loss: 1.443798	Score:  63.312%
(E2 476.143s V)	[288/1000 (28%)]	Loss: 1.441722	Score:  65.614%
(E2 476.682s V)	[304/1000 (30%)]	Loss: 1.331245	Score:  66.658%
(E2 477.220s V)	[320/1000 (31%)]	Loss: 1.492322	Score:  63.131%
(E2 477.760s V)	[336/1000 (33%)]	Loss: 1.458388	Score:  63.838%
(E2 478.298s V)	[352/1000 (34%)]	Loss: 1.491005	Score:  62.728%
(E2 478.830s V)	[368/1000 (36%)]	Loss: 1.455563	Score:  63.129%
(E2 479.363s V)	[384/1000 (38%)]	Loss: 1.524222	Score:  62.411%
(E2 479.904s V)	[400/1000 (39%)]	Loss: 1.451969	Score:  63.051%
(E2 480.440s V)	[416/1000 (41%)]	Loss: 1.387934	Score:  66.008%
(E2 480.980s V)	[432/1000 (42%)]	Loss: 1.433175	Score:  65.256%
(E2 481.519s V)	[448/1000 (44%)]	Loss: 1.361240	Score:  65.443%
(E2 482.054s V)	[464/1000 (45%)]	Loss: 1.510113	Score:  62.667%
(E2 482.589s V)	[480/1000 (47%)]	Loss: 1.451866	Score:  64.869%
(E2 482.762s V)	[124/1000 (48%)]	Loss: 1.137958	Score:  71.695%
(E2 498.177s V)	[512/1000 (50%)]	Loss: 1.464683	Score:  63.735%
(E2 498.710s V)	[528/1000 (52%)]	Loss: 1.305041	Score:  68.002%
(E2 499.245s V)	[544/1000 (53%)]	Loss: 1.545514	Score:  62.241%
(E2 499.781s V)	[560/1000 (55%)]	Loss: 1.503787	Score:  62.556%
(E2 500.317s V)	[576/1000 (56%)]	Loss: 1.389250	Score:  66.099%
(E2 500.855s V)	[592/1000 (58%)]	Loss: 1.587484	Score:  62.412%
(E2 501.391s V)	[608/1000 (59%)]	Loss: 1.408163	Score:  65.425%
(E2 501.930s V)	[624/1000 (61%)]	Loss: 1.523723	Score:  61.982%
(E2 502.468s V)	[640/1000 (62%)]	Loss: 1.386104	Score:  64.173%
(E2 503.003s V)	[656/1000 (64%)]	Loss: 1.378990	Score:  65.660%
(E2 503.540s V)	[672/1000 (66%)]	Loss: 1.429178	Score:  64.246%
(E2 504.076s V)	[688/1000 (67%)]	Loss: 1.616564	Score:  61.945%
(E2 504.616s V)	[704/1000 (69%)]	Loss: 1.452018	Score:  63.416%
(E2 505.154s V)	[720/1000 (70%)]	Loss: 1.422886	Score:  65.015%
(E2 505.691s V)	[736/1000 (72%)]	Loss: 1.367071	Score:  66.547%
(E2 506.229s V)	[752/1000 (73%)]	Loss: 1.382029	Score:  64.987%
(E2 506.767s V)	[768/1000 (75%)]	Loss: 1.567093	Score:  60.334%
(E2 507.310s V)	[784/1000 (77%)]	Loss: 1.572238	Score:  61.319%
(E2 507.848s V)	[800/1000 (78%)]	Loss: 1.388785	Score:  66.259%
(E2 508.382s V)	[816/1000 (80%)]	Loss: 1.438367	Score:  65.039%
(E2 508.921s V)	[832/1000 (81%)]	Loss: 1.332588	Score:  67.054%
(E2 509.462s V)	[848/1000 (83%)]	Loss: 1.345327	Score:  66.018%
(E2 510.001s V)	[864/1000 (84%)]	Loss: 1.323296	Score:  66.658%
(E2 510.539s V)	[880/1000 (86%)]	Loss: 1.383052	Score:  66.424%
(E2 511.076s V)	[896/1000 (88%)]	Loss: 1.473698	Score:  63.133%
(E2 511.618s V)	[912/1000 (89%)]	Loss: 1.480885	Score:  63.194%
(E2 512.157s V)	[928/1000 (91%)]	Loss: 1.379793	Score:  65.493%
(E2 512.703s V)	[944/1000 (92%)]	Loss: 1.437997	Score:  63.208%
(E2 513.242s V)	[960/1000 (94%)]	Loss: 1.387999	Score:  64.825%
(E2 513.783s V)	[976/1000 (95%)]	Loss: 1.515565	Score:  61.644%
(E2 514.320s V)	[992/1000 (97%)]	Loss: 1.473009	Score:  65.090%
(E2 514.493s V)	[252/1000 (98%)]	Loss: 1.711630	Score:  58.969%
graph(%0 : Float(4, 3, 256, 256),
      %1 : Float(40, 3, 3, 3),
      %2 : Float(40),
      %3 : Float(40, 40, 3, 3),
      %4 : Float(40),
      %5 : Float(80, 40, 3, 3),
      %6 : Float(80),
      %7 : Float(80, 80, 3, 3),
      %8 : Float(80),
      %9 : Float(160, 80, 3, 3),
      %10 : Float(160),
      %11 : Float(160, 160, 3, 3),
      %12 : Float(160),
      %13 : Float(320, 160, 3, 3),
      %14 : Float(320),
      %15 : Float(320, 320, 3, 3),
      %16 : Float(320),
      %17 : Float(320, 160, 4, 4),
      %18 : Float(160),
      %19 : Float(160, 80, 4, 4),
      %20 : Float(80),
      %21 : Float(80, 40, 4, 4),
      %22 : Float(40),
      %23 : Float(160, 320, 3, 3),
      %24 : Float(160),
      %25 : Float(160, 160, 3, 3),
      %26 : Float(160),
      %27 : Float(80, 160, 3, 3),
      %28 : Float(80),
      %29 : Float(80, 80, 3, 3),
      %30 : Float(80),
      %31 : Float(40, 80, 3, 3),
      %32 : Float(40),
      %33 : Float(30, 40, 3, 3),
      %34 : Float(30)):
  %35 : Float(4, 40, 256, 256) = onnx::Conv[dilations=[1, 1], group=1, kernel_shape=[3, 3], pads=[1, 1, 1, 1], strides=[1, 1]](%0, %1, %2), scope: FCN/Sequential/Conv2d[0]
  %36 : Float(4, 40, 256, 256) = onnx::Relu(%35), scope: FCN/Sequential/ReLU[1]
  %37 : Float(4, 40, 256, 256) = onnx::Conv[dilations=[1, 1], group=1, kernel_shape=[3, 3], pads=[1, 1, 1, 1], strides=[1, 1]](%36, %3, %4), scope: FCN/Sequential/Conv2d[2]
  %38 : Float(4, 40, 256, 256) = onnx::Relu(%37), scope: FCN/Sequential/ReLU[3]
  %39 : Float(4, 40, 128, 128) = onnx::MaxPool[kernel_shape=[2, 2], pads=[0, 0, 0, 0], strides=[2, 2]](%38), scope: FCN/MaxPool2d
  %40 : Float(4, 80, 128, 128) = onnx::Conv[dilations=[1, 1], group=1, kernel_shape=[3, 3], pads=[1, 1, 1, 1], strides=[1, 1]](%39, %5, %6), scope: FCN/Sequential/Conv2d[0]
  %41 : Float(4, 80, 128, 128) = onnx::Relu(%40), scope: FCN/Sequential/ReLU[1]
  %42 : Float(4, 80, 128, 128) = onnx::Conv[dilations=[1, 1], group=1, kernel_shape=[3, 3], pads=[1, 1, 1, 1], strides=[1, 1]](%41, %7, %8), scope: FCN/Sequential/Conv2d[2]
  %43 : Float(4, 80, 128, 128) = onnx::Relu(%42), scope: FCN/Sequential/ReLU[3]
  %44 : Float(4, 80, 64, 64) = onnx::MaxPool[kernel_shape=[2, 2], pads=[0, 0, 0, 0], strides=[2, 2]](%43), scope: FCN/MaxPool2d
  %45 : Float(4, 160, 64, 64) = onnx::Conv[dilations=[1, 1], group=1, kernel_shape=[3, 3], pads=[1, 1, 1, 1], strides=[1, 1]](%44, %9, %10), scope: FCN/Sequential/Conv2d[0]
  %46 : Float(4, 160, 64, 64) = onnx::Relu(%45), scope: FCN/Sequential/ReLU[1]
  %47 : Float(4, 160, 64, 64) = onnx::Conv[dilations=[1, 1], group=1, kernel_shape=[3, 3], pads=[1, 1, 1, 1], strides=[1, 1]](%46, %11, %12), scope: FCN/Sequential/Conv2d[2]
  %48 : Float(4, 160, 64, 64) = onnx::Relu(%47), scope: FCN/Sequential/ReLU[3]
  %49 : Float(4, 160, 32, 32) = onnx::MaxPool[kernel_shape=[2, 2], pads=[0, 0, 0, 0], strides=[2, 2]](%48), scope: FCN/MaxPool2d
  %50 : Float(4, 320, 32, 32) = onnx::Conv[dilations=[1, 1], group=1, kernel_shape=[3, 3], pads=[1, 1, 1, 1], strides=[1, 1]](%49, %13, %14), scope: FCN/Sequential[intermediate]/Conv2d[0]
  %51 : Float(4, 320, 32, 32) = onnx::Relu(%50), scope: FCN/Sequential[intermediate]/ReLU[1]
  %52 : Float(4, 320, 32, 32) = onnx::Conv[dilations=[1, 1], group=1, kernel_shape=[3, 3], pads=[1, 1, 1, 1], strides=[1, 1]](%51, %15, %16), scope: FCN/Sequential[intermediate]/Conv2d[2]
  %53 : Float(4, 320, 32, 32) = onnx::Relu(%52), scope: FCN/Sequential[intermediate]/ReLU[3]
  %54 : Float(4, 160, 64, 64) = onnx::ConvTranspose[dilations=[1, 1], group=1, kernel_shape=[4, 4], pads=[1, 1, 1, 1], strides=[2, 2]](%53, %17, %18), scope: FCN/ConvTranspose2d
  %55 : Float(4, 320, 64, 64) = onnx::Concat[axis=1](%54, %48), scope: FCN
  %56 : Float(4, 160, 64, 64) = onnx::Conv[dilations=[1, 1], group=1, kernel_shape=[3, 3], pads=[1, 1, 1, 1], strides=[1, 1]](%55, %23, %24), scope: FCN/Sequential/Conv2d[0]
  %57 : Float(4, 160, 64, 64) = onnx::Relu(%56), scope: FCN/Sequential/ReLU[1]
  %58 : Float(4, 160, 64, 64) = onnx::Conv[dilations=[1, 1], group=1, kernel_shape=[3, 3], pads=[1, 1, 1, 1], strides=[1, 1]](%57, %25, %26), scope: FCN/Sequential/Conv2d[2]
  %59 : Float(4, 160, 64, 64) = onnx::Relu(%58), scope: FCN/Sequential/ReLU[3]
  %60 : Float(4, 80, 128, 128) = onnx::ConvTranspose[dilations=[1, 1], group=1, kernel_shape=[4, 4], pads=[1, 1, 1, 1], strides=[2, 2]](%59, %19, %20), scope: FCN/ConvTranspose2d
  %61 : Float(4, 160, 128, 128) = onnx::Concat[axis=1](%60, %43), scope: FCN
  %62 : Float(4, 80, 128, 128) = onnx::Conv[dilations=[1, 1], group=1, kernel_shape=[3, 3], pads=[1, 1, 1, 1], strides=[1, 1]](%61, %27, %28), scope: FCN/Sequential/Conv2d[0]
  %63 : Float(4, 80, 128, 128) = onnx::Relu(%62), scope: FCN/Sequential/ReLU[1]
  %64 : Float(4, 80, 128, 128) = onnx::Conv[dilations=[1, 1], group=1, kernel_shape=[3, 3], pads=[1, 1, 1, 1], strides=[1, 1]](%63, %29, %30), scope: FCN/Sequential/Conv2d[2]
  %65 : Float(4, 80, 128, 128) = onnx::Relu(%64), scope: FCN/Sequential/ReLU[3]
  %66 : Float(4, 40, 256, 256) = onnx::ConvTranspose[dilations=[1, 1], group=1, kernel_shape=[4, 4], pads=[1, 1, 1, 1], strides=[2, 2]](%65, %21, %22), scope: FCN/ConvTranspose2d
  %67 : Float(4, 80, 256, 256) = onnx::Concat[axis=1](%66, %38), scope: FCN
  %68 : Float(4, 40, 256, 256) = onnx::Conv[dilations=[1, 1], group=1, kernel_shape=[3, 3], pads=[1, 1, 1, 1], strides=[1, 1]](%67, %31, %32), scope: FCN/Sequential/Conv2d[0]
  %69 : Float(4, 40, 256, 256) = onnx::Relu(%68), scope: FCN/Sequential/ReLU[1]
  %70 : Float(4, 30, 256, 256) = onnx::Conv[dilations=[1, 1], group=1, kernel_shape=[3, 3], pads=[1, 1, 1, 1], strides=[1, 1]](%69, %33, %34), scope: FCN/Sequential/Conv2d[2]
  %71 : Float(4, 30, 256, 256) = onnx::Relu(%70), scope: FCN/Sequential/ReLU[3]
  return (%71)


Test set: Average loss: 1.4422, Score: (64.29%)

Saving the model serialization to /home/mb385130/task2/model-epoch-1
(E3 529.892s T)	[0/2975 (0%)]	Loss: 1.461762	Score:  64.505%
(E3 542.562s T)	[16/2975 (1%)]	Loss: 1.389644	Score:  64.546%
(E3 543.739s T)	[32/2975 (1%)]	Loss: 1.397996	Score:  64.830%
(E3 544.700s T)	[48/2975 (2%)]	Loss: 1.418329	Score:  64.843%
(E3 545.655s T)	[64/2975 (2%)]	Loss: 1.424791	Score:  63.125%
(E3 546.623s T)	[80/2975 (3%)]	Loss: 1.358574	Score:  66.649%
(E3 547.597s T)	[96/2975 (3%)]	Loss: 1.427974	Score:  66.032%
(E3 548.593s T)	[112/2975 (4%)]	Loss: 1.547778	Score:  61.778%
(E3 549.552s T)	[128/2975 (4%)]	Loss: 1.637967	Score:  58.805%
(E3 550.523s T)	[144/2975 (5%)]	Loss: 1.471507	Score:  63.836%
(E3 551.495s T)	[160/2975 (5%)]	Loss: 1.342354	Score:  66.793%
(E3 552.455s T)	[176/2975 (6%)]	Loss: 1.387101	Score:  63.404%
(E3 553.414s T)	[192/2975 (6%)]	Loss: 1.410629	Score:  62.265%
(E3 554.371s T)	[208/2975 (7%)]	Loss: 1.426683	Score:  64.307%
(E3 555.340s T)	[224/2975 (8%)]	Loss: 1.671705	Score:  58.881%
(E3 556.308s T)	[240/2975 (8%)]	Loss: 1.440666	Score:  63.917%
(E3 557.277s T)	[256/2975 (9%)]	Loss: 1.481439	Score:  63.872%
(E3 558.243s T)	[272/2975 (9%)]	Loss: 1.400145	Score:  65.609%
(E3 559.207s T)	[288/2975 (10%)]	Loss: 1.524223	Score:  60.249%
(E3 560.165s T)	[304/2975 (10%)]	Loss: 1.366108	Score:  65.375%
(E3 561.121s T)	[320/2975 (11%)]	Loss: 1.586912	Score:  59.221%
(E3 562.080s T)	[336/2975 (11%)]	Loss: 1.376694	Score:  64.174%
(E3 563.034s T)	[352/2975 (12%)]	Loss: 1.436126	Score:  63.982%
(E3 563.991s T)	[368/2975 (12%)]	Loss: 1.482195	Score:  62.639%
(E3 564.952s T)	[384/2975 (13%)]	Loss: 1.338746	Score:  66.168%
(E3 565.918s T)	[400/2975 (13%)]	Loss: 1.502179	Score:  62.429%
(E3 566.883s T)	[416/2975 (14%)]	Loss: 1.640209	Score:  59.061%
(E3 567.849s T)	[432/2975 (15%)]	Loss: 1.320577	Score:  67.018%
(E3 568.812s T)	[448/2975 (15%)]	Loss: 1.348006	Score:  66.989%
(E3 569.785s T)	[464/2975 (16%)]	Loss: 1.628154	Score:  58.849%
(E3 570.735s T)	[480/2975 (16%)]	Loss: 1.474888	Score:  63.084%
(E3 571.710s T)	[496/2975 (17%)]	Loss: 1.139452	Score:  71.670%
(E3 572.662s T)	[512/2975 (17%)]	Loss: 1.275624	Score:  67.133%
(E3 573.622s T)	[528/2975 (18%)]	Loss: 1.443210	Score:  63.027%
(E3 574.594s T)	[544/2975 (18%)]	Loss: 1.467571	Score:  62.589%
(E3 575.572s T)	[560/2975 (19%)]	Loss: 1.312319	Score:  67.731%
(E3 576.532s T)	[576/2975 (19%)]	Loss: 1.393244	Score:  65.810%
(E3 577.488s T)	[592/2975 (20%)]	Loss: 1.418709	Score:  64.638%
(E3 578.461s T)	[608/2975 (20%)]	Loss: 1.234102	Score:  68.625%
(E3 579.437s T)	[624/2975 (21%)]	Loss: 1.481211	Score:  62.816%
(E3 580.395s T)	[640/2975 (22%)]	Loss: 1.317607	Score:  66.669%
(E3 581.365s T)	[656/2975 (22%)]	Loss: 1.427213	Score:  67.125%
(E3 582.326s T)	[672/2975 (23%)]	Loss: 1.362424	Score:  65.778%
(E3 583.292s T)	[688/2975 (23%)]	Loss: 1.370224	Score:  64.339%
(E3 584.251s T)	[704/2975 (24%)]	Loss: 1.402123	Score:  63.622%
(E3 585.222s T)	[720/2975 (24%)]	Loss: 1.340767	Score:  65.650%
(E3 586.175s T)	[736/2975 (25%)]	Loss: 1.267306	Score:  67.177%
(E3 587.147s T)	[752/2975 (25%)]	Loss: 1.299560	Score:  67.447%
(E3 588.102s T)	[768/2975 (26%)]	Loss: 1.453189	Score:  64.402%
(E3 589.062s T)	[784/2975 (26%)]	Loss: 1.377688	Score:  65.332%
(E3 590.031s T)	[800/2975 (27%)]	Loss: 1.454944	Score:  64.470%
(E3 590.989s T)	[816/2975 (27%)]	Loss: 1.301560	Score:  66.645%
(E3 591.963s T)	[832/2975 (28%)]	Loss: 1.411026	Score:  64.165%
(E3 592.927s T)	[848/2975 (28%)]	Loss: 1.284271	Score:  67.206%
(E3 593.899s T)	[864/2975 (29%)]	Loss: 1.516945	Score:  62.600%
(E3 594.873s T)	[880/2975 (30%)]	Loss: 1.410821	Score:  64.803%
(E3 595.827s T)	[896/2975 (30%)]	Loss: 1.451178	Score:  64.741%
(E3 596.790s T)	[912/2975 (31%)]	Loss: 1.289316	Score:  68.263%
(E3 597.755s T)	[928/2975 (31%)]	Loss: 1.256366	Score:  68.286%
(E3 598.702s T)	[944/2975 (32%)]	Loss: 1.478278	Score:  63.844%
(E3 599.670s T)	[960/2975 (32%)]	Loss: 1.352749	Score:  64.918%
(E3 600.631s T)	[976/2975 (33%)]	Loss: 1.355506	Score:  64.586%
(E3 601.602s T)	[992/2975 (33%)]	Loss: 1.329430	Score:  66.005%
(E3 602.575s T)	[1008/2975 (34%)]	Loss: 1.383336	Score:  65.152%
(E3 603.531s T)	[1024/2975 (34%)]	Loss: 1.322016	Score:  67.844%
(E3 604.500s T)	[1040/2975 (35%)]	Loss: 1.328621	Score:  66.763%
(E3 605.475s T)	[1056/2975 (35%)]	Loss: 1.277606	Score:  68.157%
(E3 606.446s T)	[1072/2975 (36%)]	Loss: 1.301717	Score:  66.521%
(E3 607.425s T)	[1088/2975 (37%)]	Loss: 1.243021	Score:  68.658%
(E3 608.392s T)	[1104/2975 (37%)]	Loss: 1.472302	Score:  63.428%
(E3 609.370s T)	[1120/2975 (38%)]	Loss: 1.420689	Score:  63.666%
(E3 610.328s T)	[1136/2975 (38%)]	Loss: 1.307889	Score:  66.811%
(E3 611.292s T)	[1152/2975 (39%)]	Loss: 1.180912	Score:  70.052%
(E3 612.263s T)	[1168/2975 (39%)]	Loss: 1.312255	Score:  67.082%
(E3 613.230s T)	[1184/2975 (40%)]	Loss: 1.413428	Score:  65.119%
(E3 614.200s T)	[1200/2975 (40%)]	Loss: 1.342503	Score:  67.630%
(E3 615.162s T)	[1216/2975 (41%)]	Loss: 1.267604	Score:  68.173%
(E3 616.143s T)	[1232/2975 (41%)]	Loss: 1.497618	Score:  62.780%
(E3 617.103s T)	[1248/2975 (42%)]	Loss: 1.265182	Score:  67.962%
(E3 618.072s T)	[1264/2975 (42%)]	Loss: 1.535008	Score:  62.384%
(E3 619.054s T)	[1280/2975 (43%)]	Loss: 1.237702	Score:  69.283%
(E3 620.015s T)	[1296/2975 (44%)]	Loss: 1.300226	Score:  67.488%
(E3 620.969s T)	[1312/2975 (44%)]	Loss: 1.452254	Score:  63.463%
(E3 621.947s T)	[1328/2975 (45%)]	Loss: 1.458241	Score:  63.609%
(E3 622.918s T)	[1344/2975 (45%)]	Loss: 1.560423	Score:  61.243%
(E3 623.871s T)	[1360/2975 (46%)]	Loss: 1.433858	Score:  65.488%
(E3 624.855s T)	[1376/2975 (46%)]	Loss: 1.271557	Score:  66.549%
(E3 625.825s T)	[1392/2975 (47%)]	Loss: 1.389734	Score:  64.633%
(E3 626.787s T)	[1408/2975 (47%)]	Loss: 1.278934	Score:  67.136%
(E3 627.770s T)	[1424/2975 (48%)]	Loss: 1.483395	Score:  61.672%
(E3 628.740s T)	[1440/2975 (48%)]	Loss: 1.453771	Score:  62.510%
(E3 629.723s T)	[1456/2975 (49%)]	Loss: 1.511200	Score:  60.600%
(E3 630.689s T)	[1472/2975 (49%)]	Loss: 1.526068	Score:  60.449%
(E3 631.656s T)	[1488/2975 (50%)]	Loss: 1.304201	Score:  67.724%
(E3 632.622s T)	[1504/2975 (51%)]	Loss: 1.306053	Score:  68.232%
(E3 633.599s T)	[1520/2975 (51%)]	Loss: 1.395174	Score:  64.239%
(E3 634.575s T)	[1536/2975 (52%)]	Loss: 1.553268	Score:  60.514%
(E3 635.554s T)	[1552/2975 (52%)]	Loss: 1.409690	Score:  62.103%
(E3 636.532s T)	[1568/2975 (53%)]	Loss: 1.324843	Score:  68.404%
(E3 637.496s T)	[1584/2975 (53%)]	Loss: 1.250579	Score:  69.397%
(E3 638.469s T)	[1600/2975 (54%)]	Loss: 1.311376	Score:  67.741%
(E3 639.441s T)	[1616/2975 (54%)]	Loss: 1.369507	Score:  64.742%
(E3 640.403s T)	[1632/2975 (55%)]	Loss: 1.365442	Score:  65.549%
(E3 641.372s T)	[1648/2975 (55%)]	Loss: 1.208550	Score:  70.230%
(E3 642.339s T)	[1664/2975 (56%)]	Loss: 1.262787	Score:  68.407%
(E3 643.302s T)	[1680/2975 (56%)]	Loss: 1.578036	Score:  58.972%
(E3 644.273s T)	[1696/2975 (57%)]	Loss: 1.352105	Score:  63.091%
(E3 645.255s T)	[1712/2975 (58%)]	Loss: 1.615602	Score:  57.633%
(E3 646.223s T)	[1728/2975 (58%)]	Loss: 1.295764	Score:  67.248%
(E3 647.192s T)	[1744/2975 (59%)]	Loss: 1.473884	Score:  63.789%
(E3 648.165s T)	[1760/2975 (59%)]	Loss: 1.397079	Score:  65.993%
(E3 649.135s T)	[1776/2975 (60%)]	Loss: 1.315347	Score:  66.708%
(E3 650.115s T)	[1792/2975 (60%)]	Loss: 1.324977	Score:  65.492%
(E3 651.092s T)	[1808/2975 (61%)]	Loss: 1.459914	Score:  62.849%
(E3 652.067s T)	[1824/2975 (61%)]	Loss: 1.273497	Score:  69.460%
(E3 653.036s T)	[1840/2975 (62%)]	Loss: 1.226119	Score:  69.988%
(E3 654.001s T)	[1856/2975 (62%)]	Loss: 1.320127	Score:  67.991%
(E3 654.961s T)	[1872/2975 (63%)]	Loss: 1.292895	Score:  68.729%
(E3 655.930s T)	[1888/2975 (63%)]	Loss: 1.426671	Score:  64.340%
(E3 656.895s T)	[1904/2975 (64%)]	Loss: 1.456551	Score:  63.763%
(E3 657.854s T)	[1920/2975 (65%)]	Loss: 1.310453	Score:  69.093%
(E3 658.826s T)	[1936/2975 (65%)]	Loss: 1.301321	Score:  67.466%
(E3 659.747s T)	[1952/2975 (66%)]	Loss: 1.246098	Score:  68.116%
(E3 660.447s T)	[1968/2975 (66%)]	Loss: 1.217866	Score:  70.706%
(E3 661.149s T)	[1984/2975 (67%)]	Loss: 1.356124	Score:  65.789%
(E3 661.851s T)	[2000/2975 (67%)]	Loss: 1.381184	Score:  66.654%
(E3 662.554s T)	[2016/2975 (68%)]	Loss: 1.249605	Score:  69.554%
(E3 663.257s T)	[2032/2975 (68%)]	Loss: 1.260143	Score:  68.877%
(E3 663.969s T)	[2048/2975 (69%)]	Loss: 1.388596	Score:  65.874%
(E3 664.668s T)	[2064/2975 (69%)]	Loss: 1.209550	Score:  70.166%
(E3 665.363s T)	[2080/2975 (70%)]	Loss: 1.324232	Score:  66.754%
(E3 666.063s T)	[2096/2975 (70%)]	Loss: 1.416462	Score:  64.472%
(E3 666.766s T)	[2112/2975 (71%)]	Loss: 1.481939	Score:  60.369%
(E3 667.467s T)	[2128/2975 (72%)]	Loss: 1.212456	Score:  70.120%
(E3 668.167s T)	[2144/2975 (72%)]	Loss: 1.319835	Score:  66.497%
(E3 668.862s T)	[2160/2975 (73%)]	Loss: 1.338949	Score:  66.750%
(E3 669.560s T)	[2176/2975 (73%)]	Loss: 1.392855	Score:  65.858%
(E3 670.257s T)	[2192/2975 (74%)]	Loss: 1.459260	Score:  62.245%
(E3 670.950s T)	[2208/2975 (74%)]	Loss: 1.377321	Score:  65.629%
(E3 671.648s T)	[2224/2975 (75%)]	Loss: 1.515357	Score:  60.767%
(E3 672.347s T)	[2240/2975 (75%)]	Loss: 1.231359	Score:  70.212%
(E3 673.047s T)	[2256/2975 (76%)]	Loss: 1.342129	Score:  65.543%
(E3 673.738s T)	[2272/2975 (76%)]	Loss: 1.242058	Score:  70.615%
(E3 674.443s T)	[2288/2975 (77%)]	Loss: 1.299854	Score:  67.798%
(E3 675.141s T)	[2304/2975 (77%)]	Loss: 1.441163	Score:  64.445%
(E3 675.846s T)	[2320/2975 (78%)]	Loss: 1.270038	Score:  68.398%
(E3 676.547s T)	[2336/2975 (78%)]	Loss: 1.403889	Score:  65.614%
(E3 677.249s T)	[2352/2975 (79%)]	Loss: 1.312056	Score:  67.598%
(E3 677.952s T)	[2368/2975 (80%)]	Loss: 1.339877	Score:  66.150%
(E3 678.651s T)	[2384/2975 (80%)]	Loss: 1.123485	Score:  71.316%
(E3 679.352s T)	[2400/2975 (81%)]	Loss: 1.334973	Score:  67.707%
(E3 680.050s T)	[2416/2975 (81%)]	Loss: 1.191318	Score:  69.879%
(E3 680.750s T)	[2432/2975 (82%)]	Loss: 1.504162	Score:  63.735%
(E3 681.453s T)	[2448/2975 (82%)]	Loss: 1.538154	Score:  62.844%
(E3 682.148s T)	[2464/2975 (83%)]	Loss: 1.262161	Score:  68.901%
(E3 682.848s T)	[2480/2975 (83%)]	Loss: 1.378320	Score:  66.232%
(E3 683.546s T)	[2496/2975 (84%)]	Loss: 1.266349	Score:  68.736%
(E3 684.248s T)	[2512/2975 (84%)]	Loss: 1.334055	Score:  67.324%
(E3 684.951s T)	[2528/2975 (85%)]	Loss: 1.382047	Score:  65.172%
(E3 685.654s T)	[2544/2975 (85%)]	Loss: 1.334750	Score:  67.507%
(E3 686.358s T)	[2560/2975 (86%)]	Loss: 1.345354	Score:  67.658%
(E3 687.059s T)	[2576/2975 (87%)]	Loss: 1.417349	Score:  64.109%
(E3 687.759s T)	[2592/2975 (87%)]	Loss: 1.284825	Score:  67.399%
(E3 688.461s T)	[2608/2975 (88%)]	Loss: 1.375962	Score:  68.233%
(E3 689.167s T)	[2624/2975 (88%)]	Loss: 1.266759	Score:  67.422%
(E3 689.866s T)	[2640/2975 (89%)]	Loss: 1.243033	Score:  69.870%
(E3 690.569s T)	[2656/2975 (89%)]	Loss: 1.309442	Score:  67.385%
(E3 691.273s T)	[2672/2975 (90%)]	Loss: 1.436083	Score:  64.205%
(E3 691.974s T)	[2688/2975 (90%)]	Loss: 1.333339	Score:  66.830%
(E3 692.677s T)	[2704/2975 (91%)]	Loss: 1.160282	Score:  71.387%
(E3 693.381s T)	[2720/2975 (91%)]	Loss: 1.279937	Score:  67.762%
(E3 694.085s T)	[2736/2975 (92%)]	Loss: 1.399656	Score:  66.910%
(E3 694.787s T)	[2752/2975 (92%)]	Loss: 1.432374	Score:  64.616%
(E3 695.483s T)	[2768/2975 (93%)]	Loss: 1.303164	Score:  68.243%
(E3 696.182s T)	[2784/2975 (94%)]	Loss: 1.271131	Score:  69.475%
(E3 696.880s T)	[2800/2975 (94%)]	Loss: 1.287415	Score:  67.865%
(E3 697.579s T)	[2816/2975 (95%)]	Loss: 1.351994	Score:  65.488%
(E3 698.280s T)	[2832/2975 (95%)]	Loss: 1.445510	Score:  63.690%
(E3 698.983s T)	[2848/2975 (96%)]	Loss: 1.281789	Score:  68.240%
(E3 699.686s T)	[2864/2975 (96%)]	Loss: 1.188727	Score:  70.780%
(E3 700.389s T)	[2880/2975 (97%)]	Loss: 1.277147	Score:  68.839%
(E3 701.091s T)	[2896/2975 (97%)]	Loss: 1.240990	Score:  68.844%
(E3 701.795s T)	[2912/2975 (98%)]	Loss: 1.381645	Score:  65.848%
(E3 702.498s T)	[2928/2975 (98%)]	Loss: 1.388988	Score:  65.041%
(E3 703.200s T)	[2944/2975 (99%)]	Loss: 1.366534	Score:  65.812%
(E3 703.887s T)	[2775/2975 (99%)]	Loss: 1.442734	Score:  63.588%
(E3 719.711s V)	[0/1000 (0%)]	Loss: 1.226857	Score:  69.412%
(E3 720.252s V)	[16/1000 (2%)]	Loss: 1.259832	Score:  69.999%
(E3 720.789s V)	[32/1000 (3%)]	Loss: 1.517368	Score:  61.576%
(E3 721.321s V)	[48/1000 (5%)]	Loss: 1.360573	Score:  65.178%
(E3 721.853s V)	[64/1000 (6%)]	Loss: 1.379133	Score:  66.302%
(E3 722.389s V)	[80/1000 (8%)]	Loss: 1.247649	Score:  68.854%
(E3 722.930s V)	[96/1000 (9%)]	Loss: 1.216235	Score:  70.092%
(E3 723.470s V)	[112/1000 (11%)]	Loss: 1.170841	Score:  71.165%
(E3 724.011s V)	[128/1000 (12%)]	Loss: 1.288550	Score:  68.050%
(E3 724.552s V)	[144/1000 (14%)]	Loss: 1.295285	Score:  67.561%
(E3 725.089s V)	[160/1000 (16%)]	Loss: 1.241521	Score:  68.604%
(E3 725.627s V)	[176/1000 (17%)]	Loss: 1.175104	Score:  71.564%
(E3 726.162s V)	[192/1000 (19%)]	Loss: 1.245229	Score:  70.088%
(E3 726.703s V)	[208/1000 (20%)]	Loss: 1.388604	Score:  66.721%
(E3 727.246s V)	[224/1000 (22%)]	Loss: 1.319499	Score:  67.427%
(E3 727.784s V)	[240/1000 (23%)]	Loss: 1.401855	Score:  64.062%
(E3 728.322s V)	[256/1000 (25%)]	Loss: 1.414840	Score:  65.868%
(E3 728.858s V)	[272/1000 (27%)]	Loss: 1.245885	Score:  68.712%
(E3 729.398s V)	[288/1000 (28%)]	Loss: 1.318224	Score:  67.022%
(E3 729.935s V)	[304/1000 (30%)]	Loss: 1.334776	Score:  66.581%
(E3 730.472s V)	[320/1000 (31%)]	Loss: 1.254612	Score:  68.646%
(E3 731.013s V)	[336/1000 (33%)]	Loss: 1.325626	Score:  66.852%
(E3 731.556s V)	[352/1000 (34%)]	Loss: 1.231771	Score:  68.861%
(E3 732.091s V)	[368/1000 (36%)]	Loss: 1.140043	Score:  71.515%
(E3 732.627s V)	[384/1000 (38%)]	Loss: 1.249241	Score:  69.668%
(E3 733.165s V)	[400/1000 (39%)]	Loss: 1.264739	Score:  69.339%
(E3 733.709s V)	[416/1000 (41%)]	Loss: 1.354797	Score:  66.152%
(E3 734.252s V)	[432/1000 (42%)]	Loss: 1.258111	Score:  69.409%
(E3 734.794s V)	[448/1000 (44%)]	Loss: 1.394773	Score:  65.671%
(E3 735.335s V)	[464/1000 (45%)]	Loss: 1.395690	Score:  64.727%
(E3 735.873s V)	[480/1000 (47%)]	Loss: 1.229935	Score:  69.808%
(E3 736.050s V)	[124/1000 (48%)]	Loss: 0.959783	Score:  77.782%
(E3 751.528s V)	[512/1000 (50%)]	Loss: 1.284676	Score:  67.088%
(E3 752.059s V)	[528/1000 (52%)]	Loss: 1.188926	Score:  70.724%
(E3 752.593s V)	[544/1000 (53%)]	Loss: 1.228594	Score:  69.570%
(E3 753.140s V)	[560/1000 (55%)]	Loss: 1.367579	Score:  66.262%
(E3 753.678s V)	[576/1000 (56%)]	Loss: 1.363370	Score:  66.245%
(E3 754.212s V)	[592/1000 (58%)]	Loss: 1.222468	Score:  69.947%
(E3 754.747s V)	[608/1000 (59%)]	Loss: 1.357341	Score:  65.584%
(E3 755.289s V)	[624/1000 (61%)]	Loss: 1.262130	Score:  68.500%
(E3 755.828s V)	[640/1000 (62%)]	Loss: 1.376064	Score:  66.454%
(E3 756.366s V)	[656/1000 (64%)]	Loss: 1.300098	Score:  67.174%
(E3 756.901s V)	[672/1000 (66%)]	Loss: 1.347149	Score:  66.896%
(E3 757.443s V)	[688/1000 (67%)]	Loss: 1.390039	Score:  64.594%
(E3 757.982s V)	[704/1000 (69%)]	Loss: 1.195751	Score:  70.019%
(E3 758.523s V)	[720/1000 (70%)]	Loss: 1.534317	Score:  63.329%
(E3 759.061s V)	[736/1000 (72%)]	Loss: 1.257599	Score:  68.756%
(E3 759.600s V)	[752/1000 (73%)]	Loss: 1.208698	Score:  69.545%
(E3 760.140s V)	[768/1000 (75%)]	Loss: 1.315894	Score:  67.523%
(E3 760.686s V)	[784/1000 (77%)]	Loss: 1.262458	Score:  68.014%
(E3 761.230s V)	[800/1000 (78%)]	Loss: 1.200923	Score:  70.833%
(E3 761.775s V)	[816/1000 (80%)]	Loss: 1.179933	Score:  69.827%
(E3 762.315s V)	[832/1000 (81%)]	Loss: 1.392417	Score:  65.560%
(E3 762.855s V)	[848/1000 (83%)]	Loss: 1.161236	Score:  71.027%
(E3 763.395s V)	[864/1000 (84%)]	Loss: 1.330155	Score:  66.430%
(E3 763.931s V)	[880/1000 (86%)]	Loss: 1.303841	Score:  67.293%
(E3 764.473s V)	[896/1000 (88%)]	Loss: 1.423565	Score:  65.377%
(E3 765.014s V)	[912/1000 (89%)]	Loss: 1.263743	Score:  68.304%
(E3 765.554s V)	[928/1000 (91%)]	Loss: 1.215778	Score:  70.129%
(E3 766.098s V)	[944/1000 (92%)]	Loss: 1.267023	Score:  69.923%
(E3 766.633s V)	[960/1000 (94%)]	Loss: 1.238400	Score:  69.752%
(E3 767.173s V)	[976/1000 (95%)]	Loss: 1.193867	Score:  71.284%
(E3 767.713s V)	[992/1000 (97%)]	Loss: 1.444006	Score:  63.991%
(E3 767.888s V)	[252/1000 (98%)]	Loss: 1.412267	Score:  67.170%
graph(%0 : Float(4, 3, 256, 256),
      %1 : Float(40, 3, 3, 3),
      %2 : Float(40),
      %3 : Float(40, 40, 3, 3),
      %4 : Float(40),
      %5 : Float(80, 40, 3, 3),
      %6 : Float(80),
      %7 : Float(80, 80, 3, 3),
      %8 : Float(80),
      %9 : Float(160, 80, 3, 3),
      %10 : Float(160),
      %11 : Float(160, 160, 3, 3),
      %12 : Float(160),
      %13 : Float(320, 160, 3, 3),
      %14 : Float(320),
      %15 : Float(320, 320, 3, 3),
      %16 : Float(320),
      %17 : Float(320, 160, 4, 4),
      %18 : Float(160),
      %19 : Float(160, 80, 4, 4),
      %20 : Float(80),
      %21 : Float(80, 40, 4, 4),
      %22 : Float(40),
      %23 : Float(160, 320, 3, 3),
      %24 : Float(160),
      %25 : Float(160, 160, 3, 3),
      %26 : Float(160),
      %27 : Float(80, 160, 3, 3),
      %28 : Float(80),
      %29 : Float(80, 80, 3, 3),
      %30 : Float(80),
      %31 : Float(40, 80, 3, 3),
      %32 : Float(40),
      %33 : Float(30, 40, 3, 3),
      %34 : Float(30)):
  %35 : Float(4, 40, 256, 256) = onnx::Conv[dilations=[1, 1], group=1, kernel_shape=[3, 3], pads=[1, 1, 1, 1], strides=[1, 1]](%0, %1, %2), scope: FCN/Sequential/Conv2d[0]
  %36 : Float(4, 40, 256, 256) = onnx::Relu(%35), scope: FCN/Sequential/ReLU[1]
  %37 : Float(4, 40, 256, 256) = onnx::Conv[dilations=[1, 1], group=1, kernel_shape=[3, 3], pads=[1, 1, 1, 1], strides=[1, 1]](%36, %3, %4), scope: FCN/Sequential/Conv2d[2]
  %38 : Float(4, 40, 256, 256) = onnx::Relu(%37), scope: FCN/Sequential/ReLU[3]
  %39 : Float(4, 40, 128, 128) = onnx::MaxPool[kernel_shape=[2, 2], pads=[0, 0, 0, 0], strides=[2, 2]](%38), scope: FCN/MaxPool2d
  %40 : Float(4, 80, 128, 128) = onnx::Conv[dilations=[1, 1], group=1, kernel_shape=[3, 3], pads=[1, 1, 1, 1], strides=[1, 1]](%39, %5, %6), scope: FCN/Sequential/Conv2d[0]
  %41 : Float(4, 80, 128, 128) = onnx::Relu(%40), scope: FCN/Sequential/ReLU[1]
  %42 : Float(4, 80, 128, 128) = onnx::Conv[dilations=[1, 1], group=1, kernel_shape=[3, 3], pads=[1, 1, 1, 1], strides=[1, 1]](%41, %7, %8), scope: FCN/Sequential/Conv2d[2]
  %43 : Float(4, 80, 128, 128) = onnx::Relu(%42), scope: FCN/Sequential/ReLU[3]
  %44 : Float(4, 80, 64, 64) = onnx::MaxPool[kernel_shape=[2, 2], pads=[0, 0, 0, 0], strides=[2, 2]](%43), scope: FCN/MaxPool2d
  %45 : Float(4, 160, 64, 64) = onnx::Conv[dilations=[1, 1], group=1, kernel_shape=[3, 3], pads=[1, 1, 1, 1], strides=[1, 1]](%44, %9, %10), scope: FCN/Sequential/Conv2d[0]
  %46 : Float(4, 160, 64, 64) = onnx::Relu(%45), scope: FCN/Sequential/ReLU[1]
  %47 : Float(4, 160, 64, 64) = onnx::Conv[dilations=[1, 1], group=1, kernel_shape=[3, 3], pads=[1, 1, 1, 1], strides=[1, 1]](%46, %11, %12), scope: FCN/Sequential/Conv2d[2]
  %48 : Float(4, 160, 64, 64) = onnx::Relu(%47), scope: FCN/Sequential/ReLU[3]
  %49 : Float(4, 160, 32, 32) = onnx::MaxPool[kernel_shape=[2, 2], pads=[0, 0, 0, 0], strides=[2, 2]](%48), scope: FCN/MaxPool2d
  %50 : Float(4, 320, 32, 32) = onnx::Conv[dilations=[1, 1], group=1, kernel_shape=[3, 3], pads=[1, 1, 1, 1], strides=[1, 1]](%49, %13, %14), scope: FCN/Sequential[intermediate]/Conv2d[0]
  %51 : Float(4, 320, 32, 32) = onnx::Relu(%50), scope: FCN/Sequential[intermediate]/ReLU[1]
  %52 : Float(4, 320, 32, 32) = onnx::Conv[dilations=[1, 1], group=1, kernel_shape=[3, 3], pads=[1, 1, 1, 1], strides=[1, 1]](%51, %15, %16), scope: FCN/Sequential[intermediate]/Conv2d[2]
  %53 : Float(4, 320, 32, 32) = onnx::Relu(%52), scope: FCN/Sequential[intermediate]/ReLU[3]
  %54 : Float(4, 160, 64, 64) = onnx::ConvTranspose[dilations=[1, 1], group=1, kernel_shape=[4, 4], pads=[1, 1, 1, 1], strides=[2, 2]](%53, %17, %18), scope: FCN/ConvTranspose2d
  %55 : Float(4, 320, 64, 64) = onnx::Concat[axis=1](%54, %48), scope: FCN
  %56 : Float(4, 160, 64, 64) = onnx::Conv[dilations=[1, 1], group=1, kernel_shape=[3, 3], pads=[1, 1, 1, 1], strides=[1, 1]](%55, %23, %24), scope: FCN/Sequential/Conv2d[0]
  %57 : Float(4, 160, 64, 64) = onnx::Relu(%56), scope: FCN/Sequential/ReLU[1]
  %58 : Float(4, 160, 64, 64) = onnx::Conv[dilations=[1, 1], group=1, kernel_shape=[3, 3], pads=[1, 1, 1, 1], strides=[1, 1]](%57, %25, %26), scope: FCN/Sequential/Conv2d[2]
  %59 : Float(4, 160, 64, 64) = onnx::Relu(%58), scope: FCN/Sequential/ReLU[3]
  %60 : Float(4, 80, 128, 128) = onnx::ConvTranspose[dilations=[1, 1], group=1, kernel_shape=[4, 4], pads=[1, 1, 1, 1], strides=[2, 2]](%59, %19, %20), scope: FCN/ConvTranspose2d
  %61 : Float(4, 160, 128, 128) = onnx::Concat[axis=1](%60, %43), scope: FCN
  %62 : Float(4, 80, 128, 128) = onnx::Conv[dilations=[1, 1], group=1, kernel_shape=[3, 3], pads=[1, 1, 1, 1], strides=[1, 1]](%61, %27, %28), scope: FCN/Sequential/Conv2d[0]
  %63 : Float(4, 80, 128, 128) = onnx::Relu(%62), scope: FCN/Sequential/ReLU[1]
  %64 : Float(4, 80, 128, 128) = onnx::Conv[dilations=[1, 1], group=1, kernel_shape=[3, 3], pads=[1, 1, 1, 1], strides=[1, 1]](%63, %29, %30), scope: FCN/Sequential/Conv2d[2]
  %65 : Float(4, 80, 128, 128) = onnx::Relu(%64), scope: FCN/Sequential/ReLU[3]
  %66 : Float(4, 40, 256, 256) = onnx::ConvTranspose[dilations=[1, 1], group=1, kernel_shape=[4, 4], pads=[1, 1, 1, 1], strides=[2, 2]](%65, %21, %22), scope: FCN/ConvTranspose2d
  %67 : Float(4, 80, 256, 256) = onnx::Concat[axis=1](%66, %38), scope: FCN
  %68 : Float(4, 40, 256, 256) = onnx::Conv[dilations=[1, 1], group=1, kernel_shape=[3, 3], pads=[1, 1, 1, 1], strides=[1, 1]](%67, %31, %32), scope: FCN/Sequential/Conv2d[0]
  %69 : Float(4, 40, 256, 256) = onnx::Relu(%68), scope: FCN/Sequential/ReLU[1]
  %70 : Float(4, 30, 256, 256) = onnx::Conv[dilations=[1, 1], group=1, kernel_shape=[3, 3], pads=[1, 1, 1, 1], strides=[1, 1]](%69, %33, %34), scope: FCN/Sequential/Conv2d[2]
  %71 : Float(4, 30, 256, 256) = onnx::Relu(%70), scope: FCN/Sequential/ReLU[3]
  return (%71)


Test set: Average loss: 1.2906, Score: (68.07%)

Saving the model serialization to /home/mb385130/task2/model-epoch-2
(E4 782.433s T)	[0/2975 (0%)]	Loss: 1.462669	Score:  63.533%
(E4 795.962s T)	[16/2975 (1%)]	Loss: 1.352579	Score:  67.785%
(E4 797.180s T)	[32/2975 (1%)]	Loss: 1.398648	Score:  65.420%
(E4 798.151s T)	[48/2975 (2%)]	Loss: 1.409392	Score:  65.011%
(E4 799.114s T)	[64/2975 (2%)]	Loss: 1.318670	Score:  66.119%
(E4 800.081s T)	[80/2975 (3%)]	Loss: 1.185304	Score:  70.949%
(E4 801.055s T)	[96/2975 (3%)]	Loss: 1.384160	Score:  67.031%
(E4 802.028s T)	[112/2975 (4%)]	Loss: 1.220288	Score:  69.445%
(E4 802.995s T)	[128/2975 (4%)]	Loss: 1.196680	Score:  70.044%
(E4 803.960s T)	[144/2975 (5%)]	Loss: 1.366381	Score:  65.718%
(E4 804.932s T)	[160/2975 (5%)]	Loss: 1.399400	Score:  65.657%
(E4 805.894s T)	[176/2975 (6%)]	Loss: 1.344048	Score:  66.098%
(E4 806.875s T)	[192/2975 (6%)]	Loss: 1.424571	Score:  63.708%
(E4 807.844s T)	[208/2975 (7%)]	Loss: 1.330787	Score:  67.959%
(E4 808.822s T)	[224/2975 (8%)]	Loss: 1.291081	Score:  68.093%
(E4 809.775s T)	[240/2975 (8%)]	Loss: 1.169821	Score:  71.760%
(E4 810.748s T)	[256/2975 (9%)]	Loss: 1.260615	Score:  69.570%
(E4 811.723s T)	[272/2975 (9%)]	Loss: 1.212314	Score:  69.679%
(E4 812.695s T)	[288/2975 (10%)]	Loss: 1.245874	Score:  69.478%
(E4 813.662s T)	[304/2975 (10%)]	Loss: 1.269038	Score:  68.233%
(E4 814.633s T)	[320/2975 (11%)]	Loss: 1.299169	Score:  67.201%
(E4 815.603s T)	[336/2975 (11%)]	Loss: 1.317010	Score:  68.725%
(E4 816.586s T)	[352/2975 (12%)]	Loss: 1.438350	Score:  65.077%
(E4 817.562s T)	[368/2975 (12%)]	Loss: 1.188413	Score:  70.956%
(E4 818.536s T)	[384/2975 (13%)]	Loss: 1.481200	Score:  64.523%
(E4 819.502s T)	[400/2975 (13%)]	Loss: 1.293817	Score:  69.393%
(E4 820.462s T)	[416/2975 (14%)]	Loss: 1.275377	Score:  69.206%
(E4 821.435s T)	[432/2975 (15%)]	Loss: 1.205902	Score:  69.910%
(E4 822.400s T)	[448/2975 (15%)]	Loss: 1.369695	Score:  66.775%
(E4 823.374s T)	[464/2975 (16%)]	Loss: 1.332836	Score:  67.753%
(E4 824.342s T)	[480/2975 (16%)]	Loss: 1.255840	Score:  67.982%
(E4 825.303s T)	[496/2975 (17%)]	Loss: 1.326131	Score:  66.886%
(E4 826.266s T)	[512/2975 (17%)]	Loss: 1.458959	Score:  65.273%
(E4 827.250s T)	[528/2975 (18%)]	Loss: 1.290289	Score:  67.580%
(E4 828.226s T)	[544/2975 (18%)]	Loss: 1.314645	Score:  68.009%
(E4 829.190s T)	[560/2975 (19%)]	Loss: 1.212668	Score:  71.047%
(E4 830.160s T)	[576/2975 (19%)]	Loss: 1.268964	Score:  68.594%
(E4 831.122s T)	[592/2975 (20%)]	Loss: 1.185663	Score:  70.817%
(E4 832.091s T)	[608/2975 (20%)]	Loss: 1.336795	Score:  67.367%
(E4 833.046s T)	[624/2975 (21%)]	Loss: 1.412006	Score:  63.109%
(E4 834.005s T)	[640/2975 (22%)]	Loss: 1.423725	Score:  65.493%
(E4 834.975s T)	[656/2975 (22%)]	Loss: 1.160080	Score:  71.964%
(E4 835.933s T)	[672/2975 (23%)]	Loss: 1.292249	Score:  68.018%
(E4 836.901s T)	[688/2975 (23%)]	Loss: 1.252253	Score:  69.693%
(E4 837.879s T)	[704/2975 (24%)]	Loss: 1.317793	Score:  67.530%
(E4 838.846s T)	[720/2975 (24%)]	Loss: 1.323785	Score:  66.253%
(E4 839.802s T)	[736/2975 (25%)]	Loss: 1.196453	Score:  71.041%
(E4 840.772s T)	[752/2975 (25%)]	Loss: 1.128376	Score:  72.730%
(E4 841.740s T)	[768/2975 (26%)]	Loss: 1.340838	Score:  67.330%
(E4 842.713s T)	[784/2975 (26%)]	Loss: 1.306078	Score:  68.934%
(E4 843.673s T)	[800/2975 (27%)]	Loss: 1.352657	Score:  67.293%
(E4 844.631s T)	[816/2975 (27%)]	Loss: 1.330430	Score:  66.551%
(E4 845.595s T)	[832/2975 (28%)]	Loss: 1.206592	Score:  70.273%
(E4 846.561s T)	[848/2975 (28%)]	Loss: 1.140067	Score:  71.780%
(E4 847.518s T)	[864/2975 (29%)]	Loss: 1.202041	Score:  71.416%
(E4 848.495s T)	[880/2975 (30%)]	Loss: 1.437611	Score:  63.896%
(E4 849.468s T)	[896/2975 (30%)]	Loss: 1.292068	Score:  68.556%
(E4 850.447s T)	[912/2975 (31%)]	Loss: 1.330526	Score:  67.579%
(E4 851.420s T)	[928/2975 (31%)]	Loss: 1.265994	Score:  68.331%
(E4 852.387s T)	[944/2975 (32%)]	Loss: 1.344546	Score:  67.306%
(E4 853.352s T)	[960/2975 (32%)]	Loss: 1.290292	Score:  67.513%
(E4 854.311s T)	[976/2975 (33%)]	Loss: 1.343580	Score:  66.773%
(E4 855.285s T)	[992/2975 (33%)]	Loss: 1.167974	Score:  72.483%
(E4 856.253s T)	[1008/2975 (34%)]	Loss: 1.272860	Score:  69.355%
(E4 857.227s T)	[1024/2975 (34%)]	Loss: 1.387936	Score:  66.922%
(E4 858.188s T)	[1040/2975 (35%)]	Loss: 1.380318	Score:  66.192%
(E4 859.155s T)	[1056/2975 (35%)]	Loss: 1.187589	Score:  69.010%
(E4 860.128s T)	[1072/2975 (36%)]	Loss: 1.465175	Score:  63.549%
(E4 861.103s T)	[1088/2975 (37%)]	Loss: 1.286561	Score:  68.628%
(E4 862.070s T)	[1104/2975 (37%)]	Loss: 1.195379	Score:  69.086%
(E4 863.035s T)	[1120/2975 (38%)]	Loss: 1.232218	Score:  69.057%
(E4 864.002s T)	[1136/2975 (38%)]	Loss: 1.208246	Score:  70.869%
(E4 864.955s T)	[1152/2975 (39%)]	Loss: 1.414254	Score:  65.730%
(E4 865.931s T)	[1168/2975 (39%)]	Loss: 1.221834	Score:  70.261%
(E4 866.916s T)	[1184/2975 (40%)]	Loss: 1.248334	Score:  70.414%
(E4 867.895s T)	[1200/2975 (40%)]	Loss: 1.282039	Score:  66.769%
(E4 868.870s T)	[1216/2975 (41%)]	Loss: 1.362114	Score:  67.561%
(E4 869.829s T)	[1232/2975 (41%)]	Loss: 1.207319	Score:  69.876%
(E4 870.793s T)	[1248/2975 (42%)]	Loss: 1.245892	Score:  69.521%
(E4 871.770s T)	[1264/2975 (42%)]	Loss: 1.154925	Score:  71.173%
(E4 872.745s T)	[1280/2975 (43%)]	Loss: 1.298957	Score:  69.242%
(E4 873.712s T)	[1296/2975 (44%)]	Loss: 1.366111	Score:  67.111%
(E4 874.682s T)	[1312/2975 (44%)]	Loss: 1.179761	Score:  70.589%
(E4 875.650s T)	[1328/2975 (45%)]	Loss: 1.235003	Score:  69.815%
(E4 876.627s T)	[1344/2975 (45%)]	Loss: 1.120400	Score:  72.996%
(E4 877.601s T)	[1360/2975 (46%)]	Loss: 1.233332	Score:  69.175%
(E4 878.573s T)	[1376/2975 (46%)]	Loss: 1.294914	Score:  69.243%
(E4 879.548s T)	[1392/2975 (47%)]	Loss: 1.292953	Score:  70.203%
(E4 880.521s T)	[1408/2975 (47%)]	Loss: 1.268426	Score:  68.930%
(E4 881.484s T)	[1424/2975 (48%)]	Loss: 1.301178	Score:  67.712%
(E4 882.443s T)	[1440/2975 (48%)]	Loss: 1.175747	Score:  70.666%
(E4 883.420s T)	[1456/2975 (49%)]	Loss: 1.175816	Score:  71.021%
(E4 884.409s T)	[1472/2975 (49%)]	Loss: 1.390162	Score:  67.066%
(E4 885.380s T)	[1488/2975 (50%)]	Loss: 1.320269	Score:  67.410%
(E4 886.360s T)	[1504/2975 (51%)]	Loss: 1.183625	Score:  71.111%
(E4 887.312s T)	[1520/2975 (51%)]	Loss: 1.253133	Score:  69.821%
(E4 888.283s T)	[1536/2975 (52%)]	Loss: 1.239087	Score:  70.056%
(E4 889.261s T)	[1552/2975 (52%)]	Loss: 1.284823	Score:  69.239%
(E4 890.235s T)	[1568/2975 (53%)]	Loss: 1.358575	Score:  67.024%
(E4 891.192s T)	[1584/2975 (53%)]	Loss: 1.171867	Score:  71.682%
(E4 892.169s T)	[1600/2975 (54%)]	Loss: 1.102572	Score:  73.310%
(E4 893.143s T)	[1616/2975 (54%)]	Loss: 1.350082	Score:  65.857%
(E4 894.111s T)	[1632/2975 (55%)]	Loss: 1.204956	Score:  72.182%
(E4 895.071s T)	[1648/2975 (55%)]	Loss: 1.272540	Score:  69.645%
(E4 896.053s T)	[1664/2975 (56%)]	Loss: 1.161201	Score:  72.256%
(E4 897.014s T)	[1680/2975 (56%)]	Loss: 1.263820	Score:  69.477%
(E4 897.983s T)	[1696/2975 (57%)]	Loss: 1.439324	Score:  65.066%
(E4 898.947s T)	[1712/2975 (58%)]	Loss: 1.235575	Score:  70.148%
(E4 899.915s T)	[1728/2975 (58%)]	Loss: 1.149428	Score:  72.266%
(E4 900.879s T)	[1744/2975 (59%)]	Loss: 1.427961	Score:  64.370%
(E4 901.854s T)	[1760/2975 (59%)]	Loss: 1.312816	Score:  67.149%
(E4 902.826s T)	[1776/2975 (60%)]	Loss: 1.196094	Score:  70.759%
(E4 903.799s T)	[1792/2975 (60%)]	Loss: 1.308705	Score:  68.254%
(E4 904.780s T)	[1808/2975 (61%)]	Loss: 1.245449	Score:  70.508%
(E4 905.775s T)	[1824/2975 (61%)]	Loss: 1.213789	Score:  70.462%
(E4 906.740s T)	[1840/2975 (62%)]	Loss: 1.272283	Score:  68.079%
(E4 907.718s T)	[1856/2975 (62%)]	Loss: 1.219077	Score:  70.741%
(E4 908.690s T)	[1872/2975 (63%)]	Loss: 1.277703	Score:  67.538%
(E4 909.669s T)	[1888/2975 (63%)]	Loss: 1.225715	Score:  69.817%
(E4 910.651s T)	[1904/2975 (64%)]	Loss: 1.211998	Score:  70.934%
(E4 911.615s T)	[1920/2975 (65%)]	Loss: 1.267657	Score:  69.163%
(E4 912.595s T)	[1936/2975 (65%)]	Loss: 1.288199	Score:  67.826%
(E4 913.518s T)	[1952/2975 (66%)]	Loss: 1.418586	Score:  64.489%
(E4 914.219s T)	[1968/2975 (66%)]	Loss: 1.346182	Score:  66.638%
(E4 914.923s T)	[1984/2975 (67%)]	Loss: 1.452588	Score:  62.986%
(E4 915.627s T)	[2000/2975 (67%)]	Loss: 1.323473	Score:  65.987%
(E4 916.324s T)	[2016/2975 (68%)]	Loss: 1.303135	Score:  68.936%
(E4 917.029s T)	[2032/2975 (68%)]	Loss: 1.150520	Score:  72.897%
(E4 917.745s T)	[2048/2975 (69%)]	Loss: 1.262353	Score:  69.127%
(E4 918.446s T)	[2064/2975 (69%)]	Loss: 1.099051	Score:  73.386%
(E4 919.146s T)	[2080/2975 (70%)]	Loss: 1.216630	Score:  70.114%
(E4 919.850s T)	[2096/2975 (70%)]	Loss: 1.392742	Score:  67.418%
(E4 920.549s T)	[2112/2975 (71%)]	Loss: 1.464719	Score:  64.485%
(E4 921.247s T)	[2128/2975 (72%)]	Loss: 1.137060	Score:  73.945%
(E4 921.946s T)	[2144/2975 (72%)]	Loss: 1.282026	Score:  67.487%
(E4 922.641s T)	[2160/2975 (73%)]	Loss: 1.306937	Score:  67.244%
(E4 923.335s T)	[2176/2975 (73%)]	Loss: 1.111490	Score:  73.623%
(E4 924.034s T)	[2192/2975 (74%)]	Loss: 1.440993	Score:  64.093%
(E4 924.733s T)	[2208/2975 (74%)]	Loss: 1.254528	Score:  70.525%
(E4 925.433s T)	[2224/2975 (75%)]	Loss: 1.157210	Score:  71.841%
(E4 926.128s T)	[2240/2975 (75%)]	Loss: 1.283882	Score:  69.140%
(E4 926.821s T)	[2256/2975 (76%)]	Loss: 1.179050	Score:  71.715%
(E4 927.522s T)	[2272/2975 (76%)]	Loss: 1.243571	Score:  70.000%
(E4 928.215s T)	[2288/2975 (77%)]	Loss: 1.298389	Score:  68.343%
(E4 928.915s T)	[2304/2975 (77%)]	Loss: 1.392636	Score:  66.542%
(E4 929.611s T)	[2320/2975 (78%)]	Loss: 1.198563	Score:  70.937%
(E4 930.305s T)	[2336/2975 (78%)]	Loss: 1.257872	Score:  69.255%
(E4 930.997s T)	[2352/2975 (79%)]	Loss: 1.091938	Score:  73.479%
(E4 931.689s T)	[2368/2975 (80%)]	Loss: 1.082115	Score:  74.448%
(E4 932.382s T)	[2384/2975 (80%)]	Loss: 1.490908	Score:  63.869%
(E4 933.078s T)	[2400/2975 (81%)]	Loss: 1.387698	Score:  65.560%
(E4 933.782s T)	[2416/2975 (81%)]	Loss: 1.410556	Score:  66.287%
(E4 934.475s T)	[2432/2975 (82%)]	Loss: 1.252020	Score:  68.427%
(E4 935.172s T)	[2448/2975 (82%)]	Loss: 1.302081	Score:  68.025%
(E4 935.863s T)	[2464/2975 (83%)]	Loss: 1.346624	Score:  66.256%
(E4 936.560s T)	[2480/2975 (83%)]	Loss: 1.295060	Score:  68.374%
(E4 937.255s T)	[2496/2975 (84%)]	Loss: 1.148247	Score:  71.978%
(E4 937.951s T)	[2512/2975 (84%)]	Loss: 1.444137	Score:  64.594%
(E4 938.649s T)	[2528/2975 (85%)]	Loss: 1.290555	Score:  68.909%
(E4 939.350s T)	[2544/2975 (85%)]	Loss: 1.208718	Score:  70.566%
(E4 940.052s T)	[2560/2975 (86%)]	Loss: 0.993810	Score:  76.826%
(E4 940.752s T)	[2576/2975 (87%)]	Loss: 1.209189	Score:  71.803%
(E4 941.452s T)	[2592/2975 (87%)]	Loss: 1.357227	Score:  66.425%
(E4 942.151s T)	[2608/2975 (88%)]	Loss: 1.213838	Score:  70.164%
(E4 942.849s T)	[2624/2975 (88%)]	Loss: 1.257590	Score:  69.018%
(E4 943.554s T)	[2640/2975 (89%)]	Loss: 1.197449	Score:  70.649%
(E4 944.254s T)	[2656/2975 (89%)]	Loss: 1.249250	Score:  69.801%
(E4 944.961s T)	[2672/2975 (90%)]	Loss: 1.085327	Score:  73.203%
(E4 945.659s T)	[2688/2975 (90%)]	Loss: 1.350267	Score:  66.784%
(E4 946.356s T)	[2704/2975 (91%)]	Loss: 1.262482	Score:  69.572%
(E4 947.057s T)	[2720/2975 (91%)]	Loss: 1.175588	Score:  71.144%
(E4 947.754s T)	[2736/2975 (92%)]	Loss: 1.240461	Score:  69.893%
(E4 948.455s T)	[2752/2975 (92%)]	Loss: 1.151786	Score:  72.171%
(E4 949.159s T)	[2768/2975 (93%)]	Loss: 1.101327	Score:  73.398%
(E4 949.862s T)	[2784/2975 (94%)]	Loss: 1.235790	Score:  70.795%
(E4 950.568s T)	[2800/2975 (94%)]	Loss: 1.286994	Score:  69.375%
(E4 951.267s T)	[2816/2975 (95%)]	Loss: 1.210139	Score:  70.895%
(E4 951.964s T)	[2832/2975 (95%)]	Loss: 1.345870	Score:  67.404%
(E4 952.669s T)	[2848/2975 (96%)]	Loss: 1.244050	Score:  69.232%
(E4 953.374s T)	[2864/2975 (96%)]	Loss: 1.386942	Score:  66.099%
(E4 954.072s T)	[2880/2975 (97%)]	Loss: 1.227076	Score:  70.376%
(E4 954.775s T)	[2896/2975 (97%)]	Loss: 1.347788	Score:  67.337%
(E4 955.480s T)	[2912/2975 (98%)]	Loss: 1.222950	Score:  70.312%
(E4 956.180s T)	[2928/2975 (98%)]	Loss: 1.102171	Score:  73.826%
(E4 956.885s T)	[2944/2975 (99%)]	Loss: 1.185091	Score:  71.681%
(E4 957.574s T)	[2775/2975 (99%)]	Loss: 1.162307	Score:  71.135%
(E4 973.399s V)	[0/1000 (0%)]	Loss: 1.101317	Score:  73.829%
(E4 973.947s V)	[16/1000 (2%)]	Loss: 1.288982	Score:  69.310%
(E4 974.490s V)	[32/1000 (3%)]	Loss: 1.128957	Score:  72.449%
(E4 975.037s V)	[48/1000 (5%)]	Loss: 1.287776	Score:  69.761%
(E4 975.577s V)	[64/1000 (6%)]	Loss: 1.207024	Score:  70.832%
(E4 976.120s V)	[80/1000 (8%)]	Loss: 1.129011	Score:  72.185%
(E4 976.660s V)	[96/1000 (9%)]	Loss: 1.315411	Score:  68.226%
(E4 977.203s V)	[112/1000 (11%)]	Loss: 1.084160	Score:  73.842%
(E4 977.743s V)	[128/1000 (12%)]	Loss: 1.194362	Score:  71.678%
(E4 978.282s V)	[144/1000 (14%)]	Loss: 1.237561	Score:  69.371%
(E4 978.817s V)	[160/1000 (16%)]	Loss: 1.087855	Score:  73.704%
(E4 979.355s V)	[176/1000 (17%)]	Loss: 1.216305	Score:  69.428%
(E4 979.897s V)	[192/1000 (19%)]	Loss: 1.271741	Score:  68.614%
(E4 980.438s V)	[208/1000 (20%)]	Loss: 1.322172	Score:  68.411%
(E4 980.981s V)	[224/1000 (22%)]	Loss: 1.235661	Score:  69.564%
(E4 981.523s V)	[240/1000 (23%)]	Loss: 1.235718	Score:  70.521%
(E4 982.063s V)	[256/1000 (25%)]	Loss: 1.242829	Score:  69.830%
(E4 982.604s V)	[272/1000 (27%)]	Loss: 1.160601	Score:  72.258%
(E4 983.141s V)	[288/1000 (28%)]	Loss: 1.150044	Score:  72.492%
(E4 983.679s V)	[304/1000 (30%)]	Loss: 1.227982	Score:  71.238%
(E4 984.215s V)	[320/1000 (31%)]	Loss: 1.306703	Score:  68.685%
(E4 984.750s V)	[336/1000 (33%)]	Loss: 1.139384	Score:  72.502%
(E4 985.293s V)	[352/1000 (34%)]	Loss: 1.225979	Score:  71.330%
(E4 985.828s V)	[368/1000 (36%)]	Loss: 1.214033	Score:  70.951%
(E4 986.363s V)	[384/1000 (38%)]	Loss: 1.138648	Score:  73.158%
(E4 986.900s V)	[400/1000 (39%)]	Loss: 1.152651	Score:  72.091%
(E4 987.442s V)	[416/1000 (41%)]	Loss: 1.154278	Score:  72.823%
(E4 987.985s V)	[432/1000 (42%)]	Loss: 1.126003	Score:  72.118%
(E4 988.528s V)	[448/1000 (44%)]	Loss: 1.189310	Score:  71.501%
(E4 989.068s V)	[464/1000 (45%)]	Loss: 1.230649	Score:  70.442%
(E4 989.600s V)	[480/1000 (47%)]	Loss: 1.225244	Score:  70.368%
(E4 989.771s V)	[124/1000 (48%)]	Loss: 1.018768	Score:  75.512%
(E4 1005.256s V)	[512/1000 (50%)]	Loss: 1.155751	Score:  72.255%
(E4 1005.788s V)	[528/1000 (52%)]	Loss: 1.263115	Score:  70.642%
(E4 1006.322s V)	[544/1000 (53%)]	Loss: 1.161664	Score:  71.395%
(E4 1006.862s V)	[560/1000 (55%)]	Loss: 1.197530	Score:  71.369%
(E4 1007.400s V)	[576/1000 (56%)]	Loss: 1.206250	Score:  70.231%
(E4 1007.940s V)	[592/1000 (58%)]	Loss: 1.196939	Score:  70.932%
(E4 1008.475s V)	[608/1000 (59%)]	Loss: 1.112556	Score:  72.613%
(E4 1009.012s V)	[624/1000 (61%)]	Loss: 1.417680	Score:  65.563%
(E4 1009.550s V)	[640/1000 (62%)]	Loss: 1.190420	Score:  70.590%
(E4 1010.090s V)	[656/1000 (64%)]	Loss: 1.131688	Score:  73.048%
(E4 1010.625s V)	[672/1000 (66%)]	Loss: 1.113431	Score:  73.406%
(E4 1011.160s V)	[688/1000 (67%)]	Loss: 1.279100	Score:  68.879%
(E4 1011.696s V)	[704/1000 (69%)]	Loss: 1.121585	Score:  73.721%
(E4 1012.231s V)	[720/1000 (70%)]	Loss: 1.119906	Score:  72.415%
(E4 1012.771s V)	[736/1000 (72%)]	Loss: 1.414361	Score:  65.527%
(E4 1013.312s V)	[752/1000 (73%)]	Loss: 1.165655	Score:  70.476%
(E4 1013.851s V)	[768/1000 (75%)]	Loss: 1.092300	Score:  74.060%
(E4 1014.391s V)	[784/1000 (77%)]	Loss: 1.043377	Score:  75.104%
(E4 1014.931s V)	[800/1000 (78%)]	Loss: 1.422275	Score:  66.174%
(E4 1015.467s V)	[816/1000 (80%)]	Loss: 1.053437	Score:  74.410%
(E4 1016.004s V)	[832/1000 (81%)]	Loss: 1.204315	Score:  71.012%
(E4 1016.541s V)	[848/1000 (83%)]	Loss: 1.107174	Score:  73.573%
(E4 1017.077s V)	[864/1000 (84%)]	Loss: 1.129954	Score:  73.077%
(E4 1017.614s V)	[880/1000 (86%)]	Loss: 1.412328	Score:  67.614%
(E4 1018.152s V)	[896/1000 (88%)]	Loss: 1.188359	Score:  71.148%
(E4 1018.690s V)	[912/1000 (89%)]	Loss: 1.219485	Score:  71.130%
(E4 1019.232s V)	[928/1000 (91%)]	Loss: 1.318082	Score:  68.488%
(E4 1019.771s V)	[944/1000 (92%)]	Loss: 1.098658	Score:  74.214%
(E4 1020.307s V)	[960/1000 (94%)]	Loss: 1.274043	Score:  69.522%
(E4 1020.840s V)	[976/1000 (95%)]	Loss: 1.264554	Score:  69.232%
(E4 1021.375s V)	[992/1000 (97%)]	Loss: 1.124805	Score:  72.105%
(E4 1021.551s V)	[252/1000 (98%)]	Loss: 1.179263	Score:  70.367%
graph(%0 : Float(4, 3, 256, 256),
      %1 : Float(40, 3, 3, 3),
      %2 : Float(40),
      %3 : Float(40, 40, 3, 3),
      %4 : Float(40),
      %5 : Float(80, 40, 3, 3),
      %6 : Float(80),
      %7 : Float(80, 80, 3, 3),
      %8 : Float(80),
      %9 : Float(160, 80, 3, 3),
      %10 : Float(160),
      %11 : Float(160, 160, 3, 3),
      %12 : Float(160),
      %13 : Float(320, 160, 3, 3),
      %14 : Float(320),
      %15 : Float(320, 320, 3, 3),
      %16 : Float(320),
      %17 : Float(320, 160, 4, 4),
      %18 : Float(160),
      %19 : Float(160, 80, 4, 4),
      %20 : Float(80),
      %21 : Float(80, 40, 4, 4),
      %22 : Float(40),
      %23 : Float(160, 320, 3, 3),
      %24 : Float(160),
      %25 : Float(160, 160, 3, 3),
      %26 : Float(160),
      %27 : Float(80, 160, 3, 3),
      %28 : Float(80),
      %29 : Float(80, 80, 3, 3),
      %30 : Float(80),
      %31 : Float(40, 80, 3, 3),
      %32 : Float(40),
      %33 : Float(30, 40, 3, 3),
      %34 : Float(30)):
  %35 : Float(4, 40, 256, 256) = onnx::Conv[dilations=[1, 1], group=1, kernel_shape=[3, 3], pads=[1, 1, 1, 1], strides=[1, 1]](%0, %1, %2), scope: FCN/Sequential/Conv2d[0]
  %36 : Float(4, 40, 256, 256) = onnx::Relu(%35), scope: FCN/Sequential/ReLU[1]
  %37 : Float(4, 40, 256, 256) = onnx::Conv[dilations=[1, 1], group=1, kernel_shape=[3, 3], pads=[1, 1, 1, 1], strides=[1, 1]](%36, %3, %4), scope: FCN/Sequential/Conv2d[2]
  %38 : Float(4, 40, 256, 256) = onnx::Relu(%37), scope: FCN/Sequential/ReLU[3]
  %39 : Float(4, 40, 128, 128) = onnx::MaxPool[kernel_shape=[2, 2], pads=[0, 0, 0, 0], strides=[2, 2]](%38), scope: FCN/MaxPool2d
  %40 : Float(4, 80, 128, 128) = onnx::Conv[dilations=[1, 1], group=1, kernel_shape=[3, 3], pads=[1, 1, 1, 1], strides=[1, 1]](%39, %5, %6), scope: FCN/Sequential/Conv2d[0]
  %41 : Float(4, 80, 128, 128) = onnx::Relu(%40), scope: FCN/Sequential/ReLU[1]
  %42 : Float(4, 80, 128, 128) = onnx::Conv[dilations=[1, 1], group=1, kernel_shape=[3, 3], pads=[1, 1, 1, 1], strides=[1, 1]](%41, %7, %8), scope: FCN/Sequential/Conv2d[2]
  %43 : Float(4, 80, 128, 128) = onnx::Relu(%42), scope: FCN/Sequential/ReLU[3]
  %44 : Float(4, 80, 64, 64) = onnx::MaxPool[kernel_shape=[2, 2], pads=[0, 0, 0, 0], strides=[2, 2]](%43), scope: FCN/MaxPool2d
  %45 : Float(4, 160, 64, 64) = onnx::Conv[dilations=[1, 1], group=1, kernel_shape=[3, 3], pads=[1, 1, 1, 1], strides=[1, 1]](%44, %9, %10), scope: FCN/Sequential/Conv2d[0]
  %46 : Float(4, 160, 64, 64) = onnx::Relu(%45), scope: FCN/Sequential/ReLU[1]
  %47 : Float(4, 160, 64, 64) = onnx::Conv[dilations=[1, 1], group=1, kernel_shape=[3, 3], pads=[1, 1, 1, 1], strides=[1, 1]](%46, %11, %12), scope: FCN/Sequential/Conv2d[2]
  %48 : Float(4, 160, 64, 64) = onnx::Relu(%47), scope: FCN/Sequential/ReLU[3]
  %49 : Float(4, 160, 32, 32) = onnx::MaxPool[kernel_shape=[2, 2], pads=[0, 0, 0, 0], strides=[2, 2]](%48), scope: FCN/MaxPool2d
  %50 : Float(4, 320, 32, 32) = onnx::Conv[dilations=[1, 1], group=1, kernel_shape=[3, 3], pads=[1, 1, 1, 1], strides=[1, 1]](%49, %13, %14), scope: FCN/Sequential[intermediate]/Conv2d[0]
  %51 : Float(4, 320, 32, 32) = onnx::Relu(%50), scope: FCN/Sequential[intermediate]/ReLU[1]
  %52 : Float(4, 320, 32, 32) = onnx::Conv[dilations=[1, 1], group=1, kernel_shape=[3, 3], pads=[1, 1, 1, 1], strides=[1, 1]](%51, %15, %16), scope: FCN/Sequential[intermediate]/Conv2d[2]
  %53 : Float(4, 320, 32, 32) = onnx::Relu(%52), scope: FCN/Sequential[intermediate]/ReLU[3]
  %54 : Float(4, 160, 64, 64) = onnx::ConvTranspose[dilations=[1, 1], group=1, kernel_shape=[4, 4], pads=[1, 1, 1, 1], strides=[2, 2]](%53, %17, %18), scope: FCN/ConvTranspose2d
  %55 : Float(4, 320, 64, 64) = onnx::Concat[axis=1](%54, %48), scope: FCN
  %56 : Float(4, 160, 64, 64) = onnx::Conv[dilations=[1, 1], group=1, kernel_shape=[3, 3], pads=[1, 1, 1, 1], strides=[1, 1]](%55, %23, %24), scope: FCN/Sequential/Conv2d[0]
  %57 : Float(4, 160, 64, 64) = onnx::Relu(%56), scope: FCN/Sequential/ReLU[1]
  %58 : Float(4, 160, 64, 64) = onnx::Conv[dilations=[1, 1], group=1, kernel_shape=[3, 3], pads=[1, 1, 1, 1], strides=[1, 1]](%57, %25, %26), scope: FCN/Sequential/Conv2d[2]
  %59 : Float(4, 160, 64, 64) = onnx::Relu(%58), scope: FCN/Sequential/ReLU[3]
  %60 : Float(4, 80, 128, 128) = onnx::ConvTranspose[dilations=[1, 1], group=1, kernel_shape=[4, 4], pads=[1, 1, 1, 1], strides=[2, 2]](%59, %19, %20), scope: FCN/ConvTranspose2d
  %61 : Float(4, 160, 128, 128) = onnx::Concat[axis=1](%60, %43), scope: FCN
  %62 : Float(4, 80, 128, 128) = onnx::Conv[dilations=[1, 1], group=1, kernel_shape=[3, 3], pads=[1, 1, 1, 1], strides=[1, 1]](%61, %27, %28), scope: FCN/Sequential/Conv2d[0]
  %63 : Float(4, 80, 128, 128) = onnx::Relu(%62), scope: FCN/Sequential/ReLU[1]
  %64 : Float(4, 80, 128, 128) = onnx::Conv[dilations=[1, 1], group=1, kernel_shape=[3, 3], pads=[1, 1, 1, 1], strides=[1, 1]](%63, %29, %30), scope: FCN/Sequential/Conv2d[2]
  %65 : Float(4, 80, 128, 128) = onnx::Relu(%64), scope: FCN/Sequential/ReLU[3]
  %66 : Float(4, 40, 256, 256) = onnx::ConvTranspose[dilations=[1, 1], group=1, kernel_shape=[4, 4], pads=[1, 1, 1, 1], strides=[2, 2]](%65, %21, %22), scope: FCN/ConvTranspose2d
  %67 : Float(4, 80, 256, 256) = onnx::Concat[axis=1](%66, %38), scope: FCN
  %68 : Float(4, 40, 256, 256) = onnx::Conv[dilations=[1, 1], group=1, kernel_shape=[3, 3], pads=[1, 1, 1, 1], strides=[1, 1]](%67, %31, %32), scope: FCN/Sequential/Conv2d[0]
  %69 : Float(4, 40, 256, 256) = onnx::Relu(%68), scope: FCN/Sequential/ReLU[1]
  %70 : Float(4, 30, 256, 256) = onnx::Conv[dilations=[1, 1], group=1, kernel_shape=[3, 3], pads=[1, 1, 1, 1], strides=[1, 1]](%69, %33, %34), scope: FCN/Sequential/Conv2d[2]
  %71 : Float(4, 30, 256, 256) = onnx::Relu(%70), scope: FCN/Sequential/ReLU[3]
  return (%71)


Test set: Average loss: 1.1973, Score: (71.15%)

Saving the model serialization to /home/mb385130/task2/model-epoch-3
(E5 1036.902s T)	[0/2975 (0%)]	Loss: 1.111267	Score:  73.106%
(E5 1049.731s T)	[16/2975 (1%)]	Loss: 1.376464	Score:  67.301%
(E5 1050.911s T)	[32/2975 (1%)]	Loss: 1.177801	Score:  71.798%
(E5 1051.875s T)	[48/2975 (2%)]	Loss: 1.455704	Score:  64.218%
(E5 1052.841s T)	[64/2975 (2%)]	Loss: 1.262174	Score:  68.953%
(E5 1053.799s T)	[80/2975 (3%)]	Loss: 1.063756	Score:  74.425%
(E5 1054.768s T)	[96/2975 (3%)]	Loss: 1.316590	Score:  68.532%
(E5 1055.728s T)	[112/2975 (4%)]	Loss: 1.114577	Score:  73.213%
(E5 1056.691s T)	[128/2975 (4%)]	Loss: 1.000467	Score:  76.635%
(E5 1057.652s T)	[144/2975 (5%)]	Loss: 1.126769	Score:  72.858%
(E5 1058.611s T)	[160/2975 (5%)]	Loss: 1.370059	Score:  67.780%
(E5 1059.571s T)	[176/2975 (6%)]	Loss: 1.195705	Score:  70.908%
(E5 1060.532s T)	[192/2975 (6%)]	Loss: 1.134686	Score:  72.340%
(E5 1061.493s T)	[208/2975 (7%)]	Loss: 1.219812	Score:  70.602%
(E5 1062.451s T)	[224/2975 (8%)]	Loss: 1.248229	Score:  70.311%
(E5 1063.425s T)	[240/2975 (8%)]	Loss: 1.055822	Score:  74.698%
(E5 1064.382s T)	[256/2975 (9%)]	Loss: 1.094833	Score:  73.970%
(E5 1065.361s T)	[272/2975 (9%)]	Loss: 1.131551	Score:  73.767%
(E5 1066.327s T)	[288/2975 (10%)]	Loss: 1.170119	Score:  71.209%
(E5 1067.284s T)	[304/2975 (10%)]	Loss: 1.181858	Score:  71.743%
(E5 1068.255s T)	[320/2975 (11%)]	Loss: 1.251327	Score:  70.356%
(E5 1069.211s T)	[336/2975 (11%)]	Loss: 1.324881	Score:  68.514%
(E5 1070.183s T)	[352/2975 (12%)]	Loss: 1.180245	Score:  72.965%
(E5 1071.151s T)	[368/2975 (12%)]	Loss: 1.241716	Score:  70.769%
(E5 1072.115s T)	[384/2975 (13%)]	Loss: 1.122125	Score:  72.796%
(E5 1073.063s T)	[400/2975 (13%)]	Loss: 1.305108	Score:  68.880%
(E5 1074.014s T)	[416/2975 (14%)]	Loss: 1.266879	Score:  69.650%
(E5 1074.974s T)	[432/2975 (15%)]	Loss: 1.140127	Score:  71.632%
(E5 1075.954s T)	[448/2975 (15%)]	Loss: 1.145973	Score:  72.460%
(E5 1076.922s T)	[464/2975 (16%)]	Loss: 1.198185	Score:  70.285%
(E5 1077.881s T)	[480/2975 (16%)]	Loss: 1.378036	Score:  66.290%
(E5 1078.844s T)	[496/2975 (17%)]	Loss: 1.083042	Score:  74.370%
(E5 1079.822s T)	[512/2975 (17%)]	Loss: 1.097228	Score:  73.502%
(E5 1080.780s T)	[528/2975 (18%)]	Loss: 1.153216	Score:  72.983%
(E5 1081.743s T)	[544/2975 (18%)]	Loss: 1.167258	Score:  73.664%
(E5 1082.711s T)	[560/2975 (19%)]	Loss: 1.222686	Score:  71.208%
(E5 1083.685s T)	[576/2975 (19%)]	Loss: 1.159930	Score:  72.134%
(E5 1084.660s T)	[592/2975 (20%)]	Loss: 1.136392	Score:  73.057%
(E5 1085.622s T)	[608/2975 (20%)]	Loss: 1.197611	Score:  71.870%
(E5 1086.600s T)	[624/2975 (21%)]	Loss: 1.176092	Score:  71.222%
(E5 1087.555s T)	[640/2975 (22%)]	Loss: 1.078880	Score:  73.949%
(E5 1088.512s T)	[656/2975 (22%)]	Loss: 1.285360	Score:  69.233%
(E5 1089.484s T)	[672/2975 (23%)]	Loss: 1.167838	Score:  72.498%
(E5 1090.455s T)	[688/2975 (23%)]	Loss: 1.226683	Score:  70.961%
(E5 1091.411s T)	[704/2975 (24%)]	Loss: 1.149244	Score:  72.260%
(E5 1092.372s T)	[720/2975 (24%)]	Loss: 1.094633	Score:  73.954%
(E5 1093.346s T)	[736/2975 (25%)]	Loss: 1.190769	Score:  71.078%
(E5 1094.308s T)	[752/2975 (25%)]	Loss: 1.218504	Score:  70.661%
(E5 1095.280s T)	[768/2975 (26%)]	Loss: 1.200534	Score:  70.628%
(E5 1096.258s T)	[784/2975 (26%)]	Loss: 1.092159	Score:  72.885%
(E5 1097.222s T)	[800/2975 (27%)]	Loss: 1.170722	Score:  71.710%
(E5 1098.181s T)	[816/2975 (27%)]	Loss: 1.283010	Score:  70.267%
(E5 1099.148s T)	[832/2975 (28%)]	Loss: 1.248112	Score:  69.111%
(E5 1100.102s T)	[848/2975 (28%)]	Loss: 1.197183	Score:  70.801%
(E5 1101.063s T)	[864/2975 (29%)]	Loss: 1.120658	Score:  73.071%
(E5 1102.035s T)	[880/2975 (30%)]	Loss: 1.188374	Score:  72.037%
(E5 1102.991s T)	[896/2975 (30%)]	Loss: 1.271355	Score:  70.537%
(E5 1103.942s T)	[912/2975 (31%)]	Loss: 1.185271	Score:  70.912%
(E5 1104.912s T)	[928/2975 (31%)]	Loss: 1.083993	Score:  74.012%
(E5 1105.881s T)	[944/2975 (32%)]	Loss: 1.170714	Score:  71.507%
(E5 1106.848s T)	[960/2975 (32%)]	Loss: 1.261503	Score:  69.373%
(E5 1107.820s T)	[976/2975 (33%)]	Loss: 0.941064	Score:  78.199%
(E5 1108.795s T)	[992/2975 (33%)]	Loss: 1.104711	Score:  72.827%
(E5 1109.774s T)	[1008/2975 (34%)]	Loss: 1.217736	Score:  70.832%
(E5 1110.742s T)	[1024/2975 (34%)]	Loss: 1.408575	Score:  65.960%
(E5 1111.725s T)	[1040/2975 (35%)]	Loss: 1.213598	Score:  68.911%
(E5 1112.686s T)	[1056/2975 (35%)]	Loss: 1.296358	Score:  69.301%
(E5 1113.663s T)	[1072/2975 (36%)]	Loss: 1.289485	Score:  70.052%
(E5 1114.634s T)	[1088/2975 (37%)]	Loss: 1.101952	Score:  74.438%
(E5 1115.583s T)	[1104/2975 (37%)]	Loss: 1.148768	Score:  73.519%
(E5 1116.542s T)	[1120/2975 (38%)]	Loss: 1.204943	Score:  70.356%
(E5 1117.511s T)	[1136/2975 (38%)]	Loss: 1.220651	Score:  70.537%
(E5 1118.490s T)	[1152/2975 (39%)]	Loss: 1.198738	Score:  72.288%
(E5 1119.452s T)	[1168/2975 (39%)]	Loss: 1.101985	Score:  73.366%
(E5 1120.420s T)	[1184/2975 (40%)]	Loss: 1.096524	Score:  73.536%
(E5 1121.379s T)	[1200/2975 (40%)]	Loss: 1.113268	Score:  73.378%
(E5 1122.337s T)	[1216/2975 (41%)]	Loss: 1.217179	Score:  71.377%
(E5 1123.302s T)	[1232/2975 (41%)]	Loss: 1.283460	Score:  67.216%
(E5 1124.272s T)	[1248/2975 (42%)]	Loss: 1.116631	Score:  73.316%
(E5 1125.245s T)	[1264/2975 (42%)]	Loss: 0.992031	Score:  76.875%
(E5 1126.212s T)	[1280/2975 (43%)]	Loss: 1.094706	Score:  74.128%
(E5 1127.185s T)	[1296/2975 (44%)]	Loss: 1.318867	Score:  69.100%
(E5 1128.147s T)	[1312/2975 (44%)]	Loss: 1.216128	Score:  70.549%
(E5 1129.112s T)	[1328/2975 (45%)]	Loss: 1.199505	Score:  71.018%
(E5 1130.072s T)	[1344/2975 (45%)]	Loss: 1.220078	Score:  71.082%
(E5 1131.051s T)	[1360/2975 (46%)]	Loss: 1.310866	Score:  70.202%
(E5 1132.015s T)	[1376/2975 (46%)]	Loss: 1.221801	Score:  70.736%
(E5 1132.983s T)	[1392/2975 (47%)]	Loss: 1.215954	Score:  70.775%
(E5 1133.951s T)	[1408/2975 (47%)]	Loss: 1.272166	Score:  70.467%
(E5 1134.912s T)	[1424/2975 (48%)]	Loss: 1.221322	Score:  71.250%
(E5 1135.883s T)	[1440/2975 (48%)]	Loss: 1.434017	Score:  65.680%
(E5 1136.852s T)	[1456/2975 (49%)]	Loss: 1.374332	Score:  65.836%
(E5 1137.815s T)	[1472/2975 (49%)]	Loss: 1.191664	Score:  71.792%
(E5 1138.782s T)	[1488/2975 (50%)]	Loss: 1.331594	Score:  68.306%
(E5 1139.745s T)	[1504/2975 (51%)]	Loss: 1.149981	Score:  73.231%
(E5 1140.703s T)	[1520/2975 (51%)]	Loss: 1.225941	Score:  71.335%
(E5 1141.672s T)	[1536/2975 (52%)]	Loss: 1.242947	Score:  69.798%
(E5 1142.636s T)	[1552/2975 (52%)]	Loss: 1.232805	Score:  70.674%
(E5 1143.593s T)	[1568/2975 (53%)]	Loss: 1.154802	Score:  72.322%
(E5 1144.575s T)	[1584/2975 (53%)]	Loss: 1.138092	Score:  72.546%
(E5 1145.554s T)	[1600/2975 (54%)]	Loss: 1.193862	Score:  71.428%
(E5 1146.520s T)	[1616/2975 (54%)]	Loss: 1.126785	Score:  73.014%
(E5 1147.493s T)	[1632/2975 (55%)]	Loss: 1.342999	Score:  68.087%
(E5 1148.463s T)	[1648/2975 (55%)]	Loss: 1.209707	Score:  71.587%
(E5 1149.437s T)	[1664/2975 (56%)]	Loss: 1.246970	Score:  69.706%
(E5 1150.414s T)	[1680/2975 (56%)]	Loss: 1.122803	Score:  73.521%
(E5 1151.371s T)	[1696/2975 (57%)]	Loss: 1.143142	Score:  72.433%
(E5 1152.335s T)	[1712/2975 (58%)]	Loss: 1.242895	Score:  69.596%
(E5 1153.311s T)	[1728/2975 (58%)]	Loss: 1.157507	Score:  72.391%
(E5 1154.275s T)	[1744/2975 (59%)]	Loss: 1.262786	Score:  71.284%
(E5 1155.255s T)	[1760/2975 (59%)]	Loss: 1.076027	Score:  74.682%
(E5 1156.221s T)	[1776/2975 (60%)]	Loss: 1.087586	Score:  74.104%
(E5 1157.204s T)	[1792/2975 (60%)]	Loss: 1.141563	Score:  72.932%
(E5 1158.166s T)	[1808/2975 (61%)]	Loss: 1.045992	Score:  74.736%
(E5 1159.138s T)	[1824/2975 (61%)]	Loss: 1.290459	Score:  69.151%
(E5 1160.114s T)	[1840/2975 (62%)]	Loss: 1.061576	Score:  75.066%
(E5 1161.079s T)	[1856/2975 (62%)]	Loss: 1.046233	Score:  74.884%
(E5 1162.047s T)	[1872/2975 (63%)]	Loss: 1.066341	Score:  74.180%
(E5 1163.010s T)	[1888/2975 (63%)]	Loss: 1.050188	Score:  75.084%
(E5 1163.981s T)	[1904/2975 (64%)]	Loss: 1.154881	Score:  71.893%
(E5 1164.975s T)	[1920/2975 (65%)]	Loss: 1.351282	Score:  68.065%
(E5 1165.934s T)	[1936/2975 (65%)]	Loss: 1.234496	Score:  71.115%
(E5 1166.858s T)	[1952/2975 (66%)]	Loss: 1.209811	Score:  72.427%
(E5 1167.556s T)	[1968/2975 (66%)]	Loss: 1.074512	Score:  73.853%
(E5 1168.261s T)	[1984/2975 (67%)]	Loss: 1.259530	Score:  70.689%
(E5 1168.960s T)	[2000/2975 (67%)]	Loss: 1.141798	Score:  72.761%
(E5 1169.678s T)	[2016/2975 (68%)]	Loss: 1.106692	Score:  73.216%
(E5 1170.376s T)	[2032/2975 (68%)]	Loss: 1.090392	Score:  74.877%
(E5 1171.076s T)	[2048/2975 (69%)]	Loss: 1.051587	Score:  74.962%
(E5 1171.776s T)	[2064/2975 (69%)]	Loss: 1.220618	Score:  70.716%
(E5 1172.476s T)	[2080/2975 (70%)]	Loss: 1.179332	Score:  72.052%
(E5 1173.172s T)	[2096/2975 (70%)]	Loss: 1.122772	Score:  73.078%
(E5 1173.869s T)	[2112/2975 (71%)]	Loss: 1.165792	Score:  71.434%
(E5 1174.564s T)	[2128/2975 (72%)]	Loss: 1.320850	Score:  68.518%
(E5 1175.256s T)	[2144/2975 (72%)]	Loss: 1.090806	Score:  74.377%
(E5 1175.963s T)	[2160/2975 (73%)]	Loss: 1.320371	Score:  67.259%
(E5 1176.662s T)	[2176/2975 (73%)]	Loss: 1.089977	Score:  75.607%
(E5 1177.357s T)	[2192/2975 (74%)]	Loss: 1.300310	Score:  69.052%
(E5 1178.053s T)	[2208/2975 (74%)]	Loss: 1.176745	Score:  71.194%
(E5 1178.749s T)	[2224/2975 (75%)]	Loss: 1.064107	Score:  75.148%
(E5 1179.450s T)	[2240/2975 (75%)]	Loss: 1.045937	Score:  75.842%
(E5 1180.141s T)	[2256/2975 (76%)]	Loss: 1.164392	Score:  72.380%
(E5 1180.840s T)	[2272/2975 (76%)]	Loss: 1.240096	Score:  70.757%
(E5 1181.537s T)	[2288/2975 (77%)]	Loss: 1.102533	Score:  73.802%
(E5 1182.235s T)	[2304/2975 (77%)]	Loss: 1.399982	Score:  67.907%
(E5 1182.931s T)	[2320/2975 (78%)]	Loss: 1.060590	Score:  74.809%
(E5 1183.633s T)	[2336/2975 (78%)]	Loss: 1.228535	Score:  70.467%
(E5 1184.329s T)	[2352/2975 (79%)]	Loss: 1.221341	Score:  70.056%
(E5 1185.029s T)	[2368/2975 (80%)]	Loss: 1.178673	Score:  72.440%
(E5 1185.721s T)	[2384/2975 (80%)]	Loss: 1.109764	Score:  74.298%
(E5 1186.415s T)	[2400/2975 (81%)]	Loss: 1.241476	Score:  70.291%
(E5 1187.116s T)	[2416/2975 (81%)]	Loss: 1.266004	Score:  70.276%
(E5 1187.815s T)	[2432/2975 (82%)]	Loss: 1.162361	Score:  71.800%
(E5 1188.514s T)	[2448/2975 (82%)]	Loss: 1.209267	Score:  71.780%
(E5 1189.222s T)	[2464/2975 (83%)]	Loss: 1.218923	Score:  70.284%
(E5 1189.923s T)	[2480/2975 (83%)]	Loss: 1.488570	Score:  65.061%
(E5 1190.624s T)	[2496/2975 (84%)]	Loss: 1.313680	Score:  68.579%
(E5 1191.329s T)	[2512/2975 (84%)]	Loss: 1.098602	Score:  73.728%
(E5 1192.033s T)	[2528/2975 (85%)]	Loss: 1.164179	Score:  71.772%
(E5 1192.741s T)	[2544/2975 (85%)]	Loss: 1.230495	Score:  70.218%
(E5 1193.440s T)	[2560/2975 (86%)]	Loss: 1.099951	Score:  73.139%
(E5 1194.142s T)	[2576/2975 (87%)]	Loss: 1.011522	Score:  76.768%
(E5 1194.844s T)	[2592/2975 (87%)]	Loss: 0.983404	Score:  76.780%
(E5 1195.548s T)	[2608/2975 (88%)]	Loss: 1.173435	Score:  72.288%
(E5 1196.253s T)	[2624/2975 (88%)]	Loss: 1.173914	Score:  72.195%
(E5 1196.956s T)	[2640/2975 (89%)]	Loss: 1.154816	Score:  72.942%
(E5 1197.658s T)	[2656/2975 (89%)]	Loss: 1.369015	Score:  66.537%
(E5 1198.358s T)	[2672/2975 (90%)]	Loss: 1.158523	Score:  72.115%
(E5 1199.056s T)	[2688/2975 (90%)]	Loss: 1.081811	Score:  75.241%
(E5 1199.764s T)	[2704/2975 (91%)]	Loss: 1.316386	Score:  67.984%
(E5 1200.467s T)	[2720/2975 (91%)]	Loss: 1.192387	Score:  70.765%
(E5 1201.173s T)	[2736/2975 (92%)]	Loss: 1.237767	Score:  69.731%
(E5 1201.872s T)	[2752/2975 (92%)]	Loss: 1.107940	Score:  73.244%
(E5 1202.571s T)	[2768/2975 (93%)]	Loss: 1.051975	Score:  76.008%
(E5 1203.274s T)	[2784/2975 (94%)]	Loss: 0.973787	Score:  77.270%
(E5 1203.970s T)	[2800/2975 (94%)]	Loss: 0.980636	Score:  77.476%
(E5 1204.668s T)	[2816/2975 (95%)]	Loss: 1.159536	Score:  71.965%
(E5 1205.373s T)	[2832/2975 (95%)]	Loss: 1.278542	Score:  69.409%
(E5 1206.075s T)	[2848/2975 (96%)]	Loss: 1.111516	Score:  73.344%
(E5 1206.782s T)	[2864/2975 (96%)]	Loss: 1.264186	Score:  70.083%
(E5 1207.488s T)	[2880/2975 (97%)]	Loss: 1.080588	Score:  73.570%
(E5 1208.191s T)	[2896/2975 (97%)]	Loss: 1.211349	Score:  71.045%
(E5 1208.894s T)	[2912/2975 (98%)]	Loss: 1.213527	Score:  72.627%
(E5 1209.590s T)	[2928/2975 (98%)]	Loss: 1.292594	Score:  69.570%
(E5 1210.292s T)	[2944/2975 (99%)]	Loss: 1.283683	Score:  67.900%
(E5 1210.980s T)	[2775/2975 (99%)]	Loss: 1.120272	Score:  72.840%
(E5 1226.778s V)	[0/1000 (0%)]	Loss: 1.135413	Score:  72.121%
(E5 1227.324s V)	[16/1000 (2%)]	Loss: 1.014807	Score:  76.003%
(E5 1227.865s V)	[32/1000 (3%)]	Loss: 1.175431	Score:  70.909%
(E5 1228.407s V)	[48/1000 (5%)]	Loss: 1.091727	Score:  74.037%
(E5 1228.937s V)	[64/1000 (6%)]	Loss: 1.225144	Score:  70.215%
(E5 1229.470s V)	[80/1000 (8%)]	Loss: 1.241959	Score:  69.551%
(E5 1230.006s V)	[96/1000 (9%)]	Loss: 1.054284	Score:  74.669%
(E5 1230.537s V)	[112/1000 (11%)]	Loss: 1.205983	Score:  71.232%
(E5 1231.076s V)	[128/1000 (12%)]	Loss: 1.218091	Score:  70.660%
(E5 1231.613s V)	[144/1000 (14%)]	Loss: 1.200516	Score:  71.266%
(E5 1232.153s V)	[160/1000 (16%)]	Loss: 1.174681	Score:  72.555%
(E5 1232.691s V)	[176/1000 (17%)]	Loss: 1.092428	Score:  73.849%
(E5 1233.228s V)	[192/1000 (19%)]	Loss: 1.068138	Score:  74.832%
(E5 1233.765s V)	[208/1000 (20%)]	Loss: 1.208285	Score:  71.679%
(E5 1234.304s V)	[224/1000 (22%)]	Loss: 1.306184	Score:  67.840%
(E5 1234.840s V)	[240/1000 (23%)]	Loss: 1.086307	Score:  74.452%
(E5 1235.379s V)	[256/1000 (25%)]	Loss: 1.165939	Score:  72.408%
(E5 1235.916s V)	[272/1000 (27%)]	Loss: 1.046717	Score:  74.899%
(E5 1236.452s V)	[288/1000 (28%)]	Loss: 1.182207	Score:  70.770%
(E5 1236.991s V)	[304/1000 (30%)]	Loss: 1.123286	Score:  72.830%
(E5 1237.526s V)	[320/1000 (31%)]	Loss: 1.172614	Score:  71.140%
(E5 1238.063s V)	[336/1000 (33%)]	Loss: 1.237900	Score:  70.456%
(E5 1238.600s V)	[352/1000 (34%)]	Loss: 1.129305	Score:  72.344%
(E5 1239.138s V)	[368/1000 (36%)]	Loss: 1.168394	Score:  71.006%
(E5 1239.676s V)	[384/1000 (38%)]	Loss: 1.086488	Score:  74.210%
(E5 1240.208s V)	[400/1000 (39%)]	Loss: 1.165082	Score:  71.301%
(E5 1240.748s V)	[416/1000 (41%)]	Loss: 1.276259	Score:  68.555%
(E5 1241.290s V)	[432/1000 (42%)]	Loss: 1.224953	Score:  70.560%
(E5 1241.826s V)	[448/1000 (44%)]	Loss: 1.143335	Score:  71.700%
(E5 1242.363s V)	[464/1000 (45%)]	Loss: 1.071192	Score:  74.167%
(E5 1242.899s V)	[480/1000 (47%)]	Loss: 1.168797	Score:  71.227%
(E5 1243.074s V)	[124/1000 (48%)]	Loss: 1.073820	Score:  74.276%
(E5 1258.550s V)	[512/1000 (50%)]	Loss: 1.146061	Score:  71.200%
(E5 1259.096s V)	[528/1000 (52%)]	Loss: 1.225613	Score:  69.951%
(E5 1259.628s V)	[544/1000 (53%)]	Loss: 1.170249	Score:  71.088%
(E5 1260.165s V)	[560/1000 (55%)]	Loss: 1.126436	Score:  72.529%
(E5 1260.699s V)	[576/1000 (56%)]	Loss: 1.222354	Score:  70.096%
(E5 1261.236s V)	[592/1000 (58%)]	Loss: 1.154052	Score:  71.682%
(E5 1261.772s V)	[608/1000 (59%)]	Loss: 1.081277	Score:  73.365%
(E5 1262.308s V)	[624/1000 (61%)]	Loss: 1.048703	Score:  75.311%
(E5 1262.850s V)	[640/1000 (62%)]	Loss: 1.096673	Score:  74.244%
(E5 1263.389s V)	[656/1000 (64%)]	Loss: 1.003066	Score:  75.994%
(E5 1263.925s V)	[672/1000 (66%)]	Loss: 1.118457	Score:  73.701%
(E5 1264.461s V)	[688/1000 (67%)]	Loss: 1.150849	Score:  71.986%
(E5 1264.999s V)	[704/1000 (69%)]	Loss: 1.357897	Score:  68.131%
(E5 1265.536s V)	[720/1000 (70%)]	Loss: 1.111445	Score:  73.794%
(E5 1266.075s V)	[736/1000 (72%)]	Loss: 1.164196	Score:  71.291%
(E5 1266.616s V)	[752/1000 (73%)]	Loss: 1.042609	Score:  75.190%
(E5 1267.153s V)	[768/1000 (75%)]	Loss: 1.271837	Score:  68.800%
(E5 1267.695s V)	[784/1000 (77%)]	Loss: 1.211094	Score:  71.951%
(E5 1268.234s V)	[800/1000 (78%)]	Loss: 1.212344	Score:  71.453%
(E5 1268.771s V)	[816/1000 (80%)]	Loss: 1.170862	Score:  71.861%
(E5 1269.313s V)	[832/1000 (81%)]	Loss: 1.367916	Score:  67.027%
(E5 1269.858s V)	[848/1000 (83%)]	Loss: 1.255097	Score:  69.998%
(E5 1270.395s V)	[864/1000 (84%)]	Loss: 1.220529	Score:  70.255%
(E5 1270.930s V)	[880/1000 (86%)]	Loss: 1.183514	Score:  71.135%
(E5 1271.467s V)	[896/1000 (88%)]	Loss: 0.967851	Score:  77.307%
(E5 1272.007s V)	[912/1000 (89%)]	Loss: 1.412827	Score:  65.893%
(E5 1272.544s V)	[928/1000 (91%)]	Loss: 0.994211	Score:  76.155%
(E5 1273.082s V)	[944/1000 (92%)]	Loss: 1.094433	Score:  74.297%
(E5 1273.620s V)	[960/1000 (94%)]	Loss: 1.285883	Score:  69.098%
(E5 1274.162s V)	[976/1000 (95%)]	Loss: 0.953057	Score:  76.904%
(E5 1274.700s V)	[992/1000 (97%)]	Loss: 1.049350	Score:  74.352%
(E5 1274.873s V)	[252/1000 (98%)]	Loss: 1.046831	Score:  75.484%
graph(%0 : Float(4, 3, 256, 256),
      %1 : Float(40, 3, 3, 3),
      %2 : Float(40),
      %3 : Float(40, 40, 3, 3),
      %4 : Float(40),
      %5 : Float(80, 40, 3, 3),
      %6 : Float(80),
      %7 : Float(80, 80, 3, 3),
      %8 : Float(80),
      %9 : Float(160, 80, 3, 3),
      %10 : Float(160),
      %11 : Float(160, 160, 3, 3),
      %12 : Float(160),
      %13 : Float(320, 160, 3, 3),
      %14 : Float(320),
      %15 : Float(320, 320, 3, 3),
      %16 : Float(320),
      %17 : Float(320, 160, 4, 4),
      %18 : Float(160),
      %19 : Float(160, 80, 4, 4),
      %20 : Float(80),
      %21 : Float(80, 40, 4, 4),
      %22 : Float(40),
      %23 : Float(160, 320, 3, 3),
      %24 : Float(160),
      %25 : Float(160, 160, 3, 3),
      %26 : Float(160),
      %27 : Float(80, 160, 3, 3),
      %28 : Float(80),
      %29 : Float(80, 80, 3, 3),
      %30 : Float(80),
      %31 : Float(40, 80, 3, 3),
      %32 : Float(40),
      %33 : Float(30, 40, 3, 3),
      %34 : Float(30)):
  %35 : Float(4, 40, 256, 256) = onnx::Conv[dilations=[1, 1], group=1, kernel_shape=[3, 3], pads=[1, 1, 1, 1], strides=[1, 1]](%0, %1, %2), scope: FCN/Sequential/Conv2d[0]
  %36 : Float(4, 40, 256, 256) = onnx::Relu(%35), scope: FCN/Sequential/ReLU[1]
  %37 : Float(4, 40, 256, 256) = onnx::Conv[dilations=[1, 1], group=1, kernel_shape=[3, 3], pads=[1, 1, 1, 1], strides=[1, 1]](%36, %3, %4), scope: FCN/Sequential/Conv2d[2]
  %38 : Float(4, 40, 256, 256) = onnx::Relu(%37), scope: FCN/Sequential/ReLU[3]
  %39 : Float(4, 40, 128, 128) = onnx::MaxPool[kernel_shape=[2, 2], pads=[0, 0, 0, 0], strides=[2, 2]](%38), scope: FCN/MaxPool2d
  %40 : Float(4, 80, 128, 128) = onnx::Conv[dilations=[1, 1], group=1, kernel_shape=[3, 3], pads=[1, 1, 1, 1], strides=[1, 1]](%39, %5, %6), scope: FCN/Sequential/Conv2d[0]
  %41 : Float(4, 80, 128, 128) = onnx::Relu(%40), scope: FCN/Sequential/ReLU[1]
  %42 : Float(4, 80, 128, 128) = onnx::Conv[dilations=[1, 1], group=1, kernel_shape=[3, 3], pads=[1, 1, 1, 1], strides=[1, 1]](%41, %7, %8), scope: FCN/Sequential/Conv2d[2]
  %43 : Float(4, 80, 128, 128) = onnx::Relu(%42), scope: FCN/Sequential/ReLU[3]
  %44 : Float(4, 80, 64, 64) = onnx::MaxPool[kernel_shape=[2, 2], pads=[0, 0, 0, 0], strides=[2, 2]](%43), scope: FCN/MaxPool2d
  %45 : Float(4, 160, 64, 64) = onnx::Conv[dilations=[1, 1], group=1, kernel_shape=[3, 3], pads=[1, 1, 1, 1], strides=[1, 1]](%44, %9, %10), scope: FCN/Sequential/Conv2d[0]
  %46 : Float(4, 160, 64, 64) = onnx::Relu(%45), scope: FCN/Sequential/ReLU[1]
  %47 : Float(4, 160, 64, 64) = onnx::Conv[dilations=[1, 1], group=1, kernel_shape=[3, 3], pads=[1, 1, 1, 1], strides=[1, 1]](%46, %11, %12), scope: FCN/Sequential/Conv2d[2]
  %48 : Float(4, 160, 64, 64) = onnx::Relu(%47), scope: FCN/Sequential/ReLU[3]
  %49 : Float(4, 160, 32, 32) = onnx::MaxPool[kernel_shape=[2, 2], pads=[0, 0, 0, 0], strides=[2, 2]](%48), scope: FCN/MaxPool2d
  %50 : Float(4, 320, 32, 32) = onnx::Conv[dilations=[1, 1], group=1, kernel_shape=[3, 3], pads=[1, 1, 1, 1], strides=[1, 1]](%49, %13, %14), scope: FCN/Sequential[intermediate]/Conv2d[0]
  %51 : Float(4, 320, 32, 32) = onnx::Relu(%50), scope: FCN/Sequential[intermediate]/ReLU[1]
  %52 : Float(4, 320, 32, 32) = onnx::Conv[dilations=[1, 1], group=1, kernel_shape=[3, 3], pads=[1, 1, 1, 1], strides=[1, 1]](%51, %15, %16), scope: FCN/Sequential[intermediate]/Conv2d[2]
  %53 : Float(4, 320, 32, 32) = onnx::Relu(%52), scope: FCN/Sequential[intermediate]/ReLU[3]
  %54 : Float(4, 160, 64, 64) = onnx::ConvTranspose[dilations=[1, 1], group=1, kernel_shape=[4, 4], pads=[1, 1, 1, 1], strides=[2, 2]](%53, %17, %18), scope: FCN/ConvTranspose2d
  %55 : Float(4, 320, 64, 64) = onnx::Concat[axis=1](%54, %48), scope: FCN
  %56 : Float(4, 160, 64, 64) = onnx::Conv[dilations=[1, 1], group=1, kernel_shape=[3, 3], pads=[1, 1, 1, 1], strides=[1, 1]](%55, %23, %24), scope: FCN/Sequential/Conv2d[0]
  %57 : Float(4, 160, 64, 64) = onnx::Relu(%56), scope: FCN/Sequential/ReLU[1]
  %58 : Float(4, 160, 64, 64) = onnx::Conv[dilations=[1, 1], group=1, kernel_shape=[3, 3], pads=[1, 1, 1, 1], strides=[1, 1]](%57, %25, %26), scope: FCN/Sequential/Conv2d[2]
  %59 : Float(4, 160, 64, 64) = onnx::Relu(%58), scope: FCN/Sequential/ReLU[3]
  %60 : Float(4, 80, 128, 128) = onnx::ConvTranspose[dilations=[1, 1], group=1, kernel_shape=[4, 4], pads=[1, 1, 1, 1], strides=[2, 2]](%59, %19, %20), scope: FCN/ConvTranspose2d
  %61 : Float(4, 160, 128, 128) = onnx::Concat[axis=1](%60, %43), scope: FCN
  %62 : Float(4, 80, 128, 128) = onnx::Conv[dilations=[1, 1], group=1, kernel_shape=[3, 3], pads=[1, 1, 1, 1], strides=[1, 1]](%61, %27, %28), scope: FCN/Sequential/Conv2d[0]
  %63 : Float(4, 80, 128, 128) = onnx::Relu(%62), scope: FCN/Sequential/ReLU[1]
  %64 : Float(4, 80, 128, 128) = onnx::Conv[dilations=[1, 1], group=1, kernel_shape=[3, 3], pads=[1, 1, 1, 1], strides=[1, 1]](%63, %29, %30), scope: FCN/Sequential/Conv2d[2]
  %65 : Float(4, 80, 128, 128) = onnx::Relu(%64), scope: FCN/Sequential/ReLU[3]
  %66 : Float(4, 40, 256, 256) = onnx::ConvTranspose[dilations=[1, 1], group=1, kernel_shape=[4, 4], pads=[1, 1, 1, 1], strides=[2, 2]](%65, %21, %22), scope: FCN/ConvTranspose2d
  %67 : Float(4, 80, 256, 256) = onnx::Concat[axis=1](%66, %38), scope: FCN
  %68 : Float(4, 40, 256, 256) = onnx::Conv[dilations=[1, 1], group=1, kernel_shape=[3, 3], pads=[1, 1, 1, 1], strides=[1, 1]](%67, %31, %32), scope: FCN/Sequential/Conv2d[0]
  %69 : Float(4, 40, 256, 256) = onnx::Relu(%68), scope: FCN/Sequential/ReLU[1]
  %70 : Float(4, 30, 256, 256) = onnx::Conv[dilations=[1, 1], group=1, kernel_shape=[3, 3], pads=[1, 1, 1, 1], strides=[1, 1]](%69, %33, %34), scope: FCN/Sequential/Conv2d[2]
  %71 : Float(4, 30, 256, 256) = onnx::Relu(%70), scope: FCN/Sequential/ReLU[3]
  return (%71)


Test set: Average loss: 1.1540, Score: (72.18%)

Saving the model serialization to /home/mb385130/task2/model-epoch-4
(E6 1290.590s T)	[0/2975 (0%)]	Loss: 1.080085	Score:  74.778%
(E6 1303.362s T)	[16/2975 (1%)]	Loss: 1.151603	Score:  71.680%
(E6 1304.563s T)	[32/2975 (1%)]	Loss: 1.116970	Score:  72.937%
(E6 1305.535s T)	[48/2975 (2%)]	Loss: 1.174038	Score:  72.929%
(E6 1306.493s T)	[64/2975 (2%)]	Loss: 1.169103	Score:  71.931%
(E6 1307.454s T)	[80/2975 (3%)]	Loss: 1.024991	Score:  75.609%
(E6 1308.415s T)	[96/2975 (3%)]	Loss: 1.113373	Score:  72.730%
(E6 1309.370s T)	[112/2975 (4%)]	Loss: 1.097149	Score:  72.444%
(E6 1310.335s T)	[128/2975 (4%)]	Loss: 1.018974	Score:  75.430%
(E6 1311.283s T)	[144/2975 (5%)]	Loss: 1.112655	Score:  74.531%
(E6 1312.241s T)	[160/2975 (5%)]	Loss: 1.006036	Score:  76.285%
(E6 1313.201s T)	[176/2975 (6%)]	Loss: 1.199384	Score:  71.153%
(E6 1314.159s T)	[192/2975 (6%)]	Loss: 1.136904	Score:  73.494%
(E6 1315.120s T)	[208/2975 (7%)]	Loss: 1.280235	Score:  69.979%
(E6 1316.086s T)	[224/2975 (8%)]	Loss: 1.174950	Score:  71.288%
(E6 1317.055s T)	[240/2975 (8%)]	Loss: 1.103819	Score:  74.538%
(E6 1318.019s T)	[256/2975 (9%)]	Loss: 1.106670	Score:  74.560%
(E6 1318.972s T)	[272/2975 (9%)]	Loss: 1.183335	Score:  72.825%
(E6 1319.930s T)	[288/2975 (10%)]	Loss: 1.181197	Score:  71.382%
(E6 1320.894s T)	[304/2975 (10%)]	Loss: 1.009796	Score:  76.444%
(E6 1321.856s T)	[320/2975 (11%)]	Loss: 1.119797	Score:  73.998%
(E6 1322.817s T)	[336/2975 (11%)]	Loss: 1.067415	Score:  74.557%
(E6 1323.775s T)	[352/2975 (12%)]	Loss: 1.134778	Score:  74.002%
(E6 1324.732s T)	[368/2975 (12%)]	Loss: 1.183977	Score:  72.043%
(E6 1325.702s T)	[384/2975 (13%)]	Loss: 1.189473	Score:  71.321%
(E6 1326.683s T)	[400/2975 (13%)]	Loss: 1.445334	Score:  64.490%
(E6 1327.643s T)	[416/2975 (14%)]	Loss: 1.196111	Score:  71.591%
(E6 1328.609s T)	[432/2975 (15%)]	Loss: 1.283490	Score:  70.061%
(E6 1329.575s T)	[448/2975 (15%)]	Loss: 1.159693	Score:  72.056%
(E6 1330.534s T)	[464/2975 (16%)]	Loss: 1.132108	Score:  73.298%
(E6 1331.495s T)	[480/2975 (16%)]	Loss: 1.275559	Score:  70.071%
(E6 1332.455s T)	[496/2975 (17%)]	Loss: 1.216181	Score:  69.683%
(E6 1333.452s T)	[512/2975 (17%)]	Loss: 1.119481	Score:  72.891%
(E6 1334.423s T)	[528/2975 (18%)]	Loss: 1.166217	Score:  72.499%
(E6 1335.390s T)	[544/2975 (18%)]	Loss: 1.076676	Score:  73.766%
(E6 1336.342s T)	[560/2975 (19%)]	Loss: 1.205823	Score:  70.964%
(E6 1337.301s T)	[576/2975 (19%)]	Loss: 1.146552	Score:  72.880%
(E6 1338.274s T)	[592/2975 (20%)]	Loss: 1.012585	Score:  76.003%
(E6 1339.232s T)	[608/2975 (20%)]	Loss: 1.260602	Score:  69.904%
(E6 1340.196s T)	[624/2975 (21%)]	Loss: 1.057821	Score:  74.705%
(E6 1341.174s T)	[640/2975 (22%)]	Loss: 1.210873	Score:  72.786%
(E6 1342.131s T)	[656/2975 (22%)]	Loss: 1.091181	Score:  74.662%
(E6 1343.095s T)	[672/2975 (23%)]	Loss: 1.193950	Score:  70.834%
(E6 1344.069s T)	[688/2975 (23%)]	Loss: 1.120373	Score:  72.799%
(E6 1345.035s T)	[704/2975 (24%)]	Loss: 0.994267	Score:  76.779%
(E6 1345.999s T)	[720/2975 (24%)]	Loss: 1.120554	Score:  73.647%
(E6 1346.962s T)	[736/2975 (25%)]	Loss: 1.214057	Score:  71.790%
(E6 1347.922s T)	[752/2975 (25%)]	Loss: 1.104080	Score:  73.884%
(E6 1348.882s T)	[768/2975 (26%)]	Loss: 1.203630	Score:  70.997%
(E6 1349.853s T)	[784/2975 (26%)]	Loss: 1.205314	Score:  71.294%
(E6 1350.820s T)	[800/2975 (27%)]	Loss: 1.238971	Score:  70.165%
(E6 1351.796s T)	[816/2975 (27%)]	Loss: 1.341212	Score:  68.748%
(E6 1352.770s T)	[832/2975 (28%)]	Loss: 1.045597	Score:  75.671%
(E6 1353.730s T)	[848/2975 (28%)]	Loss: 1.155576	Score:  73.246%
(E6 1354.710s T)	[864/2975 (29%)]	Loss: 1.062272	Score:  75.331%
(E6 1355.683s T)	[880/2975 (30%)]	Loss: 1.132583	Score:  72.835%
(E6 1356.659s T)	[896/2975 (30%)]	Loss: 1.070567	Score:  75.301%
(E6 1357.620s T)	[912/2975 (31%)]	Loss: 1.043382	Score:  75.850%
(E6 1358.592s T)	[928/2975 (31%)]	Loss: 1.079560	Score:  74.328%
(E6 1359.551s T)	[944/2975 (32%)]	Loss: 0.999800	Score:  76.282%
(E6 1360.502s T)	[960/2975 (32%)]	Loss: 1.035234	Score:  76.386%
(E6 1361.475s T)	[976/2975 (33%)]	Loss: 1.028777	Score:  76.570%
(E6 1362.438s T)	[992/2975 (33%)]	Loss: 1.252165	Score:  70.413%
(E6 1363.421s T)	[1008/2975 (34%)]	Loss: 1.224409	Score:  71.070%
(E6 1364.392s T)	[1024/2975 (34%)]	Loss: 0.985512	Score:  76.303%
(E6 1365.361s T)	[1040/2975 (35%)]	Loss: 1.226287	Score:  70.226%
(E6 1366.330s T)	[1056/2975 (35%)]	Loss: 1.093208	Score:  73.892%
(E6 1367.298s T)	[1072/2975 (36%)]	Loss: 1.015576	Score:  76.188%
(E6 1368.268s T)	[1088/2975 (37%)]	Loss: 1.051970	Score:  75.345%
(E6 1369.223s T)	[1104/2975 (37%)]	Loss: 1.119377	Score:  73.120%
(E6 1370.193s T)	[1120/2975 (38%)]	Loss: 0.959137	Score:  77.081%
(E6 1371.171s T)	[1136/2975 (38%)]	Loss: 1.094329	Score:  74.519%
(E6 1372.143s T)	[1152/2975 (39%)]	Loss: 1.090757	Score:  73.803%
(E6 1373.095s T)	[1168/2975 (39%)]	Loss: 1.067467	Score:  73.417%
(E6 1374.069s T)	[1184/2975 (40%)]	Loss: 1.151392	Score:  72.491%
(E6 1375.023s T)	[1200/2975 (40%)]	Loss: 1.051535	Score:  75.091%
(E6 1375.982s T)	[1216/2975 (41%)]	Loss: 1.086712	Score:  73.888%
(E6 1376.953s T)	[1232/2975 (41%)]	Loss: 0.948770	Score:  77.249%
(E6 1377.922s T)	[1248/2975 (42%)]	Loss: 1.104751	Score:  73.670%
(E6 1378.886s T)	[1264/2975 (42%)]	Loss: 1.031533	Score:  75.765%
(E6 1379.852s T)	[1280/2975 (43%)]	Loss: 1.180566	Score:  73.437%
(E6 1380.833s T)	[1296/2975 (44%)]	Loss: 0.963071	Score:  77.138%
(E6 1381.796s T)	[1312/2975 (44%)]	Loss: 1.203060	Score:  71.259%
(E6 1382.766s T)	[1328/2975 (45%)]	Loss: 1.112962	Score:  72.754%
(E6 1383.734s T)	[1344/2975 (45%)]	Loss: 1.254131	Score:  69.973%
(E6 1384.695s T)	[1360/2975 (46%)]	Loss: 1.090570	Score:  73.786%
(E6 1385.663s T)	[1376/2975 (46%)]	Loss: 1.021183	Score:  76.789%
(E6 1386.636s T)	[1392/2975 (47%)]	Loss: 1.152215	Score:  72.569%
(E6 1387.603s T)	[1408/2975 (47%)]	Loss: 1.167303	Score:  72.187%
(E6 1388.580s T)	[1424/2975 (48%)]	Loss: 1.093900	Score:  74.460%
(E6 1389.537s T)	[1440/2975 (48%)]	Loss: 1.177482	Score:  73.353%
(E6 1390.509s T)	[1456/2975 (49%)]	Loss: 1.076370	Score:  74.698%
(E6 1391.480s T)	[1472/2975 (49%)]	Loss: 1.015251	Score:  75.745%
(E6 1392.455s T)	[1488/2975 (50%)]	Loss: 1.377308	Score:  67.809%
(E6 1393.420s T)	[1504/2975 (51%)]	Loss: 1.115192	Score:  73.268%
(E6 1394.390s T)	[1520/2975 (51%)]	Loss: 1.150769	Score:  73.135%
(E6 1395.372s T)	[1536/2975 (52%)]	Loss: 1.088459	Score:  74.359%
(E6 1396.357s T)	[1552/2975 (52%)]	Loss: 1.034615	Score:  75.720%
(E6 1397.322s T)	[1568/2975 (53%)]	Loss: 1.164631	Score:  72.223%
(E6 1398.288s T)	[1584/2975 (53%)]	Loss: 0.980624	Score:  77.197%
(E6 1399.269s T)	[1600/2975 (54%)]	Loss: 1.265496	Score:  68.995%
(E6 1400.249s T)	[1616/2975 (54%)]	Loss: 1.052993	Score:  75.083%
(E6 1401.235s T)	[1632/2975 (55%)]	Loss: 1.101768	Score:  74.486%
(E6 1402.197s T)	[1648/2975 (55%)]	Loss: 1.060226	Score:  74.159%
(E6 1403.177s T)	[1664/2975 (56%)]	Loss: 0.994697	Score:  76.823%
(E6 1404.142s T)	[1680/2975 (56%)]	Loss: 1.035492	Score:  75.690%
(E6 1405.115s T)	[1696/2975 (57%)]	Loss: 1.135435	Score:  73.367%
(E6 1406.095s T)	[1712/2975 (58%)]	Loss: 1.121503	Score:  74.902%
(E6 1407.054s T)	[1728/2975 (58%)]	Loss: 1.160625	Score:  73.638%
(E6 1408.022s T)	[1744/2975 (59%)]	Loss: 1.335619	Score:  67.123%
(E6 1408.990s T)	[1760/2975 (59%)]	Loss: 1.296110	Score:  68.724%
(E6 1409.981s T)	[1776/2975 (60%)]	Loss: 1.068941	Score:  75.279%
(E6 1410.946s T)	[1792/2975 (60%)]	Loss: 1.036670	Score:  75.300%
(E6 1411.927s T)	[1808/2975 (61%)]	Loss: 1.237224	Score:  71.261%
(E6 1412.900s T)	[1824/2975 (61%)]	Loss: 1.148603	Score:  72.009%
(E6 1413.872s T)	[1840/2975 (62%)]	Loss: 1.208519	Score:  72.154%
(E6 1414.848s T)	[1856/2975 (62%)]	Loss: 1.218202	Score:  71.378%
(E6 1415.803s T)	[1872/2975 (63%)]	Loss: 1.210375	Score:  71.210%
(E6 1416.774s T)	[1888/2975 (63%)]	Loss: 1.106440	Score:  73.965%
(E6 1417.754s T)	[1904/2975 (64%)]	Loss: 1.181858	Score:  71.632%
(E6 1418.726s T)	[1920/2975 (65%)]	Loss: 1.031351	Score:  75.534%
(E6 1419.712s T)	[1936/2975 (65%)]	Loss: 1.039412	Score:  74.788%
(E6 1420.649s T)	[1952/2975 (66%)]	Loss: 0.985043	Score:  76.118%
(E6 1421.353s T)	[1968/2975 (66%)]	Loss: 1.222784	Score:  71.651%
(E6 1422.054s T)	[1984/2975 (67%)]	Loss: 1.252030	Score:  70.795%
(E6 1422.752s T)	[2000/2975 (67%)]	Loss: 1.197058	Score:  72.459%
(E6 1423.466s T)	[2016/2975 (68%)]	Loss: 1.284681	Score:  69.184%
(E6 1424.166s T)	[2032/2975 (68%)]	Loss: 1.061561	Score:  74.986%
(E6 1424.863s T)	[2048/2975 (69%)]	Loss: 1.143656	Score:  73.201%
(E6 1425.567s T)	[2064/2975 (69%)]	Loss: 1.221171	Score:  71.230%
(E6 1426.271s T)	[2080/2975 (70%)]	Loss: 1.188230	Score:  71.612%
(E6 1426.973s T)	[2096/2975 (70%)]	Loss: 1.152858	Score:  72.628%
(E6 1427.671s T)	[2112/2975 (71%)]	Loss: 1.203828	Score:  71.007%
(E6 1428.369s T)	[2128/2975 (72%)]	Loss: 1.105116	Score:  73.072%
(E6 1429.061s T)	[2144/2975 (72%)]	Loss: 1.050501	Score:  73.801%
(E6 1429.756s T)	[2160/2975 (73%)]	Loss: 1.217231	Score:  71.543%
(E6 1430.455s T)	[2176/2975 (73%)]	Loss: 1.297716	Score:  67.863%
(E6 1431.154s T)	[2192/2975 (74%)]	Loss: 1.123090	Score:  73.757%
(E6 1431.849s T)	[2208/2975 (74%)]	Loss: 1.163904	Score:  71.785%
(E6 1432.546s T)	[2224/2975 (75%)]	Loss: 1.204286	Score:  72.011%
(E6 1433.249s T)	[2240/2975 (75%)]	Loss: 0.992406	Score:  75.945%
(E6 1433.944s T)	[2256/2975 (76%)]	Loss: 0.987348	Score:  77.651%
(E6 1434.640s T)	[2272/2975 (76%)]	Loss: 1.307659	Score:  68.435%
(E6 1435.336s T)	[2288/2975 (77%)]	Loss: 0.979921	Score:  77.175%
(E6 1436.036s T)	[2304/2975 (77%)]	Loss: 0.992954	Score:  76.787%
(E6 1436.728s T)	[2320/2975 (78%)]	Loss: 1.147077	Score:  72.281%
(E6 1437.425s T)	[2336/2975 (78%)]	Loss: 1.023144	Score:  77.022%
(E6 1438.125s T)	[2352/2975 (79%)]	Loss: 1.146267	Score:  72.917%
(E6 1438.829s T)	[2368/2975 (80%)]	Loss: 1.204499	Score:  71.677%
(E6 1439.529s T)	[2384/2975 (80%)]	Loss: 1.128739	Score:  73.722%
(E6 1440.232s T)	[2400/2975 (81%)]	Loss: 1.181196	Score:  72.368%
(E6 1440.931s T)	[2416/2975 (81%)]	Loss: 1.002574	Score:  76.763%
(E6 1441.631s T)	[2432/2975 (82%)]	Loss: 1.193585	Score:  71.483%
(E6 1442.333s T)	[2448/2975 (82%)]	Loss: 1.053963	Score:  74.922%
(E6 1443.029s T)	[2464/2975 (83%)]	Loss: 1.029310	Score:  74.889%
(E6 1443.722s T)	[2480/2975 (83%)]	Loss: 1.211806	Score:  71.645%
(E6 1444.422s T)	[2496/2975 (84%)]	Loss: 1.028553	Score:  75.642%
(E6 1445.124s T)	[2512/2975 (84%)]	Loss: 1.129352	Score:  73.179%
(E6 1445.824s T)	[2528/2975 (85%)]	Loss: 1.007882	Score:  76.148%
(E6 1446.522s T)	[2544/2975 (85%)]	Loss: 1.026209	Score:  76.550%
(E6 1447.227s T)	[2560/2975 (86%)]	Loss: 1.027736	Score:  76.576%
(E6 1447.927s T)	[2576/2975 (87%)]	Loss: 0.932640	Score:  77.571%
(E6 1448.627s T)	[2592/2975 (87%)]	Loss: 1.074868	Score:  75.345%
(E6 1449.325s T)	[2608/2975 (88%)]	Loss: 1.011783	Score:  76.015%
(E6 1450.020s T)	[2624/2975 (88%)]	Loss: 1.128814	Score:  74.108%
(E6 1450.719s T)	[2640/2975 (89%)]	Loss: 1.215495	Score:  72.320%
(E6 1451.418s T)	[2656/2975 (89%)]	Loss: 1.182835	Score:  71.445%
(E6 1452.123s T)	[2672/2975 (90%)]	Loss: 1.146641	Score:  72.523%
(E6 1452.823s T)	[2688/2975 (90%)]	Loss: 1.039921	Score:  75.793%
(E6 1453.520s T)	[2704/2975 (91%)]	Loss: 1.076443	Score:  76.122%
(E6 1454.223s T)	[2720/2975 (91%)]	Loss: 1.028028	Score:  76.264%
(E6 1454.927s T)	[2736/2975 (92%)]	Loss: 0.964470	Score:  77.224%
(E6 1455.627s T)	[2752/2975 (92%)]	Loss: 0.964729	Score:  77.537%
(E6 1456.330s T)	[2768/2975 (93%)]	Loss: 1.158734	Score:  72.592%
(E6 1457.033s T)	[2784/2975 (94%)]	Loss: 0.991923	Score:  77.514%
(E6 1457.733s T)	[2800/2975 (94%)]	Loss: 1.120977	Score:  73.946%
(E6 1458.429s T)	[2816/2975 (95%)]	Loss: 1.044248	Score:  74.208%
(E6 1459.125s T)	[2832/2975 (95%)]	Loss: 0.925164	Score:  79.277%
(E6 1459.824s T)	[2848/2975 (96%)]	Loss: 1.061702	Score:  75.628%
(E6 1460.527s T)	[2864/2975 (96%)]	Loss: 1.126608	Score:  73.763%
(E6 1461.228s T)	[2880/2975 (97%)]	Loss: 1.316393	Score:  69.616%
(E6 1461.933s T)	[2896/2975 (97%)]	Loss: 0.992472	Score:  76.112%
(E6 1462.632s T)	[2912/2975 (98%)]	Loss: 1.020741	Score:  75.716%
(E6 1463.343s T)	[2928/2975 (98%)]	Loss: 1.088206	Score:  74.279%
(E6 1464.044s T)	[2944/2975 (99%)]	Loss: 1.105212	Score:  74.317%
(E6 1464.730s T)	[2775/2975 (99%)]	Loss: 0.990726	Score:  76.464%
(E6 1480.557s V)	[0/1000 (0%)]	Loss: 1.060636	Score:  74.602%
(E6 1481.094s V)	[16/1000 (2%)]	Loss: 1.271394	Score:  71.210%
(E6 1481.642s V)	[32/1000 (3%)]	Loss: 0.965041	Score:  77.651%
(E6 1482.176s V)	[48/1000 (5%)]	Loss: 1.198801	Score:  72.408%
(E6 1482.713s V)	[64/1000 (6%)]	Loss: 1.052787	Score:  75.804%
(E6 1483.253s V)	[80/1000 (8%)]	Loss: 1.064424	Score:  75.181%
(E6 1483.794s V)	[96/1000 (9%)]	Loss: 1.054775	Score:  75.281%
(E6 1484.334s V)	[112/1000 (11%)]	Loss: 0.923610	Score:  78.979%
(E6 1484.877s V)	[128/1000 (12%)]	Loss: 1.194215	Score:  72.341%
(E6 1485.414s V)	[144/1000 (14%)]	Loss: 1.119736	Score:  74.832%
(E6 1485.947s V)	[160/1000 (16%)]	Loss: 1.037969	Score:  75.844%
(E6 1486.485s V)	[176/1000 (17%)]	Loss: 1.127031	Score:  73.357%
(E6 1487.025s V)	[192/1000 (19%)]	Loss: 1.071374	Score:  74.175%
(E6 1487.565s V)	[208/1000 (20%)]	Loss: 0.975346	Score:  76.737%
(E6 1488.103s V)	[224/1000 (22%)]	Loss: 1.176138	Score:  72.699%
(E6 1488.641s V)	[240/1000 (23%)]	Loss: 1.132062	Score:  72.433%
(E6 1489.178s V)	[256/1000 (25%)]	Loss: 1.167179	Score:  73.379%
(E6 1489.720s V)	[272/1000 (27%)]	Loss: 1.048724	Score:  74.899%
(E6 1490.262s V)	[288/1000 (28%)]	Loss: 1.016210	Score:  75.480%
(E6 1490.799s V)	[304/1000 (30%)]	Loss: 0.897735	Score:  78.870%
(E6 1491.335s V)	[320/1000 (31%)]	Loss: 0.945118	Score:  78.191%
(E6 1491.872s V)	[336/1000 (33%)]	Loss: 1.078962	Score:  74.529%
(E6 1492.413s V)	[352/1000 (34%)]	Loss: 1.231571	Score:  70.922%
(E6 1492.953s V)	[368/1000 (36%)]	Loss: 0.962409	Score:  77.342%
(E6 1493.491s V)	[384/1000 (38%)]	Loss: 1.060245	Score:  74.399%
(E6 1494.028s V)	[400/1000 (39%)]	Loss: 1.233867	Score:  70.294%
(E6 1494.559s V)	[416/1000 (41%)]	Loss: 1.160646	Score:  72.974%
(E6 1495.094s V)	[432/1000 (42%)]	Loss: 0.999262	Score:  76.387%
(E6 1495.629s V)	[448/1000 (44%)]	Loss: 0.976577	Score:  77.229%
(E6 1496.164s V)	[464/1000 (45%)]	Loss: 1.064728	Score:  75.023%
(E6 1496.709s V)	[480/1000 (47%)]	Loss: 1.066730	Score:  74.796%
(E6 1496.884s V)	[124/1000 (48%)]	Loss: 1.085655	Score:  75.430%
(E6 1512.335s V)	[512/1000 (50%)]	Loss: 1.066610	Score:  75.362%
(E6 1512.885s V)	[528/1000 (52%)]	Loss: 1.186209	Score:  71.502%
(E6 1513.423s V)	[544/1000 (53%)]	Loss: 1.051450	Score:  75.214%
(E6 1513.965s V)	[560/1000 (55%)]	Loss: 1.254661	Score:  70.344%
(E6 1514.500s V)	[576/1000 (56%)]	Loss: 1.137555	Score:  74.465%
(E6 1515.041s V)	[592/1000 (58%)]	Loss: 1.084827	Score:  74.265%
(E6 1515.571s V)	[608/1000 (59%)]	Loss: 1.021762	Score:  76.440%
(E6 1516.109s V)	[624/1000 (61%)]	Loss: 1.173125	Score:  73.294%
(E6 1516.646s V)	[640/1000 (62%)]	Loss: 1.089014	Score:  75.556%
(E6 1517.186s V)	[656/1000 (64%)]	Loss: 0.988736	Score:  76.595%
(E6 1517.721s V)	[672/1000 (66%)]	Loss: 1.058297	Score:  75.241%
(E6 1518.263s V)	[688/1000 (67%)]	Loss: 1.078092	Score:  74.494%
(E6 1518.798s V)	[704/1000 (69%)]	Loss: 1.128995	Score:  73.311%
(E6 1519.333s V)	[720/1000 (70%)]	Loss: 1.169513	Score:  72.710%
(E6 1519.865s V)	[736/1000 (72%)]	Loss: 0.930550	Score:  78.340%
(E6 1520.404s V)	[752/1000 (73%)]	Loss: 1.161886	Score:  72.270%
(E6 1520.946s V)	[768/1000 (75%)]	Loss: 1.179594	Score:  71.953%
(E6 1521.490s V)	[784/1000 (77%)]	Loss: 1.087190	Score:  75.096%
(E6 1522.031s V)	[800/1000 (78%)]	Loss: 1.100080	Score:  72.838%
(E6 1522.567s V)	[816/1000 (80%)]	Loss: 0.953977	Score:  77.594%
(E6 1523.105s V)	[832/1000 (81%)]	Loss: 0.988952	Score:  77.047%
(E6 1523.644s V)	[848/1000 (83%)]	Loss: 1.077156	Score:  74.306%
(E6 1524.182s V)	[864/1000 (84%)]	Loss: 1.108756	Score:  74.798%
(E6 1524.724s V)	[880/1000 (86%)]	Loss: 0.977109	Score:  77.492%
(E6 1525.263s V)	[896/1000 (88%)]	Loss: 1.037736	Score:  76.015%
(E6 1525.805s V)	[912/1000 (89%)]	Loss: 1.001792	Score:  76.585%
(E6 1526.343s V)	[928/1000 (91%)]	Loss: 0.958970	Score:  77.777%
(E6 1526.883s V)	[944/1000 (92%)]	Loss: 1.109102	Score:  73.124%
(E6 1527.419s V)	[960/1000 (94%)]	Loss: 1.175530	Score:  72.590%
(E6 1527.948s V)	[976/1000 (95%)]	Loss: 1.013678	Score:  76.425%
(E6 1528.481s V)	[992/1000 (97%)]	Loss: 0.994326	Score:  77.452%
(E6 1528.651s V)	[252/1000 (98%)]	Loss: 1.193317	Score:  72.338%
graph(%0 : Float(4, 3, 256, 256),
      %1 : Float(40, 3, 3, 3),
      %2 : Float(40),
      %3 : Float(40, 40, 3, 3),
      %4 : Float(40),
      %5 : Float(80, 40, 3, 3),
      %6 : Float(80),
      %7 : Float(80, 80, 3, 3),
      %8 : Float(80),
      %9 : Float(160, 80, 3, 3),
      %10 : Float(160),
      %11 : Float(160, 160, 3, 3),
      %12 : Float(160),
      %13 : Float(320, 160, 3, 3),
      %14 : Float(320),
      %15 : Float(320, 320, 3, 3),
      %16 : Float(320),
      %17 : Float(320, 160, 4, 4),
      %18 : Float(160),
      %19 : Float(160, 80, 4, 4),
      %20 : Float(80),
      %21 : Float(80, 40, 4, 4),
      %22 : Float(40),
      %23 : Float(160, 320, 3, 3),
      %24 : Float(160),
      %25 : Float(160, 160, 3, 3),
      %26 : Float(160),
      %27 : Float(80, 160, 3, 3),
      %28 : Float(80),
      %29 : Float(80, 80, 3, 3),
      %30 : Float(80),
      %31 : Float(40, 80, 3, 3),
      %32 : Float(40),
      %33 : Float(30, 40, 3, 3),
      %34 : Float(30)):
  %35 : Float(4, 40, 256, 256) = onnx::Conv[dilations=[1, 1], group=1, kernel_shape=[3, 3], pads=[1, 1, 1, 1], strides=[1, 1]](%0, %1, %2), scope: FCN/Sequential/Conv2d[0]
  %36 : Float(4, 40, 256, 256) = onnx::Relu(%35), scope: FCN/Sequential/ReLU[1]
  %37 : Float(4, 40, 256, 256) = onnx::Conv[dilations=[1, 1], group=1, kernel_shape=[3, 3], pads=[1, 1, 1, 1], strides=[1, 1]](%36, %3, %4), scope: FCN/Sequential/Conv2d[2]
  %38 : Float(4, 40, 256, 256) = onnx::Relu(%37), scope: FCN/Sequential/ReLU[3]
  %39 : Float(4, 40, 128, 128) = onnx::MaxPool[kernel_shape=[2, 2], pads=[0, 0, 0, 0], strides=[2, 2]](%38), scope: FCN/MaxPool2d
  %40 : Float(4, 80, 128, 128) = onnx::Conv[dilations=[1, 1], group=1, kernel_shape=[3, 3], pads=[1, 1, 1, 1], strides=[1, 1]](%39, %5, %6), scope: FCN/Sequential/Conv2d[0]
  %41 : Float(4, 80, 128, 128) = onnx::Relu(%40), scope: FCN/Sequential/ReLU[1]
  %42 : Float(4, 80, 128, 128) = onnx::Conv[dilations=[1, 1], group=1, kernel_shape=[3, 3], pads=[1, 1, 1, 1], strides=[1, 1]](%41, %7, %8), scope: FCN/Sequential/Conv2d[2]
  %43 : Float(4, 80, 128, 128) = onnx::Relu(%42), scope: FCN/Sequential/ReLU[3]
  %44 : Float(4, 80, 64, 64) = onnx::MaxPool[kernel_shape=[2, 2], pads=[0, 0, 0, 0], strides=[2, 2]](%43), scope: FCN/MaxPool2d
  %45 : Float(4, 160, 64, 64) = onnx::Conv[dilations=[1, 1], group=1, kernel_shape=[3, 3], pads=[1, 1, 1, 1], strides=[1, 1]](%44, %9, %10), scope: FCN/Sequential/Conv2d[0]
  %46 : Float(4, 160, 64, 64) = onnx::Relu(%45), scope: FCN/Sequential/ReLU[1]
  %47 : Float(4, 160, 64, 64) = onnx::Conv[dilations=[1, 1], group=1, kernel_shape=[3, 3], pads=[1, 1, 1, 1], strides=[1, 1]](%46, %11, %12), scope: FCN/Sequential/Conv2d[2]
  %48 : Float(4, 160, 64, 64) = onnx::Relu(%47), scope: FCN/Sequential/ReLU[3]
  %49 : Float(4, 160, 32, 32) = onnx::MaxPool[kernel_shape=[2, 2], pads=[0, 0, 0, 0], strides=[2, 2]](%48), scope: FCN/MaxPool2d
  %50 : Float(4, 320, 32, 32) = onnx::Conv[dilations=[1, 1], group=1, kernel_shape=[3, 3], pads=[1, 1, 1, 1], strides=[1, 1]](%49, %13, %14), scope: FCN/Sequential[intermediate]/Conv2d[0]
  %51 : Float(4, 320, 32, 32) = onnx::Relu(%50), scope: FCN/Sequential[intermediate]/ReLU[1]
  %52 : Float(4, 320, 32, 32) = onnx::Conv[dilations=[1, 1], group=1, kernel_shape=[3, 3], pads=[1, 1, 1, 1], strides=[1, 1]](%51, %15, %16), scope: FCN/Sequential[intermediate]/Conv2d[2]
  %53 : Float(4, 320, 32, 32) = onnx::Relu(%52), scope: FCN/Sequential[intermediate]/ReLU[3]
  %54 : Float(4, 160, 64, 64) = onnx::ConvTranspose[dilations=[1, 1], group=1, kernel_shape=[4, 4], pads=[1, 1, 1, 1], strides=[2, 2]](%53, %17, %18), scope: FCN/ConvTranspose2d
  %55 : Float(4, 320, 64, 64) = onnx::Concat[axis=1](%54, %48), scope: FCN
  %56 : Float(4, 160, 64, 64) = onnx::Conv[dilations=[1, 1], group=1, kernel_shape=[3, 3], pads=[1, 1, 1, 1], strides=[1, 1]](%55, %23, %24), scope: FCN/Sequential/Conv2d[0]
  %57 : Float(4, 160, 64, 64) = onnx::Relu(%56), scope: FCN/Sequential/ReLU[1]
  %58 : Float(4, 160, 64, 64) = onnx::Conv[dilations=[1, 1], group=1, kernel_shape=[3, 3], pads=[1, 1, 1, 1], strides=[1, 1]](%57, %25, %26), scope: FCN/Sequential/Conv2d[2]
  %59 : Float(4, 160, 64, 64) = onnx::Relu(%58), scope: FCN/Sequential/ReLU[3]
  %60 : Float(4, 80, 128, 128) = onnx::ConvTranspose[dilations=[1, 1], group=1, kernel_shape=[4, 4], pads=[1, 1, 1, 1], strides=[2, 2]](%59, %19, %20), scope: FCN/ConvTranspose2d
  %61 : Float(4, 160, 128, 128) = onnx::Concat[axis=1](%60, %43), scope: FCN
  %62 : Float(4, 80, 128, 128) = onnx::Conv[dilations=[1, 1], group=1, kernel_shape=[3, 3], pads=[1, 1, 1, 1], strides=[1, 1]](%61, %27, %28), scope: FCN/Sequential/Conv2d[0]
  %63 : Float(4, 80, 128, 128) = onnx::Relu(%62), scope: FCN/Sequential/ReLU[1]
  %64 : Float(4, 80, 128, 128) = onnx::Conv[dilations=[1, 1], group=1, kernel_shape=[3, 3], pads=[1, 1, 1, 1], strides=[1, 1]](%63, %29, %30), scope: FCN/Sequential/Conv2d[2]
  %65 : Float(4, 80, 128, 128) = onnx::Relu(%64), scope: FCN/Sequential/ReLU[3]
  %66 : Float(4, 40, 256, 256) = onnx::ConvTranspose[dilations=[1, 1], group=1, kernel_shape=[4, 4], pads=[1, 1, 1, 1], strides=[2, 2]](%65, %21, %22), scope: FCN/ConvTranspose2d
  %67 : Float(4, 80, 256, 256) = onnx::Concat[axis=1](%66, %38), scope: FCN
  %68 : Float(4, 40, 256, 256) = onnx::Conv[dilations=[1, 1], group=1, kernel_shape=[3, 3], pads=[1, 1, 1, 1], strides=[1, 1]](%67, %31, %32), scope: FCN/Sequential/Conv2d[0]
  %69 : Float(4, 40, 256, 256) = onnx::Relu(%68), scope: FCN/Sequential/ReLU[1]
  %70 : Float(4, 30, 256, 256) = onnx::Conv[dilations=[1, 1], group=1, kernel_shape=[3, 3], pads=[1, 1, 1, 1], strides=[1, 1]](%69, %33, %34), scope: FCN/Sequential/Conv2d[2]
  %71 : Float(4, 30, 256, 256) = onnx::Relu(%70), scope: FCN/Sequential/ReLU[3]
  return (%71)


Test set: Average loss: 1.0775, Score: (74.79%)

Saving the model serialization to /home/mb385130/task2/model-epoch-5
(E7 1544.002s T)	[0/2975 (0%)]	Loss: 0.986772	Score:  76.027%
(E7 1556.842s T)	[16/2975 (1%)]	Loss: 1.035891	Score:  74.825%
(E7 1558.072s T)	[32/2975 (1%)]	Loss: 1.064836	Score:  75.507%
(E7 1559.050s T)	[48/2975 (2%)]	Loss: 1.166269	Score:  73.355%
(E7 1560.011s T)	[64/2975 (2%)]	Loss: 1.100281	Score:  74.205%
(E7 1560.983s T)	[80/2975 (3%)]	Loss: 1.180181	Score:  72.149%
(E7 1561.958s T)	[96/2975 (3%)]	Loss: 0.982825	Score:  77.317%
(E7 1562.923s T)	[112/2975 (4%)]	Loss: 1.118709	Score:  73.825%
(E7 1563.888s T)	[128/2975 (4%)]	Loss: 0.974698	Score:  76.784%
(E7 1564.852s T)	[144/2975 (5%)]	Loss: 1.130615	Score:  73.433%
(E7 1565.815s T)	[160/2975 (5%)]	Loss: 1.008200	Score:  76.312%
(E7 1566.782s T)	[176/2975 (6%)]	Loss: 1.066091	Score:  75.421%
(E7 1567.750s T)	[192/2975 (6%)]	Loss: 1.040927	Score:  75.254%
(E7 1568.702s T)	[208/2975 (7%)]	Loss: 0.966766	Score:  77.743%
(E7 1569.664s T)	[224/2975 (8%)]	Loss: 1.068474	Score:  74.403%
(E7 1570.623s T)	[240/2975 (8%)]	Loss: 1.177145	Score:  71.997%
(E7 1571.599s T)	[256/2975 (9%)]	Loss: 1.055205	Score:  75.225%
(E7 1572.561s T)	[272/2975 (9%)]	Loss: 0.954463	Score:  77.258%
(E7 1573.521s T)	[288/2975 (10%)]	Loss: 0.997182	Score:  76.440%
(E7 1574.487s T)	[304/2975 (10%)]	Loss: 1.288284	Score:  71.340%
(E7 1575.462s T)	[320/2975 (11%)]	Loss: 1.192790	Score:  72.022%
(E7 1576.430s T)	[336/2975 (11%)]	Loss: 1.141381	Score:  72.240%
(E7 1577.395s T)	[352/2975 (12%)]	Loss: 1.052007	Score:  75.532%
(E7 1578.355s T)	[368/2975 (12%)]	Loss: 1.038380	Score:  75.388%
(E7 1579.323s T)	[384/2975 (13%)]	Loss: 1.043575	Score:  75.593%
(E7 1580.286s T)	[400/2975 (13%)]	Loss: 1.016211	Score:  75.895%
(E7 1581.269s T)	[416/2975 (14%)]	Loss: 1.058718	Score:  74.559%
(E7 1582.232s T)	[432/2975 (15%)]	Loss: 1.107915	Score:  73.000%
(E7 1583.201s T)	[448/2975 (15%)]	Loss: 1.180347	Score:  71.720%
(E7 1584.169s T)	[464/2975 (16%)]	Loss: 1.196486	Score:  71.511%
(E7 1585.135s T)	[480/2975 (16%)]	Loss: 1.230117	Score:  69.253%
(E7 1586.097s T)	[496/2975 (17%)]	Loss: 1.131402	Score:  72.758%
(E7 1587.085s T)	[512/2975 (17%)]	Loss: 1.090927	Score:  74.057%
(E7 1588.048s T)	[528/2975 (18%)]	Loss: 1.081052	Score:  74.363%
(E7 1589.015s T)	[544/2975 (18%)]	Loss: 1.036473	Score:  75.661%
(E7 1589.995s T)	[560/2975 (19%)]	Loss: 0.957730	Score:  77.706%
(E7 1590.955s T)	[576/2975 (19%)]	Loss: 0.993472	Score:  76.223%
(E7 1591.920s T)	[592/2975 (20%)]	Loss: 1.170290	Score:  73.112%
(E7 1592.892s T)	[608/2975 (20%)]	Loss: 1.362561	Score:  68.067%
(E7 1593.861s T)	[624/2975 (21%)]	Loss: 1.107978	Score:  74.022%
(E7 1594.827s T)	[640/2975 (22%)]	Loss: 1.240367	Score:  70.380%
(E7 1595.805s T)	[656/2975 (22%)]	Loss: 1.023843	Score:  76.245%
(E7 1596.772s T)	[672/2975 (23%)]	Loss: 1.070982	Score:  75.094%
(E7 1597.741s T)	[688/2975 (23%)]	Loss: 1.127663	Score:  73.863%
(E7 1598.703s T)	[704/2975 (24%)]	Loss: 0.911580	Score:  78.225%
(E7 1599.663s T)	[720/2975 (24%)]	Loss: 1.070916	Score:  74.206%
(E7 1600.617s T)	[736/2975 (25%)]	Loss: 1.263094	Score:  70.953%
(E7 1601.586s T)	[752/2975 (25%)]	Loss: 1.207397	Score:  72.129%
(E7 1602.564s T)	[768/2975 (26%)]	Loss: 1.345479	Score:  67.249%
(E7 1603.529s T)	[784/2975 (26%)]	Loss: 1.129661	Score:  73.583%
(E7 1604.488s T)	[800/2975 (27%)]	Loss: 1.138503	Score:  72.919%
(E7 1605.454s T)	[816/2975 (27%)]	Loss: 1.055073	Score:  73.943%
(E7 1606.434s T)	[832/2975 (28%)]	Loss: 1.168498	Score:  72.474%
(E7 1607.395s T)	[848/2975 (28%)]	Loss: 1.275624	Score:  70.401%
(E7 1608.371s T)	[864/2975 (29%)]	Loss: 1.064987	Score:  75.039%
(E7 1609.323s T)	[880/2975 (30%)]	Loss: 1.064948	Score:  74.749%
(E7 1610.283s T)	[896/2975 (30%)]	Loss: 1.031041	Score:  75.648%
(E7 1611.255s T)	[912/2975 (31%)]	Loss: 1.151752	Score:  73.153%
(E7 1612.211s T)	[928/2975 (31%)]	Loss: 1.032150	Score:  76.400%
(E7 1613.195s T)	[944/2975 (32%)]	Loss: 1.154978	Score:  72.361%
(E7 1614.170s T)	[960/2975 (32%)]	Loss: 1.101722	Score:  73.931%
(E7 1615.135s T)	[976/2975 (33%)]	Loss: 1.037571	Score:  76.282%
(E7 1616.118s T)	[992/2975 (33%)]	Loss: 1.190601	Score:  71.779%
(E7 1617.066s T)	[1008/2975 (34%)]	Loss: 1.217388	Score:  71.876%
(E7 1618.031s T)	[1024/2975 (34%)]	Loss: 1.064856	Score:  74.682%
(E7 1619.000s T)	[1040/2975 (35%)]	Loss: 0.865869	Score:  80.124%
(E7 1619.961s T)	[1056/2975 (35%)]	Loss: 1.155719	Score:  72.562%
(E7 1620.914s T)	[1072/2975 (36%)]	Loss: 1.177933	Score:  72.562%
(E7 1621.883s T)	[1088/2975 (37%)]	Loss: 1.017320	Score:  76.400%
(E7 1622.849s T)	[1104/2975 (37%)]	Loss: 1.088566	Score:  74.281%
(E7 1623.829s T)	[1120/2975 (38%)]	Loss: 1.113183	Score:  73.280%
(E7 1624.799s T)	[1136/2975 (38%)]	Loss: 1.191312	Score:  71.544%
(E7 1625.761s T)	[1152/2975 (39%)]	Loss: 1.010777	Score:  76.324%
(E7 1626.735s T)	[1168/2975 (39%)]	Loss: 1.167347	Score:  72.495%
(E7 1627.706s T)	[1184/2975 (40%)]	Loss: 0.996266	Score:  77.130%
(E7 1628.700s T)	[1200/2975 (40%)]	Loss: 1.120481	Score:  73.026%
(E7 1629.652s T)	[1216/2975 (41%)]	Loss: 1.066855	Score:  74.625%
(E7 1630.613s T)	[1232/2975 (41%)]	Loss: 1.205289	Score:  72.452%
(E7 1631.582s T)	[1248/2975 (42%)]	Loss: 1.188859	Score:  72.161%
(E7 1632.549s T)	[1264/2975 (42%)]	Loss: 1.114075	Score:  73.018%
(E7 1633.511s T)	[1280/2975 (43%)]	Loss: 1.017911	Score:  75.712%
(E7 1634.491s T)	[1296/2975 (44%)]	Loss: 1.105617	Score:  73.842%
(E7 1635.468s T)	[1312/2975 (44%)]	Loss: 1.083719	Score:  74.281%
(E7 1636.442s T)	[1328/2975 (45%)]	Loss: 1.254075	Score:  69.492%
(E7 1637.415s T)	[1344/2975 (45%)]	Loss: 1.130868	Score:  72.867%
(E7 1638.375s T)	[1360/2975 (46%)]	Loss: 1.101515	Score:  74.746%
(E7 1639.347s T)	[1376/2975 (46%)]	Loss: 1.037517	Score:  75.467%
(E7 1640.312s T)	[1392/2975 (47%)]	Loss: 0.939646	Score:  78.750%
(E7 1641.290s T)	[1408/2975 (47%)]	Loss: 1.052886	Score:  74.681%
(E7 1642.254s T)	[1424/2975 (48%)]	Loss: 1.241059	Score:  71.163%
(E7 1643.223s T)	[1440/2975 (48%)]	Loss: 1.190224	Score:  72.164%
(E7 1644.195s T)	[1456/2975 (49%)]	Loss: 1.180459	Score:  72.154%
(E7 1645.174s T)	[1472/2975 (49%)]	Loss: 1.028363	Score:  75.994%
(E7 1646.142s T)	[1488/2975 (50%)]	Loss: 1.077623	Score:  74.813%
(E7 1647.101s T)	[1504/2975 (51%)]	Loss: 1.025698	Score:  76.497%
(E7 1648.067s T)	[1520/2975 (51%)]	Loss: 1.079061	Score:  74.733%
(E7 1649.026s T)	[1536/2975 (52%)]	Loss: 1.086317	Score:  73.604%
(E7 1649.991s T)	[1552/2975 (52%)]	Loss: 1.226318	Score:  70.938%
(E7 1650.981s T)	[1568/2975 (53%)]	Loss: 1.346321	Score:  69.182%
(E7 1651.953s T)	[1584/2975 (53%)]	Loss: 1.087294	Score:  74.348%
(E7 1652.935s T)	[1600/2975 (54%)]	Loss: 1.103269	Score:  72.777%
(E7 1653.914s T)	[1616/2975 (54%)]	Loss: 1.106933	Score:  74.465%
(E7 1654.895s T)	[1632/2975 (55%)]	Loss: 1.076117	Score:  74.468%
(E7 1655.871s T)	[1648/2975 (55%)]	Loss: 0.987135	Score:  76.500%
(E7 1656.841s T)	[1664/2975 (56%)]	Loss: 1.084481	Score:  73.786%
(E7 1657.803s T)	[1680/2975 (56%)]	Loss: 1.206732	Score:  71.529%
(E7 1658.775s T)	[1696/2975 (57%)]	Loss: 1.104725	Score:  74.026%
(E7 1659.742s T)	[1712/2975 (58%)]	Loss: 0.957418	Score:  77.509%
(E7 1660.721s T)	[1728/2975 (58%)]	Loss: 1.007370	Score:  75.549%
(E7 1661.682s T)	[1744/2975 (59%)]	Loss: 1.092660	Score:  74.700%
(E7 1662.654s T)	[1760/2975 (59%)]	Loss: 1.018126	Score:  75.779%
(E7 1663.642s T)	[1776/2975 (60%)]	Loss: 1.159200	Score:  72.189%
(E7 1664.606s T)	[1792/2975 (60%)]	Loss: 0.992428	Score:  77.591%
(E7 1665.587s T)	[1808/2975 (61%)]	Loss: 1.059931	Score:  74.734%
(E7 1666.557s T)	[1824/2975 (61%)]	Loss: 1.147979	Score:  72.837%
(E7 1667.515s T)	[1840/2975 (62%)]	Loss: 0.944236	Score:  77.879%
(E7 1668.494s T)	[1856/2975 (62%)]	Loss: 0.968916	Score:  77.588%
(E7 1669.475s T)	[1872/2975 (63%)]	Loss: 0.960921	Score:  77.659%
(E7 1670.439s T)	[1888/2975 (63%)]	Loss: 1.045003	Score:  75.558%
(E7 1671.402s T)	[1904/2975 (64%)]	Loss: 1.175718	Score:  71.771%
(E7 1672.395s T)	[1920/2975 (65%)]	Loss: 0.961248	Score:  77.370%
(E7 1673.355s T)	[1936/2975 (65%)]	Loss: 1.123598	Score:  73.734%
(E7 1674.277s T)	[1952/2975 (66%)]	Loss: 1.115444	Score:  73.476%
(E7 1674.982s T)	[1968/2975 (66%)]	Loss: 1.089996	Score:  74.923%
(E7 1675.685s T)	[1984/2975 (67%)]	Loss: 1.204376	Score:  72.243%
(E7 1676.388s T)	[2000/2975 (67%)]	Loss: 1.018678	Score:  76.529%
(E7 1677.109s T)	[2016/2975 (68%)]	Loss: 1.155174	Score:  72.888%
(E7 1677.813s T)	[2032/2975 (68%)]	Loss: 1.053754	Score:  74.949%
(E7 1678.512s T)	[2048/2975 (69%)]	Loss: 1.091288	Score:  73.717%
(E7 1679.213s T)	[2064/2975 (69%)]	Loss: 0.992623	Score:  76.816%
(E7 1679.907s T)	[2080/2975 (70%)]	Loss: 0.984883	Score:  76.992%
(E7 1680.607s T)	[2096/2975 (70%)]	Loss: 0.954651	Score:  76.963%
(E7 1681.309s T)	[2112/2975 (71%)]	Loss: 1.127222	Score:  73.145%
(E7 1682.007s T)	[2128/2975 (72%)]	Loss: 0.947521	Score:  77.755%
(E7 1682.705s T)	[2144/2975 (72%)]	Loss: 1.240597	Score:  69.436%
(E7 1683.406s T)	[2160/2975 (73%)]	Loss: 0.985884	Score:  76.984%
(E7 1684.107s T)	[2176/2975 (73%)]	Loss: 1.211993	Score:  71.954%
(E7 1684.809s T)	[2192/2975 (74%)]	Loss: 1.057045	Score:  75.269%
(E7 1685.511s T)	[2208/2975 (74%)]	Loss: 0.958576	Score:  77.651%
(E7 1686.211s T)	[2224/2975 (75%)]	Loss: 1.086308	Score:  74.683%
(E7 1686.907s T)	[2240/2975 (75%)]	Loss: 1.196713	Score:  72.029%
(E7 1687.607s T)	[2256/2975 (76%)]	Loss: 1.163739	Score:  72.338%
(E7 1688.306s T)	[2272/2975 (76%)]	Loss: 1.118673	Score:  73.865%
(E7 1689.010s T)	[2288/2975 (77%)]	Loss: 1.074283	Score:  74.632%
(E7 1689.714s T)	[2304/2975 (77%)]	Loss: 0.940747	Score:  77.790%
(E7 1690.414s T)	[2320/2975 (78%)]	Loss: 1.251576	Score:  70.220%
(E7 1691.116s T)	[2336/2975 (78%)]	Loss: 1.038887	Score:  75.942%
(E7 1691.818s T)	[2352/2975 (79%)]	Loss: 1.080362	Score:  74.357%
(E7 1692.515s T)	[2368/2975 (80%)]	Loss: 1.072692	Score:  74.527%
(E7 1693.217s T)	[2384/2975 (80%)]	Loss: 0.973571	Score:  76.849%
(E7 1693.918s T)	[2400/2975 (81%)]	Loss: 1.090460	Score:  74.183%
(E7 1694.619s T)	[2416/2975 (81%)]	Loss: 0.848137	Score:  80.031%
(E7 1695.318s T)	[2432/2975 (82%)]	Loss: 1.152333	Score:  72.466%
(E7 1696.015s T)	[2448/2975 (82%)]	Loss: 1.090664	Score:  74.888%
(E7 1696.715s T)	[2464/2975 (83%)]	Loss: 1.041114	Score:  74.861%
(E7 1697.423s T)	[2480/2975 (83%)]	Loss: 1.083454	Score:  74.221%
(E7 1698.127s T)	[2496/2975 (84%)]	Loss: 1.186617	Score:  72.172%
(E7 1698.828s T)	[2512/2975 (84%)]	Loss: 0.972255	Score:  77.029%
(E7 1699.524s T)	[2528/2975 (85%)]	Loss: 1.049564	Score:  75.104%
(E7 1700.224s T)	[2544/2975 (85%)]	Loss: 1.027297	Score:  75.365%
(E7 1700.922s T)	[2560/2975 (86%)]	Loss: 0.924070	Score:  78.602%
(E7 1701.619s T)	[2576/2975 (87%)]	Loss: 1.053135	Score:  75.375%
(E7 1702.320s T)	[2592/2975 (87%)]	Loss: 1.037742	Score:  76.224%
(E7 1703.018s T)	[2608/2975 (88%)]	Loss: 1.014441	Score:  76.588%
(E7 1703.721s T)	[2624/2975 (88%)]	Loss: 1.052516	Score:  74.884%
(E7 1704.426s T)	[2640/2975 (89%)]	Loss: 1.044100	Score:  74.874%
(E7 1705.126s T)	[2656/2975 (89%)]	Loss: 1.050667	Score:  74.587%
(E7 1705.825s T)	[2672/2975 (90%)]	Loss: 1.019470	Score:  75.977%
(E7 1706.529s T)	[2688/2975 (90%)]	Loss: 0.932377	Score:  77.496%
(E7 1707.224s T)	[2704/2975 (91%)]	Loss: 1.085124	Score:  75.147%
(E7 1707.927s T)	[2720/2975 (91%)]	Loss: 1.130652	Score:  73.905%
(E7 1708.627s T)	[2736/2975 (92%)]	Loss: 1.061774	Score:  75.396%
(E7 1709.329s T)	[2752/2975 (92%)]	Loss: 0.969208	Score:  77.838%
(E7 1710.027s T)	[2768/2975 (93%)]	Loss: 1.036602	Score:  75.626%
(E7 1710.728s T)	[2784/2975 (94%)]	Loss: 0.984846	Score:  77.668%
(E7 1711.428s T)	[2800/2975 (94%)]	Loss: 0.936964	Score:  78.054%
(E7 1712.128s T)	[2816/2975 (95%)]	Loss: 0.914332	Score:  79.322%
(E7 1712.829s T)	[2832/2975 (95%)]	Loss: 0.993730	Score:  76.721%
(E7 1713.531s T)	[2848/2975 (96%)]	Loss: 0.968426	Score:  77.774%
(E7 1714.230s T)	[2864/2975 (96%)]	Loss: 1.032873	Score:  76.708%
(E7 1714.932s T)	[2880/2975 (97%)]	Loss: 1.034941	Score:  75.753%
(E7 1715.632s T)	[2896/2975 (97%)]	Loss: 1.141368	Score:  73.296%
(E7 1716.330s T)	[2912/2975 (98%)]	Loss: 0.986559	Score:  76.469%
(E7 1717.027s T)	[2928/2975 (98%)]	Loss: 1.215269	Score:  71.210%
(E7 1717.728s T)	[2944/2975 (99%)]	Loss: 1.220423	Score:  71.662%
(E7 1718.407s T)	[2775/2975 (99%)]	Loss: 1.021439	Score:  75.930%
(E7 1734.302s V)	[0/1000 (0%)]	Loss: 1.058311	Score:  75.097%
(E7 1734.843s V)	[16/1000 (2%)]	Loss: 0.958759	Score:  77.485%
(E7 1735.385s V)	[32/1000 (3%)]	Loss: 0.951002	Score:  77.469%
(E7 1735.921s V)	[48/1000 (5%)]	Loss: 1.172037	Score:  72.725%
(E7 1736.456s V)	[64/1000 (6%)]	Loss: 1.088237	Score:  75.154%
(E7 1736.992s V)	[80/1000 (8%)]	Loss: 0.975547	Score:  77.047%
(E7 1737.527s V)	[96/1000 (9%)]	Loss: 1.023704	Score:  75.995%
(E7 1738.068s V)	[112/1000 (11%)]	Loss: 0.947270	Score:  77.460%
(E7 1738.610s V)	[128/1000 (12%)]	Loss: 0.956853	Score:  77.017%
(E7 1739.152s V)	[144/1000 (14%)]	Loss: 1.192973	Score:  70.592%
(E7 1739.690s V)	[160/1000 (16%)]	Loss: 1.042618	Score:  75.911%
(E7 1740.229s V)	[176/1000 (17%)]	Loss: 1.038094	Score:  75.119%
(E7 1740.767s V)	[192/1000 (19%)]	Loss: 0.963690	Score:  77.334%
(E7 1741.307s V)	[208/1000 (20%)]	Loss: 1.101125	Score:  73.915%
(E7 1741.848s V)	[224/1000 (22%)]	Loss: 0.981429	Score:  76.793%
(E7 1742.389s V)	[240/1000 (23%)]	Loss: 1.096226	Score:  73.732%
(E7 1742.929s V)	[256/1000 (25%)]	Loss: 1.036739	Score:  75.588%
(E7 1743.469s V)	[272/1000 (27%)]	Loss: 0.898928	Score:  78.805%
(E7 1744.011s V)	[288/1000 (28%)]	Loss: 1.207789	Score:  70.242%
(E7 1744.552s V)	[304/1000 (30%)]	Loss: 1.061366	Score:  75.457%
(E7 1745.094s V)	[320/1000 (31%)]	Loss: 1.097620	Score:  73.119%
(E7 1745.638s V)	[336/1000 (33%)]	Loss: 1.153524	Score:  72.534%
(E7 1746.180s V)	[352/1000 (34%)]	Loss: 1.208967	Score:  72.618%
(E7 1746.720s V)	[368/1000 (36%)]	Loss: 1.057980	Score:  74.840%
(E7 1747.260s V)	[384/1000 (38%)]	Loss: 0.983428	Score:  77.490%
(E7 1747.808s V)	[400/1000 (39%)]	Loss: 0.926551	Score:  77.797%
(E7 1748.348s V)	[416/1000 (41%)]	Loss: 1.045796	Score:  75.127%
(E7 1748.891s V)	[432/1000 (42%)]	Loss: 1.135072	Score:  74.074%
(E7 1749.438s V)	[448/1000 (44%)]	Loss: 1.020691	Score:  75.861%
(E7 1749.980s V)	[464/1000 (45%)]	Loss: 0.885284	Score:  79.483%
(E7 1750.520s V)	[480/1000 (47%)]	Loss: 1.109350	Score:  74.092%
(E7 1750.696s V)	[124/1000 (48%)]	Loss: 0.819759	Score:  81.596%
(E7 1766.127s V)	[512/1000 (50%)]	Loss: 0.989884	Score:  76.948%
(E7 1766.671s V)	[528/1000 (52%)]	Loss: 1.035349	Score:  75.043%
(E7 1767.206s V)	[544/1000 (53%)]	Loss: 1.086521	Score:  74.203%
(E7 1767.741s V)	[560/1000 (55%)]	Loss: 1.069215	Score:  75.215%
(E7 1768.275s V)	[576/1000 (56%)]	Loss: 1.137452	Score:  72.291%
(E7 1768.810s V)	[592/1000 (58%)]	Loss: 0.955796	Score:  77.814%
(E7 1769.345s V)	[608/1000 (59%)]	Loss: 0.995119	Score:  76.449%
(E7 1769.880s V)	[624/1000 (61%)]	Loss: 1.055375	Score:  75.388%
(E7 1770.423s V)	[640/1000 (62%)]	Loss: 1.267042	Score:  69.014%
(E7 1770.965s V)	[656/1000 (64%)]	Loss: 1.069005	Score:  74.872%
(E7 1771.500s V)	[672/1000 (66%)]	Loss: 0.973100	Score:  77.595%
(E7 1772.034s V)	[688/1000 (67%)]	Loss: 1.001569	Score:  77.223%
(E7 1772.572s V)	[704/1000 (69%)]	Loss: 1.117824	Score:  73.270%
(E7 1773.113s V)	[720/1000 (70%)]	Loss: 1.009398	Score:  76.299%
(E7 1773.650s V)	[736/1000 (72%)]	Loss: 1.186444	Score:  72.884%
(E7 1774.186s V)	[752/1000 (73%)]	Loss: 0.915778	Score:  78.632%
(E7 1774.723s V)	[768/1000 (75%)]	Loss: 1.041051	Score:  75.826%
(E7 1775.259s V)	[784/1000 (77%)]	Loss: 1.094821	Score:  73.564%
(E7 1775.798s V)	[800/1000 (78%)]	Loss: 0.910792	Score:  78.720%
(E7 1776.336s V)	[816/1000 (80%)]	Loss: 1.041555	Score:  75.584%
(E7 1776.875s V)	[832/1000 (81%)]	Loss: 1.231198	Score:  70.822%
(E7 1777.412s V)	[848/1000 (83%)]	Loss: 1.007308	Score:  76.800%
(E7 1777.956s V)	[864/1000 (84%)]	Loss: 1.114775	Score:  73.507%
(E7 1778.499s V)	[880/1000 (86%)]	Loss: 0.924112	Score:  78.996%
(E7 1779.037s V)	[896/1000 (88%)]	Loss: 1.162927	Score:  73.452%
(E7 1779.577s V)	[912/1000 (89%)]	Loss: 0.881869	Score:  79.959%
(E7 1780.118s V)	[928/1000 (91%)]	Loss: 0.910196	Score:  78.960%
(E7 1780.663s V)	[944/1000 (92%)]	Loss: 1.049480	Score:  75.081%
(E7 1781.199s V)	[960/1000 (94%)]	Loss: 1.046058	Score:  75.107%
(E7 1781.731s V)	[976/1000 (95%)]	Loss: 1.000438	Score:  76.076%
(E7 1782.265s V)	[992/1000 (97%)]	Loss: 0.984024	Score:  76.586%
(E7 1782.436s V)	[252/1000 (98%)]	Loss: 1.282954	Score:  69.453%
graph(%0 : Float(4, 3, 256, 256),
      %1 : Float(40, 3, 3, 3),
      %2 : Float(40),
      %3 : Float(40, 40, 3, 3),
      %4 : Float(40),
      %5 : Float(80, 40, 3, 3),
      %6 : Float(80),
      %7 : Float(80, 80, 3, 3),
      %8 : Float(80),
      %9 : Float(160, 80, 3, 3),
      %10 : Float(160),
      %11 : Float(160, 160, 3, 3),
      %12 : Float(160),
      %13 : Float(320, 160, 3, 3),
      %14 : Float(320),
      %15 : Float(320, 320, 3, 3),
      %16 : Float(320),
      %17 : Float(320, 160, 4, 4),
      %18 : Float(160),
      %19 : Float(160, 80, 4, 4),
      %20 : Float(80),
      %21 : Float(80, 40, 4, 4),
      %22 : Float(40),
      %23 : Float(160, 320, 3, 3),
      %24 : Float(160),
      %25 : Float(160, 160, 3, 3),
      %26 : Float(160),
      %27 : Float(80, 160, 3, 3),
      %28 : Float(80),
      %29 : Float(80, 80, 3, 3),
      %30 : Float(80),
      %31 : Float(40, 80, 3, 3),
      %32 : Float(40),
      %33 : Float(30, 40, 3, 3),
      %34 : Float(30)):
  %35 : Float(4, 40, 256, 256) = onnx::Conv[dilations=[1, 1], group=1, kernel_shape=[3, 3], pads=[1, 1, 1, 1], strides=[1, 1]](%0, %1, %2), scope: FCN/Sequential/Conv2d[0]
  %36 : Float(4, 40, 256, 256) = onnx::Relu(%35), scope: FCN/Sequential/ReLU[1]
  %37 : Float(4, 40, 256, 256) = onnx::Conv[dilations=[1, 1], group=1, kernel_shape=[3, 3], pads=[1, 1, 1, 1], strides=[1, 1]](%36, %3, %4), scope: FCN/Sequential/Conv2d[2]
  %38 : Float(4, 40, 256, 256) = onnx::Relu(%37), scope: FCN/Sequential/ReLU[3]
  %39 : Float(4, 40, 128, 128) = onnx::MaxPool[kernel_shape=[2, 2], pads=[0, 0, 0, 0], strides=[2, 2]](%38), scope: FCN/MaxPool2d
  %40 : Float(4, 80, 128, 128) = onnx::Conv[dilations=[1, 1], group=1, kernel_shape=[3, 3], pads=[1, 1, 1, 1], strides=[1, 1]](%39, %5, %6), scope: FCN/Sequential/Conv2d[0]
  %41 : Float(4, 80, 128, 128) = onnx::Relu(%40), scope: FCN/Sequential/ReLU[1]
  %42 : Float(4, 80, 128, 128) = onnx::Conv[dilations=[1, 1], group=1, kernel_shape=[3, 3], pads=[1, 1, 1, 1], strides=[1, 1]](%41, %7, %8), scope: FCN/Sequential/Conv2d[2]
  %43 : Float(4, 80, 128, 128) = onnx::Relu(%42), scope: FCN/Sequential/ReLU[3]
  %44 : Float(4, 80, 64, 64) = onnx::MaxPool[kernel_shape=[2, 2], pads=[0, 0, 0, 0], strides=[2, 2]](%43), scope: FCN/MaxPool2d
  %45 : Float(4, 160, 64, 64) = onnx::Conv[dilations=[1, 1], group=1, kernel_shape=[3, 3], pads=[1, 1, 1, 1], strides=[1, 1]](%44, %9, %10), scope: FCN/Sequential/Conv2d[0]
  %46 : Float(4, 160, 64, 64) = onnx::Relu(%45), scope: FCN/Sequential/ReLU[1]
  %47 : Float(4, 160, 64, 64) = onnx::Conv[dilations=[1, 1], group=1, kernel_shape=[3, 3], pads=[1, 1, 1, 1], strides=[1, 1]](%46, %11, %12), scope: FCN/Sequential/Conv2d[2]
  %48 : Float(4, 160, 64, 64) = onnx::Relu(%47), scope: FCN/Sequential/ReLU[3]
  %49 : Float(4, 160, 32, 32) = onnx::MaxPool[kernel_shape=[2, 2], pads=[0, 0, 0, 0], strides=[2, 2]](%48), scope: FCN/MaxPool2d
  %50 : Float(4, 320, 32, 32) = onnx::Conv[dilations=[1, 1], group=1, kernel_shape=[3, 3], pads=[1, 1, 1, 1], strides=[1, 1]](%49, %13, %14), scope: FCN/Sequential[intermediate]/Conv2d[0]
  %51 : Float(4, 320, 32, 32) = onnx::Relu(%50), scope: FCN/Sequential[intermediate]/ReLU[1]
  %52 : Float(4, 320, 32, 32) = onnx::Conv[dilations=[1, 1], group=1, kernel_shape=[3, 3], pads=[1, 1, 1, 1], strides=[1, 1]](%51, %15, %16), scope: FCN/Sequential[intermediate]/Conv2d[2]
  %53 : Float(4, 320, 32, 32) = onnx::Relu(%52), scope: FCN/Sequential[intermediate]/ReLU[3]
  %54 : Float(4, 160, 64, 64) = onnx::ConvTranspose[dilations=[1, 1], group=1, kernel_shape=[4, 4], pads=[1, 1, 1, 1], strides=[2, 2]](%53, %17, %18), scope: FCN/ConvTranspose2d
  %55 : Float(4, 320, 64, 64) = onnx::Concat[axis=1](%54, %48), scope: FCN
  %56 : Float(4, 160, 64, 64) = onnx::Conv[dilations=[1, 1], group=1, kernel_shape=[3, 3], pads=[1, 1, 1, 1], strides=[1, 1]](%55, %23, %24), scope: FCN/Sequential/Conv2d[0]
  %57 : Float(4, 160, 64, 64) = onnx::Relu(%56), scope: FCN/Sequential/ReLU[1]
  %58 : Float(4, 160, 64, 64) = onnx::Conv[dilations=[1, 1], group=1, kernel_shape=[3, 3], pads=[1, 1, 1, 1], strides=[1, 1]](%57, %25, %26), scope: FCN/Sequential/Conv2d[2]
  %59 : Float(4, 160, 64, 64) = onnx::Relu(%58), scope: FCN/Sequential/ReLU[3]
  %60 : Float(4, 80, 128, 128) = onnx::ConvTranspose[dilations=[1, 1], group=1, kernel_shape=[4, 4], pads=[1, 1, 1, 1], strides=[2, 2]](%59, %19, %20), scope: FCN/ConvTranspose2d
  %61 : Float(4, 160, 128, 128) = onnx::Concat[axis=1](%60, %43), scope: FCN
  %62 : Float(4, 80, 128, 128) = onnx::Conv[dilations=[1, 1], group=1, kernel_shape=[3, 3], pads=[1, 1, 1, 1], strides=[1, 1]](%61, %27, %28), scope: FCN/Sequential/Conv2d[0]
  %63 : Float(4, 80, 128, 128) = onnx::Relu(%62), scope: FCN/Sequential/ReLU[1]
  %64 : Float(4, 80, 128, 128) = onnx::Conv[dilations=[1, 1], group=1, kernel_shape=[3, 3], pads=[1, 1, 1, 1], strides=[1, 1]](%63, %29, %30), scope: FCN/Sequential/Conv2d[2]
  %65 : Float(4, 80, 128, 128) = onnx::Relu(%64), scope: FCN/Sequential/ReLU[3]
  %66 : Float(4, 40, 256, 256) = onnx::ConvTranspose[dilations=[1, 1], group=1, kernel_shape=[4, 4], pads=[1, 1, 1, 1], strides=[2, 2]](%65, %21, %22), scope: FCN/ConvTranspose2d
  %67 : Float(4, 80, 256, 256) = onnx::Concat[axis=1](%66, %38), scope: FCN
  %68 : Float(4, 40, 256, 256) = onnx::Conv[dilations=[1, 1], group=1, kernel_shape=[3, 3], pads=[1, 1, 1, 1], strides=[1, 1]](%67, %31, %32), scope: FCN/Sequential/Conv2d[0]
  %69 : Float(4, 40, 256, 256) = onnx::Relu(%68), scope: FCN/Sequential/ReLU[1]
  %70 : Float(4, 30, 256, 256) = onnx::Conv[dilations=[1, 1], group=1, kernel_shape=[3, 3], pads=[1, 1, 1, 1], strides=[1, 1]](%69, %33, %34), scope: FCN/Sequential/Conv2d[2]
  %71 : Float(4, 30, 256, 256) = onnx::Relu(%70), scope: FCN/Sequential/ReLU[3]
  return (%71)


Test set: Average loss: 1.0429, Score: (75.46%)

Saving the model serialization to /home/mb385130/task2/model-epoch-6
(E8 1797.456s T)	[0/2975 (0%)]	Loss: 0.963766	Score:  77.817%
(E8 1810.966s T)	[16/2975 (1%)]	Loss: 1.026701	Score:  76.558%
(E8 1812.195s T)	[32/2975 (1%)]	Loss: 1.111205	Score:  72.867%
(E8 1813.162s T)	[48/2975 (2%)]	Loss: 1.082088	Score:  75.209%
(E8 1814.121s T)	[64/2975 (2%)]	Loss: 1.020924	Score:  75.494%
(E8 1815.093s T)	[80/2975 (3%)]	Loss: 1.004583	Score:  76.250%
(E8 1816.052s T)	[96/2975 (3%)]	Loss: 1.123555	Score:  73.204%
(E8 1817.021s T)	[112/2975 (4%)]	Loss: 1.145639	Score:  73.047%
(E8 1817.980s T)	[128/2975 (4%)]	Loss: 1.136051	Score:  74.471%
(E8 1818.943s T)	[144/2975 (5%)]	Loss: 0.917677	Score:  78.458%
(E8 1819.900s T)	[160/2975 (5%)]	Loss: 1.054264	Score:  74.902%
(E8 1820.864s T)	[176/2975 (6%)]	Loss: 1.085186	Score:  74.269%
(E8 1821.827s T)	[192/2975 (6%)]	Loss: 0.997913	Score:  76.890%
(E8 1822.786s T)	[208/2975 (7%)]	Loss: 0.992400	Score:  76.575%
(E8 1823.754s T)	[224/2975 (8%)]	Loss: 1.018687	Score:  75.669%
(E8 1824.726s T)	[240/2975 (8%)]	Loss: 1.140159	Score:  73.166%
(E8 1825.690s T)	[256/2975 (9%)]	Loss: 1.136095	Score:  73.548%
…
      %31 : Float(40, 80, 3, 3),
      %32 : Float(40),
      %33 : Float(30, 40, 3, 3),
      %34 : Float(30)):
  %35 : Float(4, 40, 256, 256) = onnx::Conv[dilations=[1, 1], group=1, kernel_shape=[3, 3], pads=[1, 1, 1, 1], strides=[1, 1]](%0, %1, %2), scope: FCN/Sequential/Conv2d[0]
  %36 : Float(4, 40, 256, 256) = onnx::Relu(%35), scope: FCN/Sequential/ReLU[1]
  %37 : Float(4, 40, 256, 256) = onnx::Conv[dilations=[1, 1], group=1, kernel_shape=[3, 3], pads=[1, 1, 1, 1], strides=[1, 1]](%36, %3, %4), scope: FCN/Sequential/Conv2d[2]
  %38 : Float(4, 40, 256, 256) = onnx::Relu(%37), scope: FCN/Sequential/ReLU[3]
  %39 : Float(4, 40, 128, 128) = onnx::MaxPool[kernel_shape=[2, 2], pads=[0, 0, 0, 0], strides=[2, 2]](%38), scope: FCN/MaxPool2d
  %40 : Float(4, 80, 128, 128) = onnx::Conv[dilations=[1, 1], group=1, kernel_shape=[3, 3], pads=[1, 1, 1, 1], strides=[1, 1]](%39, %5, %6), scope: FCN/Sequential/Conv2d[0]
  %41 : Float(4, 80, 128, 128) = onnx::Relu(%40), scope: FCN/Sequential/ReLU[1]
  %42 : Float(4, 80, 128, 128) = onnx::Conv[dilations=[1, 1], group=1, kernel_shape=[3, 3], pads=[1, 1, 1, 1], strides=[1, 1]](%41, %7, %8), scope: FCN/Sequential/Conv2d[2]
  %43 : Float(4, 80, 128, 128) = onnx::Relu(%42), scope: FCN/Sequential/ReLU[3]
  %44 : Float(4, 80, 64, 64) = onnx::MaxPool[kernel_shape=[2, 2], pads=[0, 0, 0, 0], strides=[2, 2]](%43), scope: FCN/MaxPool2d
  %45 : Float(4, 160, 64, 64) = onnx::Conv[dilations=[1, 1], group=1, kernel_shape=[3, 3], pads=[1, 1, 1, 1], strides=[1, 1]](%44, %9, %10), scope: FCN/Sequential/Conv2d[0]
  %46 : Float(4, 160, 64, 64) = onnx::Relu(%45), scope: FCN/Sequential/ReLU[1]
  %47 : Float(4, 160, 64, 64) = onnx::Conv[dilations=[1, 1], group=1, kernel_shape=[3, 3], pads=[1, 1, 1, 1], strides=[1, 1]](%46, %11, %12), scope: FCN/Sequential/Conv2d[2]
  %48 : Float(4, 160, 64, 64) = onnx::Relu(%47), scope: FCN/Sequential/ReLU[3]
  %49 : Float(4, 160, 32, 32) = onnx::MaxPool[kernel_shape=[2, 2], pads=[0, 0, 0, 0], strides=[2, 2]](%48), scope: FCN/MaxPool2d
  %50 : Float(4, 320, 32, 32) = onnx::Conv[dilations=[1, 1], group=1, kernel_shape=[3, 3], pads=[1, 1, 1, 1], strides=[1, 1]](%49, %13, %14), scope: FCN/Sequential[intermediate]/Conv2d[0]
  %51 : Float(4, 320, 32, 32) = onnx::Relu(%50), scope: FCN/Sequential[intermediate]/ReLU[1]
  %52 : Float(4, 320, 32, 32) = onnx::Conv[dilations=[1, 1], group=1, kernel_shape=[3, 3], pads=[1, 1, 1, 1], strides=[1, 1]](%51, %15, %16), scope: FCN/Sequential[intermediate]/Conv2d[2]
  %53 : Float(4, 320, 32, 32) = onnx::Relu(%52), scope: FCN/Sequential[intermediate]/ReLU[3]
  %54 : Float(4, 160, 64, 64) = onnx::ConvTranspose[dilations=[1, 1], group=1, kernel_shape=[4, 4], pads=[1, 1, 1, 1], strides=[2, 2]](%53, %17, %18), scope: FCN/ConvTranspose2d
  %55 : Float(4, 320, 64, 64) = onnx::Concat[axis=1](%54, %48), scope: FCN
  %56 : Float(4, 160, 64, 64) = onnx::Conv[dilations=[1, 1], group=1, kernel_shape=[3, 3], pads=[1, 1, 1, 1], strides=[1, 1]](%55, %23, %24), scope: FCN/Sequential/Conv2d[0]
  %57 : Float(4, 160, 64, 64) = onnx::Relu(%56), scope: FCN/Sequential/ReLU[1]
  %58 : Float(4, 160, 64, 64) = onnx::Conv[dilations=[1, 1], group=1, kernel_shape=[3, 3], pads=[1, 1, 1, 1], strides=[1, 1]](%57, %25, %26), scope: FCN/Sequential/Conv2d[2]
  %59 : Float(4, 160, 64, 64) = onnx::Relu(%58), scope: FCN/Sequential/ReLU[3]
  %60 : Float(4, 80, 128, 128) = onnx::ConvTranspose[dilations=[1, 1], group=1, kernel_shape=[4, 4], pads=[1, 1, 1, 1], strides=[2, 2]](%59, %19, %20), scope: FCN/ConvTranspose2d
  %61 : Float(4, 160, 128, 128) = onnx::Concat[axis=1](%60, %43), scope: FCN
  %62 : Float(4, 80, 128, 128) = onnx::Conv[dilations=[1, 1], group=1, kernel_shape=[3, 3], pads=[1, 1, 1, 1], strides=[1, 1]](%61, %27, %28), scope: FCN/Sequential/Conv2d[0]
  %63 : Float(4, 80, 128, 128) = onnx::Relu(%62), scope: FCN/Sequential/ReLU[1]
  %64 : Float(4, 80, 128, 128) = onnx::Conv[dilations=[1, 1], group=1, kernel_shape=[3, 3], pads=[1, 1, 1, 1], strides=[1, 1]](%63, %29, %30), scope: FCN/Sequential/Conv2d[2]
  %65 : Float(4, 80, 128, 128) = onnx::Relu(%64), scope: FCN/Sequential/ReLU[3]
  %66 : Float(4, 40, 256, 256) = onnx::ConvTranspose[dilations=[1, 1], group=1, kernel_shape=[4, 4], pads=[1, 1, 1, 1], strides=[2, 2]](%65, %21, %22), scope: FCN/ConvTranspose2d
  %67 : Float(4, 80, 256, 256) = onnx::Concat[axis=1](%66, %38), scope: FCN
  %68 : Float(4, 40, 256, 256) = onnx::Conv[dilations=[1, 1], group=1, kernel_shape=[3, 3], pads=[1, 1, 1, 1], strides=[1, 1]](%67, %31, %32), scope: FCN/Sequential/Conv2d[0]
  %69 : Float(4, 40, 256, 256) = onnx::Relu(%68), scope: FCN/Sequential/ReLU[1]
  %70 : Float(4, 30, 256, 256) = onnx::Conv[dilations=[1, 1], group=1, kernel_shape=[3, 3], pads=[1, 1, 1, 1], strides=[1, 1]](%69, %33, %34), scope: FCN/Sequential/Conv2d[2]
  %71 : Float(4, 30, 256, 256) = onnx::Relu(%70), scope: FCN/Sequential/ReLU[3]
  return (%71)


Test set: Average loss: 0.9756, Score: (76.81%)

Saving the model serialization to /home/mb385130/task2/model-epoch-9
(E11 2558.755s T)	[0/2975 (0%)]	Loss: 0.946455	Score:  78.295%
(E11 2572.237s T)	[16/2975 (1%)]	Loss: 0.896259	Score:  77.910%
(E11 2573.483s T)	[32/2975 (1%)]	Loss: 1.082401	Score:  74.879%
(E11 2574.453s T)	[48/2975 (2%)]	Loss: 0.972587	Score:  76.586%
(E11 2575.430s T)	[64/2975 (2%)]	Loss: 0.917861	Score:  77.970%
(E11 2576.391s T)	[80/2975 (3%)]	Loss: 0.922373	Score:  78.163%
(E11 2577.356s T)	[96/2975 (3%)]	Loss: 0.883237	Score:  79.466%
(E11 2578.328s T)	[112/2975 (4%)]	Loss: 0.928744	Score:  78.708%
(E11 2579.291s T)	[128/2975 (4%)]	Loss: 1.029736	Score:  74.875%
(E11 2580.256s T)	[144/2975 (5%)]	Loss: 0.989259	Score:  75.977%
(E11 2581.216s T)	[160/2975 (5%)]	Loss: 0.939404	Score:  78.051%
(E11 2582.182s T)	[176/2975 (6%)]	Loss: 0.886921	Score:  79.638%
(E11 2583.139s T)	[192/2975 (6%)]	Loss: 0.952035	Score:  76.714%
(E11 2584.091s T)	[208/2975 (7%)]	Loss: 0.849353	Score:  79.778%
(E11 2585.052s T)	[224/2975 (8%)]	Loss: 1.031211	Score:  74.296%
(E11 2586.002s T)	[240/2975 (8%)]	Loss: 1.104204	Score:  73.831%
(E11 2586.966s T)	[256/2975 (9%)]	Loss: 1.089771	Score:  73.820%
(E11 2587.931s T)	[272/2975 (9%)]	Loss: 0.927130	Score:  78.582%
(E11 2588.897s T)	[288/2975 (10%)]	Loss: 0.910016	Score:  78.947%
(E11 2589.862s T)	[304/2975 (10%)]	Loss: 1.095811	Score:  74.012%
(E11 2590.835s T)	[320/2975 (11%)]	Loss: 0.991673	Score:  77.048%
(E11 2591.799s T)	[336/2975 (11%)]	Loss: 1.070095	Score:  74.786%
(E11 2592.777s T)	[352/2975 (12%)]	Loss: 0.946651	Score:  77.190%
(E11 2593.746s T)	[368/2975 (12%)]	Loss: 0.988710	Score:  77.351%
(E11 2594.720s T)	[384/2975 (13%)]	Loss: 1.077257	Score:  72.600%
(E11 2595.688s T)	[400/2975 (13%)]	Loss: 0.964103	Score:  76.965%
(E11 2596.655s T)	[416/2975 (14%)]	Loss: 1.013418	Score:  76.350%
(E11 2597.612s T)	[432/2975 (15%)]	Loss: 0.895742	Score:  79.410%
(E11 2598.583s T)	[448/2975 (15%)]	Loss: 0.847125	Score:  80.116%
(E11 2599.552s T)	[464/2975 (16%)]	Loss: 1.069688	Score:  74.127%
(E11 2600.511s T)	[480/2975 (16%)]	Loss: 1.065089	Score:  72.690%
(E11 2601.477s T)	[496/2975 (17%)]	Loss: 0.970784	Score:  76.251%
(E11 2602.438s T)	[512/2975 (17%)]	Loss: 1.012525	Score:  76.350%
(E11 2603.395s T)	[528/2975 (18%)]	Loss: 0.788261	Score:  82.168%
(E11 2604.352s T)	[544/2975 (18%)]	Loss: 0.882703	Score:  79.003%
(E11 2605.328s T)	[560/2975 (19%)]	Loss: 0.873405	Score:  79.281%
(E11 2606.282s T)	[576/2975 (19%)]	Loss: 0.934856	Score:  77.470%
(E11 2607.242s T)	[592/2975 (20%)]	Loss: 1.120605	Score:  74.258%
(E11 2608.210s T)	[608/2975 (20%)]	Loss: 1.033264	Score:  75.602%
(E11 2609.178s T)	[624/2975 (21%)]	Loss: 1.103906	Score:  74.317%
(E11 2610.150s T)	[640/2975 (22%)]	Loss: 0.959453	Score:  77.401%
(E11 2611.126s T)	[656/2975 (22%)]	Loss: 1.043851	Score:  75.788%
(E11 2612.088s T)	[672/2975 (23%)]	Loss: 0.861808	Score:  80.726%
(E11 2613.055s T)	[688/2975 (23%)]	Loss: 0.974761	Score:  76.838%
(E11 2614.015s T)	[704/2975 (24%)]	Loss: 0.988230	Score:  77.025%
(E11 2614.980s T)	[720/2975 (24%)]	Loss: 0.933452	Score:  78.314%
(E11 2615.943s T)	[736/2975 (25%)]	Loss: 1.101197	Score:  73.117%
(E11 2616.912s T)	[752/2975 (25%)]	Loss: 0.964608	Score:  76.538%
(E11 2617.868s T)	[768/2975 (26%)]	Loss: 0.831048	Score:  80.059%
(E11 2618.827s T)	[784/2975 (26%)]	Loss: 0.870530	Score:  78.873%
(E11 2619.795s T)	[800/2975 (27%)]	Loss: 0.911031	Score:  78.272%
(E11 2620.758s T)	[816/2975 (27%)]	Loss: 1.104644	Score:  73.877%
(E11 2621.726s T)	[832/2975 (28%)]	Loss: 0.753431	Score:  82.324%
(E11 2622.691s T)	[848/2975 (28%)]	Loss: 1.061834	Score:  74.895%
(E11 2623.671s T)	[864/2975 (29%)]	Loss: 0.861367	Score:  79.580%
(E11 2624.643s T)	[880/2975 (30%)]	Loss: 1.150218	Score:  72.273%
(E11 2625.612s T)	[896/2975 (30%)]	Loss: 0.969410	Score:  76.828%
(E11 2626.581s T)	[912/2975 (31%)]	Loss: 1.007452	Score:  76.084%
(E11 2627.540s T)	[928/2975 (31%)]	Loss: 1.032040	Score:  75.694%
(E11 2628.512s T)	[944/2975 (32%)]	Loss: 0.820205	Score:  80.328%
(E11 2629.475s T)	[960/2975 (32%)]	Loss: 0.885502	Score:  79.147%
(E11 2630.435s T)	[976/2975 (33%)]	Loss: 0.985067	Score:  78.138%
(E11 2631.394s T)	[992/2975 (33%)]	Loss: 0.970911	Score:  77.273%
(E11 2632.362s T)	[1008/2975 (34%)]	Loss: 0.968071	Score:  77.298%
(E11 2633.340s T)	[1024/2975 (34%)]	Loss: 0.866752	Score:  80.000%
(E11 2634.314s T)	[1040/2975 (35%)]	Loss: 1.075074	Score:  74.056%
(E11 2635.262s T)	[1056/2975 (35%)]	Loss: 1.061855	Score:  74.109%
(E11 2636.241s T)	[1072/2975 (36%)]	Loss: 1.097372	Score:  73.506%
(E11 2637.210s T)	[1088/2975 (37%)]	Loss: 1.046299	Score:  74.997%
(E11 2638.175s T)	[1104/2975 (37%)]	Loss: 1.047276	Score:  75.197%
(E11 2639.148s T)	[1120/2975 (38%)]	Loss: 0.945716	Score:  77.438%
(E11 2640.130s T)	[1136/2975 (38%)]	Loss: 0.959097	Score:  77.695%
(E11 2641.092s T)	[1152/2975 (39%)]	Loss: 0.948343	Score:  77.973%
(E11 2642.073s T)	[1168/2975 (39%)]	Loss: 0.919163	Score:  78.375%
(E11 2643.043s T)	[1184/2975 (40%)]	Loss: 0.913334	Score:  77.868%
(E11 2644.012s T)	[1200/2975 (40%)]	Loss: 1.081794	Score:  75.779%
(E11 2644.972s T)	[1216/2975 (41%)]	Loss: 0.890053	Score:  79.095%
(E11 2645.950s T)	[1232/2975 (41%)]	Loss: 0.892447	Score:  78.917%
(E11 2646.928s T)	[1248/2975 (42%)]	Loss: 1.076815	Score:  74.283%
(E11 2647.910s T)	[1264/2975 (42%)]	Loss: 1.220272	Score:  71.565%
(E11 2648.883s T)	[1280/2975 (43%)]	Loss: 0.923521	Score:  77.667%
(E11 2649.855s T)	[1296/2975 (44%)]	Loss: 0.907504	Score:  78.855%
(E11 2650.832s T)	[1312/2975 (44%)]	Loss: 1.139278	Score:  73.416%
(E11 2651.800s T)	[1328/2975 (45%)]	Loss: 0.915029	Score:  77.462%
(E11 2652.780s T)	[1344/2975 (45%)]	Loss: 0.873264	Score:  79.948%
(E11 2653.754s T)	[1360/2975 (46%)]	Loss: 1.098260	Score:  74.010%
(E11 2654.722s T)	[1376/2975 (46%)]	Loss: 0.982285	Score:  76.854%
(E11 2655.695s T)	[1392/2975 (47%)]	Loss: 0.918898	Score:  78.417%
(E11 2656.664s T)	[1408/2975 (47%)]	Loss: 1.000429	Score:  76.029%
(E11 2657.626s T)	[1424/2975 (48%)]	Loss: 1.036653	Score:  75.074%
(E11 2658.605s T)	[1440/2975 (48%)]	Loss: 0.913467	Score:  77.976%
(E11 2659.575s T)	[1456/2975 (49%)]	Loss: 1.031860	Score:  75.533%
(E11 2660.543s T)	[1472/2975 (49%)]	Loss: 0.960227	Score:  77.499%
(E11 2661.514s T)	[1488/2975 (50%)]	Loss: 1.123629	Score:  74.810%
(E11 2662.478s T)	[1504/2975 (51%)]	Loss: 0.986809	Score:  75.828%
(E11 2663.441s T)	[1520/2975 (51%)]	Loss: 1.006965	Score:  75.529%
(E11 2664.413s T)	[1536/2975 (52%)]	Loss: 0.971838	Score:  76.522%
(E11 2665.368s T)	[1552/2975 (52%)]	Loss: 0.915915	Score:  77.959%
(E11 2666.331s T)	[1568/2975 (53%)]	Loss: 0.939487	Score:  77.312%
(E11 2667.301s T)	[1584/2975 (53%)]	Loss: 0.978179	Score:  77.707%
(E11 2668.272s T)	[1600/2975 (54%)]	Loss: 0.829318	Score:  81.025%
(E11 2669.238s T)	[1616/2975 (54%)]	Loss: 1.056214	Score:  74.683%
(E11 2670.210s T)	[1632/2975 (55%)]	Loss: 0.900667	Score:  79.417%
(E11 2671.180s T)	[1648/2975 (55%)]	Loss: 1.045507	Score:  75.042%
(E11 2672.155s T)	[1664/2975 (56%)]	Loss: 1.051281	Score:  75.511%
(E11 2673.133s T)	[1680/2975 (56%)]	Loss: 0.843346	Score:  80.085%
(E11 2674.105s T)	[1696/2975 (57%)]	Loss: 0.917700	Score:  78.238%
(E11 2675.095s T)	[1712/2975 (58%)]	Loss: 0.991808	Score:  76.011%
(E11 2676.069s T)	[1728/2975 (58%)]	Loss: 0.994670	Score:  76.174%
(E11 2677.038s T)	[1744/2975 (59%)]	Loss: 1.121446	Score:  74.874%
(E11 2678.012s T)	[1760/2975 (59%)]	Loss: 0.998592	Score:  77.314%
(E11 2678.971s T)	[1776/2975 (60%)]	Loss: 0.949694	Score:  77.346%
(E11 2679.948s T)	[1792/2975 (60%)]	Loss: 1.114999	Score:  74.102%
(E11 2680.935s T)	[1808/2975 (61%)]	Loss: 1.302602	Score:  68.985%
(E11 2681.908s T)	[1824/2975 (61%)]	Loss: 0.992020	Score:  76.491%
(E11 2682.881s T)	[1840/2975 (62%)]	Loss: 0.897259	Score:  78.913%
(E11 2683.854s T)	[1856/2975 (62%)]	Loss: 1.012219	Score:  76.983%
(E11 2684.816s T)	[1872/2975 (63%)]	Loss: 1.048215	Score:  74.273%
(E11 2685.787s T)	[1888/2975 (63%)]	Loss: 1.134366	Score:  72.572%
(E11 2686.755s T)	[1904/2975 (64%)]	Loss: 0.919895	Score:  78.029%
(E11 2687.757s T)	[1920/2975 (65%)]	Loss: 1.040865	Score:  74.978%
(E11 2688.720s T)	[1936/2975 (65%)]	Loss: 0.852843	Score:  80.440%
(E11 2689.642s T)	[1952/2975 (66%)]	Loss: 0.930760	Score:  78.098%
(E11 2690.347s T)	[1968/2975 (66%)]	Loss: 1.078963	Score:  74.957%
(E11 2691.063s T)	[1984/2975 (67%)]	Loss: 1.079993	Score:  73.868%
(E11 2691.767s T)	[2000/2975 (67%)]	Loss: 0.829174	Score:  79.633%
(E11 2692.466s T)	[2016/2975 (68%)]	Loss: 0.936200	Score:  77.953%
(E11 2693.164s T)	[2032/2975 (68%)]	Loss: 0.992809	Score:  77.087%
(E11 2693.859s T)	[2048/2975 (69%)]	Loss: 1.042572	Score:  74.791%
(E11 2694.553s T)	[2064/2975 (69%)]	Loss: 1.004505	Score:  76.581%
(E11 2695.255s T)	[2080/2975 (70%)]	Loss: 0.913286	Score:  78.371%
(E11 2695.953s T)	[2096/2975 (70%)]	Loss: 0.900800	Score:  78.523%
(E11 2696.652s T)	[2112/2975 (71%)]	Loss: 0.927465	Score:  77.488%
(E11 2697.352s T)	[2128/2975 (72%)]	Loss: 1.053046	Score:  74.547%
(E11 2698.049s T)	[2144/2975 (72%)]	Loss: 0.989944	Score:  76.145%
(E11 2698.749s T)	[2160/2975 (73%)]	Loss: 1.002012	Score:  76.098%
(E11 2699.447s T)	[2176/2975 (73%)]	Loss: 0.980489	Score:  76.319%
(E11 2700.151s T)	[2192/2975 (74%)]	Loss: 0.957256	Score:  77.130%
(E11 2700.852s T)	[2208/2975 (74%)]	Loss: 1.034490	Score:  74.706%
(E11 2701.549s T)	[2224/2975 (75%)]	Loss: 0.848801	Score:  79.993%
(E11 2702.243s T)	[2240/2975 (75%)]	Loss: 0.939458	Score:  77.635%
(E11 2702.937s T)	[2256/2975 (76%)]	Loss: 0.896633	Score:  79.079%
(E11 2703.631s T)	[2272/2975 (76%)]	Loss: 0.875512	Score:  79.297%
(E11 2704.325s T)	[2288/2975 (77%)]	Loss: 0.880900	Score:  79.677%
(E11 2705.016s T)	[2304/2975 (77%)]	Loss: 1.089496	Score:  75.256%
(E11 2705.713s T)	[2320/2975 (78%)]	Loss: 0.961127	Score:  76.730%
(E11 2706.408s T)	[2336/2975 (78%)]	Loss: 0.948058	Score:  76.383%
(E11 2707.110s T)	[2352/2975 (79%)]	Loss: 0.820691	Score:  79.839%
(E11 2707.806s T)	[2368/2975 (80%)]	Loss: 1.031957	Score:  75.333%
(E11 2708.506s T)	[2384/2975 (80%)]	Loss: 0.987789	Score:  75.710%
(E11 2709.206s T)	[2400/2975 (81%)]	Loss: 0.798205	Score:  81.473%
(E11 2709.904s T)	[2416/2975 (81%)]	Loss: 0.899213	Score:  79.077%
(E11 2710.602s T)	[2432/2975 (82%)]	Loss: 0.950603	Score:  76.111%
(E11 2711.303s T)	[2448/2975 (82%)]	Loss: 0.890971	Score:  79.113%
(E11 2711.997s T)	[2464/2975 (83%)]	Loss: 0.954934	Score:  77.371%
(E11 2712.698s T)	[2480/2975 (83%)]	Loss: 0.944813	Score:  77.292%
(E11 2713.392s T)	[2496/2975 (84%)]	Loss: 0.816160	Score:  80.074%
(E11 2714.088s T)	[2512/2975 (84%)]	Loss: 0.967376	Score:  76.892%
(E11 2714.788s T)	[2528/2975 (85%)]	Loss: 0.843168	Score:  80.469%
(E11 2715.489s T)	[2544/2975 (85%)]	Loss: 0.965154	Score:  75.620%
(E11 2716.191s T)	[2560/2975 (86%)]	Loss: 1.029118	Score:  75.974%
(E11 2716.883s T)	[2576/2975 (87%)]	Loss: 0.885291	Score:  79.098%
(E11 2717.587s T)	[2592/2975 (87%)]	Loss: 0.946082	Score:  77.613%
(E11 2718.291s T)	[2608/2975 (88%)]	Loss: 1.097592	Score:  73.353%
(E11 2718.992s T)	[2624/2975 (88%)]	Loss: 0.977107	Score:  76.708%
(E11 2719.694s T)	[2640/2975 (89%)]	Loss: 0.872481	Score:  79.751%
(E11 2720.394s T)	[2656/2975 (89%)]	Loss: 1.151243	Score:  73.282%
(E11 2721.091s T)	[2672/2975 (90%)]	Loss: 1.061035	Score:  75.227%
(E11 2721.787s T)	[2688/2975 (90%)]	Loss: 0.975976	Score:  77.171%
(E11 2722.487s T)	[2704/2975 (91%)]	Loss: 0.947801	Score:  77.348%
(E11 2723.188s T)	[2720/2975 (91%)]	Loss: 0.970118	Score:  76.821%
(E11 2723.889s T)	[2736/2975 (92%)]	Loss: 0.908762	Score:  78.040%
(E11 2724.588s T)	[2752/2975 (92%)]	Loss: 1.025554	Score:  75.909%
(E11 2725.288s T)	[2768/2975 (93%)]	Loss: 0.952816	Score:  77.176%
(E11 2725.989s T)	[2784/2975 (94%)]	Loss: 0.984027	Score:  77.509%
(E11 2726.690s T)	[2800/2975 (94%)]	Loss: 1.160047	Score:  72.646%
(E11 2727.390s T)	[2816/2975 (95%)]	Loss: 0.990758	Score:  75.404%
(E11 2728.086s T)	[2832/2975 (95%)]	Loss: 0.913005	Score:  78.843%
(E11 2728.787s T)	[2848/2975 (96%)]	Loss: 0.875391	Score:  79.470%
(E11 2729.483s T)	[2864/2975 (96%)]	Loss: 1.000689	Score:  76.084%
(E11 2730.186s T)	[2880/2975 (97%)]	Loss: 0.828865	Score:  80.400%
(E11 2730.884s T)	[2896/2975 (97%)]	Loss: 0.937259	Score:  78.207%
(E11 2731.575s T)	[2912/2975 (98%)]	Loss: 0.783071	Score:  82.036%
(E11 2732.274s T)	[2928/2975 (98%)]	Loss: 0.973113	Score:  77.120%
(E11 2732.979s T)	[2944/2975 (99%)]	Loss: 0.930390	Score:  77.240%
(E11 2733.664s T)	[2775/2975 (99%)]	Loss: 0.911163	Score:  78.162%
(E11 2749.533s V)	[0/1000 (0%)]	Loss: 1.025012	Score:  75.807%
(E11 2750.068s V)	[16/1000 (2%)]	Loss: 1.145310	Score:  71.898%
(E11 2750.601s V)	[32/1000 (3%)]	Loss: 0.936775	Score:  78.523%
(E11 2751.135s V)	[48/1000 (5%)]	Loss: 1.113908	Score:  74.121%
(E11 2751.678s V)	[64/1000 (6%)]	Loss: 1.130724	Score:  73.845%
(E11 2752.219s V)	[80/1000 (8%)]	Loss: 0.807631	Score:  80.853%
(E11 2752.757s V)	[96/1000 (9%)]	Loss: 0.933813	Score:  77.504%
(E11 2753.296s V)	[112/1000 (11%)]	Loss: 1.065775	Score:  73.580%
(E11 2753.837s V)	[128/1000 (12%)]	Loss: 0.925168	Score:  77.305%
(E11 2754.382s V)	[144/1000 (14%)]	Loss: 0.896269	Score:  79.350%
(E11 2754.922s V)	[160/1000 (16%)]	Loss: 0.912371	Score:  79.338%
(E11 2755.461s V)	[176/1000 (17%)]	Loss: 1.110525	Score:  72.985%
(E11 2756.003s V)	[192/1000 (19%)]	Loss: 1.141990	Score:  73.616%
(E11 2756.546s V)	[208/1000 (20%)]	Loss: 0.974907	Score:  76.486%
(E11 2757.088s V)	[224/1000 (22%)]	Loss: 0.975849	Score:  76.276%
(E11 2757.627s V)	[240/1000 (23%)]	Loss: 0.946308	Score:  77.239%
(E11 2758.168s V)	[256/1000 (25%)]	Loss: 1.049567	Score:  75.022%
(E11 2758.709s V)	[272/1000 (27%)]	Loss: 0.868534	Score:  79.707%
(E11 2759.252s V)	[288/1000 (28%)]	Loss: 0.950326	Score:  76.441%
(E11 2759.793s V)	[304/1000 (30%)]	Loss: 0.869144	Score:  79.324%
(E11 2760.336s V)	[320/1000 (31%)]	Loss: 0.844828	Score:  79.975%
(E11 2760.878s V)	[336/1000 (33%)]	Loss: 0.908158	Score:  78.821%
(E11 2761.414s V)	[352/1000 (34%)]	Loss: 0.962472	Score:  76.845%
(E11 2761.952s V)	[368/1000 (36%)]	Loss: 0.935790	Score:  77.677%
(E11 2762.491s V)	[384/1000 (38%)]	Loss: 0.876926	Score:  79.879%
(E11 2763.032s V)	[400/1000 (39%)]	Loss: 1.021764	Score:  75.052%
(E11 2763.573s V)	[416/1000 (41%)]	Loss: 0.886032	Score:  79.224%
(E11 2764.115s V)	[432/1000 (42%)]	Loss: 0.960086	Score:  76.580%
(E11 2764.654s V)	[448/1000 (44%)]	Loss: 0.906783	Score:  78.684%
(E11 2765.194s V)	[464/1000 (45%)]	Loss: 0.999971	Score:  75.779%
(E11 2765.737s V)	[480/1000 (47%)]	Loss: 0.929973	Score:  77.959%
(E11 2765.912s V)	[124/1000 (48%)]	Loss: 0.708374	Score:  82.781%
(E11 2781.418s V)	[512/1000 (50%)]	Loss: 0.951300	Score:  77.519%
(E11 2781.954s V)	[528/1000 (52%)]	Loss: 0.927773	Score:  78.526%
(E11 2782.490s V)	[544/1000 (53%)]	Loss: 0.995982	Score:  76.149%
(E11 2783.025s V)	[560/1000 (55%)]	Loss: 1.072930	Score:  75.338%
(E11 2783.559s V)	[576/1000 (56%)]	Loss: 0.996501	Score:  76.192%
(E11 2784.097s V)	[592/1000 (58%)]	Loss: 1.088662	Score:  74.392%
(E11 2784.633s V)	[608/1000 (59%)]	Loss: 0.980431	Score:  76.335%
(E11 2785.174s V)	[624/1000 (61%)]	Loss: 0.915360	Score:  78.532%
(E11 2785.717s V)	[640/1000 (62%)]	Loss: 1.033800	Score:  74.555%
(E11 2786.259s V)	[656/1000 (64%)]	Loss: 0.957123	Score:  77.305%
(E11 2786.795s V)	[672/1000 (66%)]	Loss: 0.862014	Score:  79.607%
(E11 2787.335s V)	[688/1000 (67%)]	Loss: 1.013231	Score:  75.209%
(E11 2787.877s V)	[704/1000 (69%)]	Loss: 0.956424	Score:  77.436%
(E11 2788.414s V)	[720/1000 (70%)]	Loss: 0.930416	Score:  78.178%
(E11 2788.954s V)	[736/1000 (72%)]	Loss: 0.986818	Score:  76.935%
(E11 2789.493s V)	[752/1000 (73%)]	Loss: 0.993240	Score:  76.724%
(E11 2790.036s V)	[768/1000 (75%)]	Loss: 0.926463	Score:  77.691%
(E11 2790.575s V)	[784/1000 (77%)]	Loss: 0.990496	Score:  76.061%
(E11 2791.118s V)	[800/1000 (78%)]	Loss: 0.964066	Score:  77.839%
(E11 2791.654s V)	[816/1000 (80%)]	Loss: 0.908340	Score:  79.094%
(E11 2792.192s V)	[832/1000 (81%)]	Loss: 0.852139	Score:  80.371%
(E11 2792.729s V)	[848/1000 (83%)]	Loss: 1.039756	Score:  75.136%
(E11 2793.267s V)	[864/1000 (84%)]	Loss: 1.131291	Score:  70.104%
(E11 2793.807s V)	[880/1000 (86%)]	Loss: 0.891818	Score:  78.933%
(E11 2794.347s V)	[896/1000 (88%)]	Loss: 0.990691	Score:  75.965%
(E11 2794.886s V)	[912/1000 (89%)]	Loss: 0.966848	Score:  77.568%
(E11 2795.420s V)	[928/1000 (91%)]	Loss: 0.867590	Score:  79.417%
(E11 2795.956s V)	[944/1000 (92%)]	Loss: 0.926697	Score:  78.729%
(E11 2796.491s V)	[960/1000 (94%)]	Loss: 1.041179	Score:  73.909%
(E11 2797.027s V)	[976/1000 (95%)]	Loss: 1.000835	Score:  77.006%
(E11 2797.563s V)	[992/1000 (97%)]	Loss: 0.875816	Score:  79.202%
(E11 2797.738s V)	[252/1000 (98%)]	Loss: 0.779859	Score:  82.257%
graph(%0 : Float(4, 3, 256, 256),
      %1 : Float(40, 3, 3, 3),
      %2 : Float(40),
      %3 : Float(40, 40, 3, 3),
      %4 : Float(40),
      %5 : Float(80, 40, 3, 3),
      %6 : Float(80),
      %7 : Float(80, 80, 3, 3),
      %8 : Float(80),
      %9 : Float(160, 80, 3, 3),
      %10 : Float(160),
      %11 : Float(160, 160, 3, 3),
      %12 : Float(160),
      %13 : Float(320, 160, 3, 3),
      %14 : Float(320),
      %15 : Float(320, 320, 3, 3),
      %16 : Float(320),
      %17 : Float(320, 160, 4, 4),
      %18 : Float(160),
      %19 : Float(160, 80, 4, 4),
      %20 : Float(80),
      %21 : Float(80, 40, 4, 4),
      %22 : Float(40),
      %23 : Float(160, 320, 3, 3),
      %24 : Float(160),
      %25 : Float(160, 160, 3, 3),
      %26 : Float(160),
      %27 : Float(80, 160, 3, 3),
      %28 : Float(80),
      %29 : Float(80, 80, 3, 3),
      %30 : Float(80),
      %31 : Float(40, 80, 3, 3),
      %32 : Float(40),
      %33 : Float(30, 40, 3, 3),
      %34 : Float(30)):
  %35 : Float(4, 40, 256, 256) = onnx::Conv[dilations=[1, 1], group=1, kernel_shape=[3, 3], pads=[1, 1, 1, 1], strides=[1, 1]](%0, %1, %2), scope: FCN/Sequential/Conv2d[0]
  %36 : Float(4, 40, 256, 256) = onnx::Relu(%35), scope: FCN/Sequential/ReLU[1]
  %37 : Float(4, 40, 256, 256) = onnx::Conv[dilations=[1, 1], group=1, kernel_shape=[3, 3], pads=[1, 1, 1, 1], strides=[1, 1]](%36, %3, %4), scope: FCN/Sequential/Conv2d[2]
  %38 : Float(4, 40, 256, 256) = onnx::Relu(%37), scope: FCN/Sequential/ReLU[3]
  %39 : Float(4, 40, 128, 128) = onnx::MaxPool[kernel_shape=[2, 2], pads=[0, 0, 0, 0], strides=[2, 2]](%38), scope: FCN/MaxPool2d
  %40 : Float(4, 80, 128, 128) = onnx::Conv[dilations=[1, 1], group=1, kernel_shape=[3, 3], pads=[1, 1, 1, 1], strides=[1, 1]](%39, %5, %6), scope: FCN/Sequential/Conv2d[0]
  %41 : Float(4, 80, 128, 128) = onnx::Relu(%40), scope: FCN/Sequential/ReLU[1]
  %42 : Float(4, 80, 128, 128) = onnx::Conv[dilations=[1, 1], group=1, kernel_shape=[3, 3], pads=[1, 1, 1, 1], strides=[1, 1]](%41, %7, %8), scope: FCN/Sequential/Conv2d[2]
  %43 : Float(4, 80, 128, 128) = onnx::Relu(%42), scope: FCN/Sequential/ReLU[3]
  %44 : Float(4, 80, 64, 64) = onnx::MaxPool[kernel_shape=[2, 2], pads=[0, 0, 0, 0], strides=[2, 2]](%43), scope: FCN/MaxPool2d
  %45 : Float(4, 160, 64, 64) = onnx::Conv[dilations=[1, 1], group=1, kernel_shape=[3, 3], pads=[1, 1, 1, 1], strides=[1, 1]](%44, %9, %10), scope: FCN/Sequential/Conv2d[0]
  %46 : Float(4, 160, 64, 64) = onnx::Relu(%45), scope: FCN/Sequential/ReLU[1]
  %47 : Float(4, 160, 64, 64) = onnx::Conv[dilations=[1, 1], group=1, kernel_shape=[3, 3], pads=[1, 1, 1, 1], strides=[1, 1]](%46, %11, %12), scope: FCN/Sequential/Conv2d[2]
  %48 : Float(4, 160, 64, 64) = onnx::Relu(%47), scope: FCN/Sequential/ReLU[3]
  %49 : Float(4, 160, 32, 32) = onnx::MaxPool[kernel_shape=[2, 2], pads=[0, 0, 0, 0], strides=[2, 2]](%48), scope: FCN/MaxPool2d
  %50 : Float(4, 320, 32, 32) = onnx::Conv[dilations=[1, 1], group=1, kernel_shape=[3, 3], pads=[1, 1, 1, 1], strides=[1, 1]](%49, %13, %14), scope: FCN/Sequential[intermediate]/Conv2d[0]
  %51 : Float(4, 320, 32, 32) = onnx::Relu(%50), scope: FCN/Sequential[intermediate]/ReLU[1]
  %52 : Float(4, 320, 32, 32) = onnx::Conv[dilations=[1, 1], group=1, kernel_shape=[3, 3], pads=[1, 1, 1, 1], strides=[1, 1]](%51, %15, %16), scope: FCN/Sequential[intermediate]/Conv2d[2]
  %53 : Float(4, 320, 32, 32) = onnx::Relu(%52), scope: FCN/Sequential[intermediate]/ReLU[3]
  %54 : Float(4, 160, 64, 64) = onnx::ConvTranspose[dilations=[1, 1], group=1, kernel_shape=[4, 4], pads=[1, 1, 1, 1], strides=[2, 2]](%53, %17, %18), scope: FCN/ConvTranspose2d
  %55 : Float(4, 320, 64, 64) = onnx::Concat[axis=1](%54, %48), scope: FCN
  %56 : Float(4, 160, 64, 64) = onnx::Conv[dilations=[1, 1], group=1, kernel_shape=[3, 3], pads=[1, 1, 1, 1], strides=[1, 1]](%55, %23, %24), scope: FCN/Sequential/Conv2d[0]
  %57 : Float(4, 160, 64, 64) = onnx::Relu(%56), scope: FCN/Sequential/ReLU[1]
  %58 : Float(4, 160, 64, 64) = onnx::Conv[dilations=[1, 1], group=1, kernel_shape=[3, 3], pads=[1, 1, 1, 1], strides=[1, 1]](%57, %25, %26), scope: FCN/Sequential/Conv2d[2]
  %59 : Float(4, 160, 64, 64) = onnx::Relu(%58), scope: FCN/Sequential/ReLU[3]
  %60 : Float(4, 80, 128, 128) = onnx::ConvTranspose[dilations=[1, 1], group=1, kernel_shape=[4, 4], pads=[1, 1, 1, 1], strides=[2, 2]](%59, %19, %20), scope: FCN/ConvTranspose2d
  %61 : Float(4, 160, 128, 128) = onnx::Concat[axis=1](%60, %43), scope: FCN
  %62 : Float(4, 80, 128, 128) = onnx::Conv[dilations=[1, 1], group=1, kernel_shape=[3, 3], pads=[1, 1, 1, 1], strides=[1, 1]](%61, %27, %28), scope: FCN/Sequential/Conv2d[0]
  %63 : Float(4, 80, 128, 128) = onnx::Relu(%62), scope: FCN/Sequential/ReLU[1]
  %64 : Float(4, 80, 128, 128) = onnx::Conv[dilations=[1, 1], group=1, kernel_shape=[3, 3], pads=[1, 1, 1, 1], strides=[1, 1]](%63, %29, %30), scope: FCN/Sequential/Conv2d[2]
  %65 : Float(4, 80, 128, 128) = onnx::Relu(%64), scope: FCN/Sequential/ReLU[3]
  %66 : Float(4, 40, 256, 256) = onnx::ConvTranspose[dilations=[1, 1], group=1, kernel_shape=[4, 4], pads=[1, 1, 1, 1], strides=[2, 2]](%65, %21, %22), scope: FCN/ConvTranspose2d
  %67 : Float(4, 80, 256, 256) = onnx::Concat[axis=1](%66, %38), scope: FCN
  %68 : Float(4, 40, 256, 256) = onnx::Conv[dilations=[1, 1], group=1, kernel_shape=[3, 3], pads=[1, 1, 1, 1], strides=[1, 1]](%67, %31, %32), scope: FCN/Sequential/Conv2d[0]
  %69 : Float(4, 40, 256, 256) = onnx::Relu(%68), scope: FCN/Sequential/ReLU[1]
  %70 : Float(4, 30, 256, 256) = onnx::Conv[dilations=[1, 1], group=1, kernel_shape=[3, 3], pads=[1, 1, 1, 1], strides=[1, 1]](%69, %33, %34), scope: FCN/Sequential/Conv2d[2]
  %71 : Float(4, 30, 256, 256) = onnx::Relu(%70), scope: FCN/Sequential/ReLU[3]
  return (%71)


Test set: Average loss: 0.9615, Score: (77.14%)

Saving the model serialization to /home/mb385130/task2/model-epoch-10
(E12 2812.821s T)	[0/2975 (0%)]	Loss: 0.870170	Score:  78.880%
(E12 2825.735s T)	[16/2975 (1%)]	Loss: 0.993580	Score:  76.120%
(E12 2826.963s T)	[32/2975 (1%)]	Loss: 0.868145	Score:  79.229%
(E12 2827.923s T)	[48/2975 (2%)]	Loss: 0.859635	Score:  79.153%
(E12 2828.883s T)	[64/2975 (2%)]	Loss: 0.930760	Score:  77.346%
(E12 2829.850s T)	[80/2975 (3%)]	Loss: 0.887853	Score:  79.496%
(E12 2830.835s T)	[96/2975 (3%)]	Loss: 0.819637	Score:  80.613%
(E12 2831.792s T)	[112/2975 (4%)]	Loss: 0.820032	Score:  81.058%
(E12 2832.750s T)	[128/2975 (4%)]	Loss: 0.968397	Score:  76.414%
(E12 2833.715s T)	[144/2975 (5%)]	Loss: 0.942705	Score:  77.243%
(E12 2834.672s T)	[160/2975 (5%)]	Loss: 0.824416	Score:  80.104%
(E12 2835.636s T)	[176/2975 (6%)]	Loss: 1.009976	Score:  76.718%
(E12 2836.597s T)	[192/2975 (6%)]	Loss: 0.988638	Score:  76.761%
(E12 2837.554s T)	[208/2975 (7%)]	Loss: 0.955773	Score:  77.925%
(E12 2838.522s T)	[224/2975 (8%)]	Loss: 1.013884	Score:  75.826%
(E12 2839.491s T)	[240/2975 (8%)]	Loss: 1.124098	Score:  71.945%
(E12 2840.468s T)	[256/2975 (9%)]	Loss: 0.897180	Score:  79.224%
(E12 2841.437s T)	[272/2975 (9%)]	Loss: 0.832168	Score:  79.922%
(E12 2842.403s T)	[288/2975 (10%)]	Loss: 1.023762	Score:  75.732%
(E12 2843.360s T)	[304/2975 (10%)]	Loss: 1.035059	Score:  75.463%
(E12 2844.321s T)	[320/2975 (11%)]	Loss: 1.028780	Score:  76.527%
(E12 2845.281s T)	[336/2975 (11%)]	Loss: 1.078102	Score:  73.990%
(E12 2846.248s T)	[352/2975 (12%)]	Loss: 0.862626	Score:  80.669%
(E12 2847.207s T)	[368/2975 (12%)]	Loss: 0.876968	Score:  80.389%
(E12 2848.169s T)	[384/2975 (13%)]	Loss: 0.952864	Score:  78.159%
(E12 2849.132s T)	[400/2975 (13%)]	Loss: 1.017569	Score:  76.289%
(E12 2850.094s T)	[416/2975 (14%)]	Loss: 0.886659	Score:  77.858%
(E12 2851.075s T)	[432/2975 (15%)]	Loss: 1.005287	Score:  77.354%
(E12 2852.040s T)	[448/2975 (15%)]	Loss: 0.981095	Score:  76.115%
(E12 2853.012s T)	[464/2975 (16%)]	Loss: 0.915782	Score:  78.221%
(E12 2853.980s T)	[480/2975 (16%)]	Loss: 0.857737	Score:  80.290%
(E12 2854.932s T)	[496/2975 (17%)]	Loss: 1.043237	Score:  75.595%
(E12 2855.904s T)	[512/2975 (17%)]	Loss: 0.948030	Score:  77.903%
(E12 2856.869s T)	[528/2975 (18%)]	Loss: 0.918734	Score:  78.310%
(E12 2857.825s T)	[544/2975 (18%)]	Loss: 0.905373	Score:  78.163%
(E12 2858.793s T)	[560/2975 (19%)]	Loss: 0.917174	Score:  79.235%
(E12 2859.765s T)	[576/2975 (19%)]	Loss: 0.972396	Score:  77.277%
(E12 2860.733s T)	[592/2975 (20%)]	Loss: 0.946882	Score:  78.268%
(E12 2861.703s T)	[608/2975 (20%)]	Loss: 0.826521	Score:  80.209%
(E12 2862.670s T)	[624/2975 (21%)]	Loss: 1.091684	Score:  72.306%
(E12 2863.640s T)	[640/2975 (22%)]	Loss: 0.985616	Score:  77.151%
(E12 2864.607s T)	[656/2975 (22%)]	Loss: 1.009451	Score:  74.815%
(E12 2865.571s T)	[672/2975 (23%)]	Loss: 0.839973	Score:  80.129%
(E12 2866.523s T)	[688/2975 (23%)]	Loss: 0.826997	Score:  80.343%
(E12 2867.471s T)	[704/2975 (24%)]	Loss: 1.035073	Score:  75.893%
(E12 2868.443s T)	[720/2975 (24%)]	Loss: 0.967381	Score:  77.298%
(E12 2869.415s T)	[736/2975 (25%)]	Loss: 0.822405	Score:  80.608%
(E12 2870.383s T)	[752/2975 (25%)]	Loss: 0.944475	Score:  78.403%
(E12 2871.351s T)	[768/2975 (26%)]	Loss: 0.961941	Score:  77.106%
(E12 2872.314s T)	[784/2975 (26%)]	Loss: 1.000700	Score:  76.387%
(E12 2873.271s T)	[800/2975 (27%)]	Loss: 0.965010	Score:  77.236%
(E12 2874.241s T)	[816/2975 (27%)]	Loss: 1.003173	Score:  75.612%
(E12 2875.201s T)	[832/2975 (28%)]	Loss: 0.994493	Score:  75.856%
(E12 2876.175s T)	[848/2975 (28%)]	Loss: 0.982108	Score:  77.161%
(E12 2877.131s T)	[864/2975 (29%)]	Loss: 1.010695	Score:  75.814%
(E12 2878.101s T)	[880/2975 (30%)]	Loss: 0.965191	Score:  76.299%
(E12 2879.070s T)	[896/2975 (30%)]	Loss: 0.857324	Score:  80.194%
(E12 2880.029s T)	[912/2975 (31%)]	Loss: 0.989586	Score:  77.120%
(E12 2880.995s T)	[928/2975 (31%)]	Loss: 0.859472	Score:  80.115%
(E12 2881.963s T)	[944/2975 (32%)]	Loss: 0.946474	Score:  77.806%
(E12 2882.931s T)	[960/2975 (32%)]	Loss: 0.894436	Score:  78.782%
(E12 2883.893s T)	[976/2975 (33%)]	Loss: 0.989900	Score:  76.820%
(E12 2884.861s T)	[992/2975 (33%)]	Loss: 0.803270	Score:  80.892%
(E12 2885.830s T)	[1008/2975 (34%)]	Loss: 0.919288	Score:  78.499%
(E12 2886.795s T)	[1024/2975 (34%)]	Loss: 0.916316	Score:  78.762%
(E12 2887.758s T)	[1040/2975 (35%)]	Loss: 0.899235	Score:  78.697%
(E12 2888.723s T)	[1056/2975 (35%)]	Loss: 1.169550	Score:  71.851%
(E12 2889.703s T)	[1072/2975 (36%)]	Loss: 1.046177	Score:  74.293%
(E12 2890.665s T)	[1088/2975 (37%)]	Loss: 0.937561	Score:  77.655%
(E12 2891.643s T)	[1104/2975 (37%)]	Loss: 0.878881	Score:  79.178%
(E12 2892.612s T)	[1120/2975 (38%)]	Loss: 0.986750	Score:  76.585%
(E12 2893.585s T)	[1136/2975 (38%)]	Loss: 0.777755	Score:  81.678%
(E12 2894.564s T)	[1152/2975 (39%)]	Loss: 0.898522	Score:  78.470%
(E12 2895.555s T)	[1168/2975 (39%)]	Loss: 0.986069	Score:  77.244%
(E12 2896.494s T)	[1184/2975 (40%)]	Loss: 0.955519	Score:  78.027%
(E12 2897.455s T)	[1200/2975 (40%)]	Loss: 0.890282	Score:  78.397%
(E12 2898.431s T)	[1216/2975 (41%)]	Loss: 0.966868	Score:  77.169%
(E12 2899.407s T)	[1232/2975 (41%)]	Loss: 1.028383	Score:  75.490%
(E12 2900.375s T)	[1248/2975 (42%)]	Loss: 0.956158	Score:  77.644%
(E12 2901.343s T)	[1264/2975 (42%)]	Loss: 1.031790	Score:  75.362%
(E12 2902.308s T)	[1280/2975 (43%)]	Loss: 0.981835	Score:  76.335%
(E12 2903.272s T)	[1296/2975 (44%)]	Loss: 1.068200	Score:  75.964%
(E12 2904.238s T)	[1312/2975 (44%)]	Loss: 0.865477	Score:  79.586%
(E12 2905.200s T)	[1328/2975 (45%)]	Loss: 1.095040	Score:  73.928%
(E12 2906.174s T)	[1344/2975 (45%)]	Loss: 1.040380	Score:  74.230%
(E12 2907.156s T)	[1360/2975 (46%)]	Loss: 1.006501	Score:  75.274%
(E12 2908.120s T)	[1376/2975 (46%)]	Loss: 0.961980	Score:  77.088%
(E12 2909.091s T)	[1392/2975 (47%)]	Loss: 1.006537	Score:  75.580%
(E12 2910.052s T)	[1408/2975 (47%)]	Loss: 1.061777	Score:  74.237%
(E12 2911.014s T)	[1424/2975 (48%)]	Loss: 0.982213	Score:  76.280%
(E12 2911.983s T)	[1440/2975 (48%)]	Loss: 0.939479	Score:  77.826%
(E12 2912.943s T)	[1456/2975 (49%)]	Loss: 1.019598	Score:  74.372%
(E12 2913.907s T)	[1472/2975 (49%)]	Loss: 1.056291	Score:  75.548%
(E12 2914.863s T)	[1488/2975 (50%)]	Loss: 0.848238	Score:  80.782%
(E12 2915.825s T)	[1504/2975 (51%)]	Loss: 0.931361	Score:  78.170%
(E12 2916.783s T)	[1520/2975 (51%)]	Loss: 0.802177	Score:  81.600%
(E12 2917.760s T)	[1536/2975 (52%)]	Loss: 0.968803	Score:  76.385%
(E12 2918.723s T)	[1552/2975 (52%)]	Loss: 0.940929	Score:  78.139%
(E12 2919.701s T)	[1568/2975 (53%)]	Loss: 0.949823	Score:  75.543%
(E12 2920.670s T)	[1584/2975 (53%)]	Loss: 0.921687	Score:  78.106%
(E12 2921.632s T)	[1600/2975 (54%)]	Loss: 0.835753	Score:  80.196%
(E12 2922.600s T)	[1616/2975 (54%)]	Loss: 0.978481	Score:  77.178%
(E12 2923.560s T)	[1632/2975 (55%)]	Loss: 1.083940	Score:  74.078%
(E12 2924.534s T)	[1648/2975 (55%)]	Loss: 0.938739	Score:  77.184%
(E12 2925.505s T)	[1664/2975 (56%)]	Loss: 0.980336	Score:  76.182%
(E12 2926.487s T)	[1680/2975 (56%)]	Loss: 0.856202	Score:  79.611%
(E12 2927.458s T)	[1696/2975 (57%)]	Loss: 0.839904	Score:  80.550%
(E12 2928.411s T)	[1712/2975 (58%)]	Loss: 1.002098	Score:  72.727%
(E12 2929.375s T)	[1728/2975 (58%)]	Loss: 0.797109	Score:  81.401%
(E12 2930.335s T)	[1744/2975 (59%)]	Loss: 0.927911	Score:  79.107%
(E12 2931.303s T)	[1760/2975 (59%)]	Loss: 0.931495	Score:  77.639%
(E12 2932.282s T)	[1776/2975 (60%)]	Loss: 1.080563	Score:  74.574%
(E12 2933.242s T)	[1792/2975 (60%)]	Loss: 0.953705	Score:  77.259%
(E12 2934.221s T)	[1808/2975 (61%)]	Loss: 1.069172	Score:  73.873%
(E12 2935.200s T)	[1824/2975 (61%)]	Loss: 0.964438	Score:  77.081%
(E12 2936.168s T)	[1840/2975 (62%)]	Loss: 1.111653	Score:  74.015%
(E12 2937.131s T)	[1856/2975 (62%)]	Loss: 0.861873	Score:  79.859%
(E12 2938.093s T)	[1872/2975 (63%)]	Loss: 0.897864	Score:  79.069%
(E12 2939.072s T)	[1888/2975 (63%)]	Loss: 0.901307	Score:  78.768%
(E12 2940.044s T)	[1904/2975 (64%)]	Loss: 0.811044	Score:  81.206%
(E12 2941.007s T)	[1920/2975 (65%)]	Loss: 0.789632	Score:  80.779%
(E12 2941.963s T)	[1936/2975 (65%)]	Loss: 1.073263	Score:  75.182%
(E12 2942.894s T)	[1952/2975 (66%)]	Loss: 1.040590	Score:  75.012%
(E12 2943.598s T)	[1968/2975 (66%)]	Loss: 0.851429	Score:  79.479%
(E12 2944.308s T)	[1984/2975 (67%)]	Loss: 0.927548	Score:  77.179%
(E12 2945.012s T)	[2000/2975 (67%)]	Loss: 0.888825	Score:  79.743%
(E12 2945.708s T)	[2016/2975 (68%)]	Loss: 1.100247	Score:  74.333%
(E12 2946.402s T)	[2032/2975 (68%)]	Loss: 0.982200	Score:  75.028%
(E12 2947.098s T)	[2048/2975 (69%)]	Loss: 0.812503	Score:  81.003%
(E12 2947.796s T)	[2064/2975 (69%)]	Loss: 0.955001	Score:  77.176%
(E12 2948.496s T)	[2080/2975 (70%)]	Loss: 0.942109	Score:  78.053%
(E12 2949.193s T)	[2096/2975 (70%)]	Loss: 0.839329	Score:  79.473%
(E12 2949.895s T)	[2112/2975 (71%)]	Loss: 0.988177	Score:  76.109%
(E12 2950.594s T)	[2128/2975 (72%)]	Loss: 0.999370	Score:  76.660%
(E12 2951.295s T)	[2144/2975 (72%)]	Loss: 0.909581	Score:  78.640%
(E12 2951.998s T)	[2160/2975 (73%)]	Loss: 1.054398	Score:  75.303%
(E12 2952.700s T)	[2176/2975 (73%)]	Loss: 0.989084	Score:  76.014%
(E12 2953.406s T)	[2192/2975 (74%)]	Loss: 0.826509	Score:  80.417%
(E12 2954.105s T)	[2208/2975 (74%)]	Loss: 1.063994	Score:  74.973%
(E12 2954.807s T)	[2224/2975 (75%)]	Loss: 0.860887	Score:  79.255%
(E12 2955.513s T)	[2240/2975 (75%)]	Loss: 0.871746	Score:  79.419%
(E12 2956.220s T)	[2256/2975 (76%)]	Loss: 0.808550	Score:  81.120%
(E12 2956.926s T)	[2272/2975 (76%)]	Loss: 1.182684	Score:  73.110%
(E12 2957.627s T)	[2288/2975 (77%)]	Loss: 0.893297	Score:  78.915%
(E12 2958.329s T)	[2304/2975 (77%)]	Loss: 0.909244	Score:  78.570%
(E12 2959.028s T)	[2320/2975 (78%)]	Loss: 1.142385	Score:  73.549%
(E12 2959.728s T)	[2336/2975 (78%)]	Loss: 0.954996	Score:  77.143%
(E12 2960.429s T)	[2352/2975 (79%)]	Loss: 0.911415	Score:  78.300%
(E12 2961.128s T)	[2368/2975 (80%)]	Loss: 1.032855	Score:  76.039%
(E12 2961.833s T)	[2384/2975 (80%)]	Loss: 0.968738	Score:  76.054%
(E12 2962.535s T)	[2400/2975 (81%)]	Loss: 0.881594	Score:  78.263%
(E12 2963.230s T)	[2416/2975 (81%)]	Loss: 1.048933	Score:  74.760%
(E12 2963.930s T)	[2432/2975 (82%)]	Loss: 0.988561	Score:  76.394%
(E12 2964.634s T)	[2448/2975 (82%)]	Loss: 0.871565	Score:  79.523%
(E12 2965.338s T)	[2464/2975 (83%)]	Loss: 0.964893	Score:  77.615%
(E12 2966.036s T)	[2480/2975 (83%)]	Loss: 0.964092	Score:  77.157%
(E12 2966.738s T)	[2496/2975 (84%)]	Loss: 1.071703	Score:  74.567%
(E12 2967.439s T)	[2512/2975 (84%)]	Loss: 1.054301	Score:  74.636%
(E12 2968.135s T)	[2528/2975 (85%)]	Loss: 0.928149	Score:  78.011%
(E12 2968.836s T)	[2544/2975 (85%)]	Loss: 0.845938	Score:  80.254%
(E12 2969.541s T)	[2560/2975 (86%)]	Loss: 0.987190	Score:  76.783%
(E12 2970.237s T)	[2576/2975 (87%)]	Loss: 1.131630	Score:  73.094%
(E12 2970.939s T)	[2592/2975 (87%)]	Loss: 0.939995	Score:  77.997%
(E12 2971.639s T)	[2608/2975 (88%)]	Loss: 0.852470	Score:  79.166%
(E12 2972.339s T)	[2624/2975 (88%)]	Loss: 0.929596	Score:  78.522%
(E12 2973.044s T)	[2640/2975 (89%)]	Loss: 0.903279	Score:  78.683%
(E12 2973.741s T)	[2656/2975 (89%)]	Loss: 0.964948	Score:  77.095%
(E12 2974.442s T)	[2672/2975 (90%)]	Loss: 0.899789	Score:  78.577%
(E12 2975.140s T)	[2688/2975 (90%)]	Loss: 0.936381	Score:  77.770%
(E12 2975.838s T)	[2704/2975 (91%)]	Loss: 0.875856	Score:  79.151%
(E12 2976.541s T)	[2720/2975 (91%)]	Loss: 0.848561	Score:  80.058%
(E12 2977.241s T)	[2736/2975 (92%)]	Loss: 1.064173	Score:  74.761%
(E12 2977.941s T)	[2752/2975 (92%)]	Loss: 1.065382	Score:  75.774%
(E12 2978.640s T)	[2768/2975 (93%)]	Loss: 0.884607	Score:  79.301%
(E12 2979.340s T)	[2784/2975 (94%)]	Loss: 0.951405	Score:  77.187%
(E12 2980.038s T)	[2800/2975 (94%)]	Loss: 0.852259	Score:  80.060%
(E12 2980.741s T)	[2816/2975 (95%)]	Loss: 0.918959	Score:  76.965%
(E12 2981.443s T)	[2832/2975 (95%)]	Loss: 0.944740	Score:  77.258%
(E12 2982.148s T)	[2848/2975 (96%)]	Loss: 1.075271	Score:  73.354%
(E12 2982.852s T)	[2864/2975 (96%)]	Loss: 1.051850	Score:  76.043%
(E12 2983.553s T)	[2880/2975 (97%)]	Loss: 0.939301	Score:  76.692%
(E12 2984.254s T)	[2896/2975 (97%)]	Loss: 1.062292	Score:  74.372%
(E12 2984.958s T)	[2912/2975 (98%)]	Loss: 0.830179	Score:  81.070%
(E12 2985.658s T)	[2928/2975 (98%)]	Loss: 1.028827	Score:  76.431%
(E12 2986.366s T)	[2944/2975 (99%)]	Loss: 0.939368	Score:  76.222%
(E12 2987.054s T)	[2775/2975 (99%)]	Loss: 0.836926	Score:  80.650%
(E12 3002.921s V)	[0/1000 (0%)]	Loss: 1.043498	Score:  74.001%
(E12 3003.456s V)	[16/1000 (2%)]	Loss: 0.935388	Score:  77.396%
(E12 3003.988s V)	[32/1000 (3%)]	Loss: 0.873160	Score:  79.843%
(E12 3004.520s V)	[48/1000 (5%)]	Loss: 1.016817	Score:  76.888%
(E12 3005.056s V)	[64/1000 (6%)]	Loss: 1.010536	Score:  75.821%
(E12 3005.589s V)	[80/1000 (8%)]	Loss: 1.006608	Score:  76.145%
(E12 3006.127s V)	[96/1000 (9%)]	Loss: 1.098317	Score:  75.366%
(E12 3006.664s V)	[112/1000 (11%)]	Loss: 0.873977	Score:  79.645%
(E12 3007.204s V)	[128/1000 (12%)]	Loss: 0.959303	Score:  77.834%
(E12 3007.744s V)	[144/1000 (14%)]	Loss: 0.803453	Score:  80.726%
(E12 3008.286s V)	[160/1000 (16%)]	Loss: 1.158702	Score:  72.544%
(E12 3008.826s V)	[176/1000 (17%)]	Loss: 0.936947	Score:  78.198%
(E12 3009.365s V)	[192/1000 (19%)]	Loss: 1.017821	Score:  75.887%
(E12 3009.900s V)	[208/1000 (20%)]	Loss: 0.816762	Score:  80.443%
(E12 3010.435s V)	[224/1000 (22%)]	Loss: 0.899955	Score:  78.654%
(E12 3010.975s V)	[240/1000 (23%)]	Loss: 1.032454	Score:  76.361%
(E12 3011.509s V)	[256/1000 (25%)]	Loss: 0.919786	Score:  79.341%
(E12 3012.048s V)	[272/1000 (27%)]	Loss: 1.072402	Score:  74.081%
(E12 3012.596s V)	[288/1000 (28%)]	Loss: 1.051523	Score:  75.534%
(E12 3013.134s V)	[304/1000 (30%)]	Loss: 0.860008	Score:  80.654%
(E12 3013.675s V)	[320/1000 (31%)]	Loss: 1.118268	Score:  71.304%
(E12 3014.211s V)	[336/1000 (33%)]	Loss: 0.964484	Score:  77.175%
(E12 3014.750s V)	[352/1000 (34%)]	Loss: 0.890814	Score:  78.661%
(E12 3015.290s V)	[368/1000 (36%)]	Loss: 1.032202	Score:  76.475%
(E12 3015.826s V)	[384/1000 (38%)]	Loss: 0.987814	Score:  77.054%
(E12 3016.364s V)	[400/1000 (39%)]	Loss: 0.841968	Score:  80.435%
(E12 3016.903s V)	[416/1000 (41%)]	Loss: 1.017276	Score:  75.272%
(E12 3017.440s V)	[432/1000 (42%)]	Loss: 0.804472	Score:  81.233%
(E12 3017.977s V)	[448/1000 (44%)]	Loss: 0.777864	Score:  82.355%
(E12 3018.516s V)	[464/1000 (45%)]	Loss: 1.017763	Score:  75.057%
(E12 3019.054s V)	[480/1000 (47%)]	Loss: 1.000827	Score:  76.406%
(E12 3019.230s V)	[124/1000 (48%)]	Loss: 0.662100	Score:  84.681%
(E12 3034.645s V)	[512/1000 (50%)]	Loss: 0.961006	Score:  77.383%
(E12 3035.192s V)	[528/1000 (52%)]	Loss: 0.844921	Score:  79.877%
(E12 3035.751s V)	[544/1000 (53%)]	Loss: 1.038227	Score:  74.575%
(E12 3036.292s V)	[560/1000 (55%)]	Loss: 0.881902	Score:  78.126%
(E12 3036.831s V)	[576/1000 (56%)]	Loss: 0.897493	Score:  79.642%
(E12 3037.373s V)	[592/1000 (58%)]	Loss: 0.954253	Score:  77.527%
(E12 3037.915s V)	[608/1000 (59%)]	Loss: 1.006559	Score:  75.801%
(E12 3038.454s V)	[624/1000 (61%)]	Loss: 0.966167	Score:  78.034%
(E12 3038.995s V)	[640/1000 (62%)]	Loss: 0.931711	Score:  78.127%
(E12 3039.531s V)	[656/1000 (64%)]	Loss: 1.109463	Score:  73.607%
(E12 3040.074s V)	[672/1000 (66%)]	Loss: 0.888979	Score:  79.383%
(E12 3040.613s V)	[688/1000 (67%)]	Loss: 0.960969	Score:  76.871%
(E12 3041.151s V)	[704/1000 (69%)]	Loss: 0.960110	Score:  77.082%
(E12 3041.686s V)	[720/1000 (70%)]	Loss: 0.933121	Score:  77.781%
(E12 3042.224s V)	[736/1000 (72%)]	Loss: 0.899205	Score:  78.904%
(E12 3042.765s V)	[752/1000 (73%)]	Loss: 1.080911	Score:  76.519%
(E12 3043.305s V)	[768/1000 (75%)]	Loss: 0.958972	Score:  78.012%
(E12 3043.845s V)	[784/1000 (77%)]	Loss: 1.103063	Score:  73.710%
(E12 3044.381s V)	[800/1000 (78%)]	Loss: 1.058813	Score:  74.711%
(E12 3044.923s V)	[816/1000 (80%)]	Loss: 1.083442	Score:  74.533%
(E12 3045.462s V)	[832/1000 (81%)]	Loss: 0.783761	Score:  82.080%
(E12 3046.001s V)	[848/1000 (83%)]	Loss: 1.184890	Score:  72.121%
(E12 3046.539s V)	[864/1000 (84%)]	Loss: 1.062612	Score:  75.554%
(E12 3047.079s V)	[880/1000 (86%)]	Loss: 0.810872	Score:  80.939%
(E12 3047.616s V)	[896/1000 (88%)]	Loss: 1.047004	Score:  76.412%
(E12 3048.154s V)	[912/1000 (89%)]	Loss: 0.875044	Score:  79.642%
(E12 3048.696s V)	[928/1000 (91%)]	Loss: 0.871701	Score:  79.597%
(E12 3049.232s V)	[944/1000 (92%)]	Loss: 0.838828	Score:  80.077%
(E12 3049.768s V)	[960/1000 (94%)]	Loss: 1.053397	Score:  74.815%
(E12 3050.302s V)	[976/1000 (95%)]	Loss: 0.892245	Score:  78.664%
(E12 3050.841s V)	[992/1000 (97%)]	Loss: 0.860689	Score:  78.389%
(E12 3051.013s V)	[252/1000 (98%)]	Loss: 1.011347	Score:  76.118%
graph(%0 : Float(4, 3, 256, 256),
      %1 : Float(40, 3, 3, 3),
      %2 : Float(40),
      %3 : Float(40, 40, 3, 3),
      %4 : Float(40),
      %5 : Float(80, 40, 3, 3),
      %6 : Float(80),
      %7 : Float(80, 80, 3, 3),
      %8 : Float(80),
      %9 : Float(160, 80, 3, 3),
      %10 : Float(160),
      %11 : Float(160, 160, 3, 3),
      %12 : Float(160),
      %13 : Float(320, 160, 3, 3),
      %14 : Float(320),
      %15 : Float(320, 320, 3, 3),
      %16 : Float(320),
      %17 : Float(320, 160, 4, 4),
      %18 : Float(160),
      %19 : Float(160, 80, 4, 4),
      %20 : Float(80),
      %21 : Float(80, 40, 4, 4),
      %22 : Float(40),
      %23 : Float(160, 320, 3, 3),
      %24 : Float(160),
      %25 : Float(160, 160, 3, 3),
      %26 : Float(160),
      %27 : Float(80, 160, 3, 3),
      %28 : Float(80),
      %29 : Float(80, 80, 3, 3),
      %30 : Float(80),
      %31 : Float(40, 80, 3, 3),
      %32 : Float(40),
      %33 : Float(30, 40, 3, 3),
      %34 : Float(30)):
  %35 : Float(4, 40, 256, 256) = onnx::Conv[dilations=[1, 1], group=1, kernel_shape=[3, 3], pads=[1, 1, 1, 1], strides=[1, 1]](%0, %1, %2), scope: FCN/Sequential/Conv2d[0]
  %36 : Float(4, 40, 256, 256) = onnx::Relu(%35), scope: FCN/Sequential/ReLU[1]
  %37 : Float(4, 40, 256, 256) = onnx::Conv[dilations=[1, 1], group=1, kernel_shape=[3, 3], pads=[1, 1, 1, 1], strides=[1, 1]](%36, %3, %4), scope: FCN/Sequential/Conv2d[2]
  %38 : Float(4, 40, 256, 256) = onnx::Relu(%37), scope: FCN/Sequential/ReLU[3]
  %39 : Float(4, 40, 128, 128) = onnx::MaxPool[kernel_shape=[2, 2], pads=[0, 0, 0, 0], strides=[2, 2]](%38), scope: FCN/MaxPool2d
  %40 : Float(4, 80, 128, 128) = onnx::Conv[dilations=[1, 1], group=1, kernel_shape=[3, 3], pads=[1, 1, 1, 1], strides=[1, 1]](%39, %5, %6), scope: FCN/Sequential/Conv2d[0]
  %41 : Float(4, 80, 128, 128) = onnx::Relu(%40), scope: FCN/Sequential/ReLU[1]
  %42 : Float(4, 80, 128, 128) = onnx::Conv[dilations=[1, 1], group=1, kernel_shape=[3, 3], pads=[1, 1, 1, 1], strides=[1, 1]](%41, %7, %8), scope: FCN/Sequential/Conv2d[2]
  %43 : Float(4, 80, 128, 128) = onnx::Relu(%42), scope: FCN/Sequential/ReLU[3]
  %44 : Float(4, 80, 64, 64) = onnx::MaxPool[kernel_shape=[2, 2], pads=[0, 0, 0, 0], strides=[2, 2]](%43), scope: FCN/MaxPool2d
  %45 : Float(4, 160, 64, 64) = onnx::Conv[dilations=[1, 1], group=1, kernel_shape=[3, 3], pads=[1, 1, 1, 1], strides=[1, 1]](%44, %9, %10), scope: FCN/Sequential/Conv2d[0]
  %46 : Float(4, 160, 64, 64) = onnx::Relu(%45), scope: FCN/Sequential/ReLU[1]
  %47 : Float(4, 160, 64, 64) = onnx::Conv[dilations=[1, 1], group=1, kernel_shape=[3, 3], pads=[1, 1, 1, 1], strides=[1, 1]](%46, %11, %12), scope: FCN/Sequential/Conv2d[2]
  %48 : Float(4, 160, 64, 64) = onnx::Relu(%47), scope: FCN/Sequential/ReLU[3]
  %49 : Float(4, 160, 32, 32) = onnx::MaxPool[kernel_shape=[2, 2], pads=[0, 0, 0, 0], strides=[2, 2]](%48), scope: FCN/MaxPool2d
  %50 : Float(4, 320, 32, 32) = onnx::Conv[dilations=[1, 1], group=1, kernel_shape=[3, 3], pads=[1, 1, 1, 1], strides=[1, 1]](%49, %13, %14), scope: FCN/Sequential[intermediate]/Conv2d[0]
  %51 : Float(4, 320, 32, 32) = onnx::Relu(%50), scope: FCN/Sequential[intermediate]/ReLU[1]
  %52 : Float(4, 320, 32, 32) = onnx::Conv[dilations=[1, 1], group=1, kernel_shape=[3, 3], pads=[1, 1, 1, 1], strides=[1, 1]](%51, %15, %16), scope: FCN/Sequential[intermediate]/Conv2d[2]
  %53 : Float(4, 320, 32, 32) = onnx::Relu(%52), scope: FCN/Sequential[intermediate]/ReLU[3]
  %54 : Float(4, 160, 64, 64) = onnx::ConvTranspose[dilations=[1, 1], group=1, kernel_shape=[4, 4], pads=[1, 1, 1, 1], strides=[2, 2]](%53, %17, %18), scope: FCN/ConvTranspose2d
  %55 : Float(4, 320, 64, 64) = onnx::Concat[axis=1](%54, %48), scope: FCN
  %56 : Float(4, 160, 64, 64) = onnx::Conv[dilations=[1, 1], group=1, kernel_shape=[3, 3], pads=[1, 1, 1, 1], strides=[1, 1]](%55, %23, %24), scope: FCN/Sequential/Conv2d[0]
  %57 : Float(4, 160, 64, 64) = onnx::Relu(%56), scope: FCN/Sequential/ReLU[1]
  %58 : Float(4, 160, 64, 64) = onnx::Conv[dilations=[1, 1], group=1, kernel_shape=[3, 3], pads=[1, 1, 1, 1], strides=[1, 1]](%57, %25, %26), scope: FCN/Sequential/Conv2d[2]
  %59 : Float(4, 160, 64, 64) = onnx::Relu(%58), scope: FCN/Sequential/ReLU[3]
  %60 : Float(4, 80, 128, 128) = onnx::ConvTranspose[dilations=[1, 1], group=1, kernel_shape=[4, 4], pads=[1, 1, 1, 1], strides=[2, 2]](%59, %19, %20), scope: FCN/ConvTranspose2d
  %61 : Float(4, 160, 128, 128) = onnx::Concat[axis=1](%60, %43), scope: FCN
  %62 : Float(4, 80, 128, 128) = onnx::Conv[dilations=[1, 1], group=1, kernel_shape=[3, 3], pads=[1, 1, 1, 1], strides=[1, 1]](%61, %27, %28), scope: FCN/Sequential/Conv2d[0]
  %63 : Float(4, 80, 128, 128) = onnx::Relu(%62), scope: FCN/Sequential/ReLU[1]
  %64 : Float(4, 80, 128, 128) = onnx::Conv[dilations=[1, 1], group=1, kernel_shape=[3, 3], pads=[1, 1, 1, 1], strides=[1, 1]](%63, %29, %30), scope: FCN/Sequential/Conv2d[2]
  %65 : Float(4, 80, 128, 128) = onnx::Relu(%64), scope: FCN/Sequential/ReLU[3]
  %66 : Float(4, 40, 256, 256) = onnx::ConvTranspose[dilations=[1, 1], group=1, kernel_shape=[4, 4], pads=[1, 1, 1, 1], strides=[2, 2]](%65, %21, %22), scope: FCN/ConvTranspose2d
  %67 : Float(4, 80, 256, 256) = onnx::Concat[axis=1](%66, %38), scope: FCN
  %68 : Float(4, 40, 256, 256) = onnx::Conv[dilations=[1, 1], group=1, kernel_shape=[3, 3], pads=[1, 1, 1, 1], strides=[1, 1]](%67, %31, %32), scope: FCN/Sequential/Conv2d[0]
  %69 : Float(4, 40, 256, 256) = onnx::Relu(%68), scope: FCN/Sequential/ReLU[1]
  %70 : Float(4, 30, 256, 256) = onnx::Conv[dilations=[1, 1], group=1, kernel_shape=[3, 3], pads=[1, 1, 1, 1], strides=[1, 1]](%69, %33, %34), scope: FCN/Sequential/Conv2d[2]
  %71 : Float(4, 30, 256, 256) = onnx::Relu(%70), scope: FCN/Sequential/ReLU[3]
  return (%71)


Test set: Average loss: 0.9580, Score: (77.44%)

Saving the model serialization to /home/mb385130/task2/model-epoch-11
Saving the model serialization to /home/mb385130/task2/model
